GNN/Apr-20ver1.pt (torch, 394923 bytes, 17 tensors)

weight f4 [16, 3]
000000 5c 85 89 3e 56 cd 20 3f fb 8b 30 3e ca ea a7 be
       0.26859558 0.6281332 0.17240898 -0.32796317
000010 c6 29 09 3d 2d 5c 21 bf 53 40 a4 3c ef 11 46 bd
       0.033487104 -0.63031274 0.020050203 -0.048356947
000020 17 88 2c 3f 74 41 7a be ce 4d 37 be e1 57 1f 3e
       0.67395157 -0.24439031 -0.17900774 0.15560867
000030 f0 8c a3 be 53 c0 0d bf d7 53 51 3d 57 12 0a be
       -0.31943464 -0.5537159 0.051105347 -0.13483559
000040 1c 95 cd be a1 7f 89 bd 5f 3b 9f 3d 03 df e2 3e
       -0.40152824 -0.067137964 0.07774996 0.4431077
000050 9b 32 8c bd 33 9c 06 3e a9 c6 09 bf 56 b9 19 bf
       -0.0684559 0.13145523 -0.53818756 -0.60048425
000060 ed 2b 5b be eb b6 5d 3e 2d 5e 48 3f 95 5d 9b be
       -0.21403475 0.21651809 0.782687 -0.30344835
000070 f3 e3 04 bf bc ca 22 3d 08 5c d7 be 62 7d 1a bd
       -0.5191032 0.039744124 -0.42062402 -0.03771723
000080 92 aa a9 3e ca be ad bd b4 89 9a be e3 37 f9 3e
       0.33137947 -0.08483656 -0.30183184 0.4867545
000090 46 70 f7 bd e4 56 a9 3e 94 41 2a 3f bc 97 9a be
       -0.12081961 0.33074105 0.66506314 -0.3019389
0000a0 41 69 00 bf 2e ff 3c 3d d0 3f 35 3f 79 db cd 3e
       -0.50160605 0.046141796 0.70800495 0.40206507
0000b0 22 30 33 3d 35 30 04 3f aa 25 25 3f be bb 49 bf
       0.043747075 0.5163606 0.64510596 -0.78802097

bias f4 [16]
000000 ff 54 bc be dd a2 0b 3f 80 c1 7d 3e 4c f2 ed 3d
       -0.36783597 0.54545385 0.24780846 0.1161848
000010 40 25 dd 3e 23 e6 2e 3f 8a 43 89 3d 35 d9 61 be
       0.43192482 0.6831991 0.06702335 -0.22055514
000020 3b fd c8 be 30 a1 97 3e ea 7c 12 3f 6e 62 eb 3d
       -0.392557 0.29615164 0.57221854 0.11493383
000030 6d f9 c2 3c 32 cc 9d 3e 80 de 12 3e b5 b9 c7 bc
       0.023800576 0.3081985 0.1434269 -0.024380544

c f4 [8]
000000 cf c9 a4 3d 35 5f 31 3e 01 8a 74 bd ab 25 50 3e
       0.080463044 0.17321475 -0.059701923 0.20326869
000010 44 b6 81 bd 6d 97 c1 bd 9b dd b9 bd cd cf 0a 3e
       -0.063335925 -0.0945271 -0.09075471 0.13555832

bias f4 [32]
000000 df b7 2e 3e 36 e3 54 3e e1 9f 8d bd db 4c 1a 3d
       0.17062329 0.20789799 -0.0691526 0.03767095
000010 f5 45 31 bc 42 35 e1 bd 84 c9 39 3e 9d 06 a3 3c
       -0.010819902 -0.10996486 0.18143278 0.019900614
000020 be 80 5f bd 83 71 c1 bd 1c 7c 83 3e 14 a3 ac 3d
       -0.054566137 -0.09445479 0.25680625 0.08429542
000030 e1 24 b2 3e c8 ec d6 bd 52 54 bd be 50 de 70 3c
       0.3479376 -0.10494381 -0.36978394 0.014701441
000040 cd 9b 89 bd 7c da 33 be 41 d1 2d bd 94 19 ce 3d
       -0.0671917 -0.17563814 -0.04243589 0.100634724
000050 af 05 3b 3e a3 78 a5 3b aa dc a7 bc 5d 52 f1 bd
       0.18263887 0.0050497814 -0.020490963 -0.11783288
000060 ad 39 7d 3e 05 5e 16 be ad df d8 3e d2 b3 0d 3e
       0.24729033 -0.14684303 0.4235815 0.13838127
000070 84 92 02 3e ec 57 f1 3e b8 51 8e 3e 63 06 b6 3d
       0.12751204 0.47137392 0.2779672 0.08887937

weight f4 [256, 16]
000000 08 10 1f be 2b 99 a8 3d db 18 26 be 04 8e 7b bc
       -0.15533459 0.082323395 -0.16220419 -0.015353683
000010 f5 16 cf 3b 7e e2 b2 3c 00 e8 33 bc 06 92 72 3d
       0.0063198754 0.021836516 -0.010980606 0.05922129
000020 2f 80 3d be 6c 48 c9 39 01 16 c0 3b cb 3d d5 ba
       -0.1850593 0.00038391666 0.005861998 -0.0016269026
000030 9b d0 03 3d 9d 8b 90 39 66 4e 96 3d 8b 3e 85 bd
       0.032181364 0.0002756984 0.07339172 -0.0650607
000040 96 c3 d1 bd a8 1c 17 be 9c f3 e1 bc 01 1a c0 bc
       -0.10242383 -0.14757025 -0.027581982 -0.0234499
000050 f2 0f 8f bc 7f 56 1e bc 36 e6 22 3d 82 c1 03 3d
       -0.017463658 -0.009664177 0.039770328 0.032166965
000060 79 55 8f bd 96 34 a3 bc 29 10 90 bc 73 1e 09 bd
       -0.069987245 -0.019922536 -0.01758583 -0.033476304
000070 88 f9 c0 bd ef 73 a1 bc 10 1b f9 bd c7 6d f8 3c
       -0.09422594 -0.019708602 -0.12163365 0.030325783
000080 96 7d 85 3d 09 b4 27 3e 37 fe 0e 3e b2 8e 1e 3d
       0.06518094 0.16377272 0.13964163 0.038710304
000090 8e 15 34 3d e8 40 47 3d bf 82 56 3e 22 73 1e 3d
       0.04396587 0.048645884 0.20948313 0.038684018
0000a0 2e a9 66 bd cb 4b 37 3d d5 0d a6 3c 3d 7a 97 3c
       -0.056313686 0.044750016 0.020270268 0.018490905
0000b0 9a 9e 0b 3d 90 ef 2c 3d be 53 48 be c7 88 f6 3d
       0.0340868 0.042220652 -0.19563195 0.12037807
0000c0 f6 ab 3e be fe 0b e0 bc 8d 4b cf 3d 48 19 a0 bc
       -0.18620285 -0.027349468 0.10121832 -0.019543305
0000d0 60 26 e0 bc 2d 4d 85 bc 93 c3 29 be 81 08 5e 3d
       -0.027362049 -0.016272152 -0.16578512 0.05420733
0000e0 ab 3c 57 bd c5 29 dd bc 72 0d 17 bd 71 4e 6e bc
       -0.05254809 -0.026997456 -0.036878057 -0.014545069
0000f0 13 b8 1e 3d 36 df f3 bc 88 c6 66 3d 83 50 4f be
       0.038749766 -0.029769521 0.056341678 -0.20245557
000100 76 a3 68 bd 8e b2 a6 bd ab a2 01 bd 48 98 ed 3c
       -0.056796513 -0.08139525 -0.031649273 0.029003277
000110 01 6e fd 3c 07 2a 0f 3d d6 0c 22 3e 8d 11 69 3d
       0.030936243 0.03495219 0.15825209 0.056901503
000120 46 d4 2d 3e c8 9b 01 3d 4a 07 d6 3c 57 bd db 3c
       0.16975507 0.031642705 0.026126523 0.026823683
000130 66 f6 b2 3d e4 46 fe 3c 0a 3a ff 3d e2 e8 2c be
       0.08738403 0.031039663 0.12462242 -0.16885713
000140 8d a7 e9 bd 53 f6 02 be 09 6f f9 3d 8e ea 93 3d
       -0.11408911 -0.12789278 0.121793814 0.07222472
000150 c6 19 07 3e 39 0c fb 3d 17 13 d1 bd c4 21 a3 bc
       0.13193426 0.12258191 -0.10208719 -0.019913562
000160 63 85 dc bd 27 4e b2 3d c6 30 0d 3e f4 48 17 39
       -0.10767629 0.087063126 0.13788137 0.0001442766
000170 75 ef 86 3e 94 41 df 3d a6 14 cf bd b1 4f 7c be
       0.26354566 0.1090118 -0.1011136 -0.24639775
000180 4e 9a 0e be 86 26 77 be d6 0f dc bd 56 0a c1 bc
       -0.1392605 -0.2413579 -0.10745208 -0.023564499
000190 dd 98 29 3c 30 8e 86 3d a5 ac fc bd 30 4c 15 be
       0.010351387 0.06570089 -0.12337617 -0.14579844
0001a0 b4 7f fd bd c2 76 bb bb c6 5b db 3a 7e ba 7e 3b
       -0.12377873 -0.005720944 0.0016735725 0.0038868482
0001b0 e5 77 97 3d 58 ce 83 3b ea 56 1e be 6d c3 bf 3d
       0.07395915 0.004022401 -0.15462843 0.093634464
0001c0 87 0c 57 3e 1a 93 51 be 65 f7 9c 3c ca da 07 bd
       0.21000873 -0.20466271 0.019160936 -0.033167638
0001d0 1a da db bc de 0a ca bc ed d3 14 bd 44 fb 74 bc
       -0.026837397 -0.024663385 -0.03633492 -0.0149524845
0001e0 83 1e 3a 3e ee 5e c7 bc 7b 02 93 bc ec 76 eb bd
       0.18175702 -0.024337258 -0.017945519 -0.11497292
0001f0 9e 97 71 3b 81 ce d6 bc 84 2a 66 3e c3 85 9a bd
       0.0036864053 -0.026221516 0.22477156 -0.07545044
000200 c0 4a 37 be 65 9d 25 3e 01 67 e3 3d 72 03 6e 3d
       -0.17899609 0.16173322 0.11103631 0.058108754
000210 a4 81 d4 3d 6e 93 e3 3d f2 76 0f be 90 b7 19 bd
       0.103762895 0.11112104 -0.14010218 -0.037528574
000220 53 2e 02 be 5e fb ba 3d 91 cc 4d 3e c5 0b 81 3d
       -0.12712984 0.09129976 0.20097567 0.06301073
000230 05 41 1f 3b d2 ca bb 3d e6 0a de bd 20 3f 58 3e
       0.002430023 0.09169544 -0.108419225 0.2111783
000240 67 1e fa 3d 22 4e a8 3d d4 a3 93 3c 98 92 95 bd
       0.1221283 0.08218028 0.018022455 -0.07303351
000250 7f 71 c6 bd c4 61 b8 bd 57 bd 1c 3e 6f bb 27 be
       -0.096896164 -0.09003022 0.15306602 -0.16380094
000260 a9 38 37 3e fd 6e 9f bd 54 20 da bd c0 6d 8c bd
       0.17892708 -0.07784841 -0.10650697 -0.06856871
000270 de 55 e0 3d 7d 41 a1 bd d7 b2 88 3e 86 7d db 3b
       0.10953878 -0.07873819 0.26698944 0.006698313
000280 a7 74 23 bd 29 ef ea bd 48 dd 3f 3e 0e f6 26 be
       -0.03990617 -0.114713974 0.18736756 -0.163048
000290 34 52 9a bd 74 1e e3 bd 33 0d 5b be a1 7a 15 be
       -0.0753521 -0.11089793 -0.21391754 -0.1459756
0002a0 23 3f 4f bd 9b b1 f3 bd 40 10 2a 3c ec d1 43 be
       -0.05059732 -0.1189911 0.010379851 -0.19123048
0002b0 c8 7f 06 be fe 43 1d be e5 3b 68 3d ff 32 63 be
       -0.13134682 -0.15357968 0.056697745 -0.22187422
0002c0 11 c0 9c bc 94 de 26 bd 0d 6f bc 3d d8 64 32 3d
       -0.019134553 -0.04073961 0.09200869 0.043553203
0002d0 d5 60 87 3d 50 32 c9 3d a7 47 8c 3c c1 95 59 3d
       0.06610266 0.098240495 0.01712401 0.053121332
0002e0 91 66 67 3e 86 da 6e 3d ea f9 15 3e e0 7d 98 bb
       0.2259772 0.05831387 0.14646116 -0.0046536773
0002f0 15 b0 44 3e dc 70 6c 3d ae 69 84 3e 40 2c 96 bb
       0.19207795 0.05772482 0.25861877 -0.0045829117
000300 51 4c d7 bd 0c a1 f2 3d a4 85 ae 3d 9c 8d b8 bd
       -0.10512603 0.118471235 0.08521584 -0.09011385
000310 1e 5d c0 bd 76 a0 ae bd e0 c3 dd bd 2d b9 57 3d
       -0.09392761 -0.08526699 -0.10828376 0.05266683
000320 28 46 17 3d 2f 03 d0 bd 42 c7 86 bd 1e b2 33 bd
       0.03693214 -0.10156857 -0.06580974 -0.043871038
000330 93 c9 17 3d 07 6f cc bd 29 7e 47 3b 57 c0 5d be
       0.03705747 -0.09982114 0.0030440188 -0.21655403
000340 70 ca 66 3e 9d 05 1e 3e 95 be 98 bd 0f e8 e6 3c
       0.22538161 0.15431829 -0.07458226 0.028186826
000350 d7 79 97 3c a5 39 a8 3c 90 b3 0e 3b 8a 9f e5 3c
       0.018490715 0.0205353 0.0021774508 0.028030176
000360 b0 ba 09 3e 48 4d e6 3c 50 c7 23 3d c3 36 d4 3c
       0.13450122 0.028113022 0.039985 0.025905019
000370 f6 d7 1c 3e f6 52 e7 3c 59 fd 20 bd b8 dc 8d 3e
       0.15316758 0.028237801 -0.03930411 0.27707458
000380 16 f3 77 3e 9c b5 87 3c 32 e9 0a bd 9c e1 95 3d
       0.24213824 0.01656609 -0.0339138 0.07318422
000390 68 56 99 3d a4 7f b4 3d d6 84 2b be 48 5b d9 3c
       0.07487184 0.08813408 -0.16749892 0.026532784
0003a0 2f d2 6c bb 94 e4 a5 3d 0f 61 87 3d 1e 6b c3 3c
       -0.0036136021 0.081002384 0.06610309 0.023854788
0003b0 2d 86 1e 3e 2e 07 9e 3d 39 0b 79 3e 25 0e 0a be
       0.15480871 0.07716213 0.24320687 -0.13481958
0003c0 9c 46 09 3e 79 33 9d bd 15 b7 04 3e 8b 7c a4 bd
       0.13405842 -0.07675833 0.12960465 -0.08031567
0003d0 3d 19 b9 bd 13 1d ae bd fc 08 85 3c 71 00 0c be
       -0.09038017 -0.08501639 0.016239636 -0.13672043
0003e0 c2 6a 3e 3e 2d 80 87 bd 8e 84 f6 bd a5 9c dd bd
       0.18595412 -0.066162445 -0.120370016 -0.10820893
0003f0 9c 5f ed 3d da 4d a1 bd 56 65 37 be 84 33 f2 3d
       0.11590502 -0.07876177 -0.1790975 0.11826232

weight f4 [8, 16]
000000 83 0a 3f be ba 79 1c 3d 41 b2 78 bd b3 dd bf 3d
       -0.18656354 0.038202025 -0.06071687 0.09368458
000010 21 15 cc 3d b4 49 ff 3e ca d5 20 be be a1 b1 3d
       0.099649675 0.4986092 -0.15706554 0.08673428
000020 e6 b1 12 3e d5 db 8e 3d 16 88 20 3c 1e 01 bd 3c
       0.14325675 0.069755234 0.00979807 0.023071822
000030 03 41 2b 3e f9 a7 a3 3d 59 92 02 be d9 36 80 be
       0.16724019 0.079910226 -0.1275114 -0.25041845
000040 36 4d 61 be 7b be c3 3c 09 30 34 3e 23 a5 46 3d
       -0.2200211 0.02389454 0.17596449 0.04849733
000050 87 8b 27 3e 15 6a 8d bd 05 7e 4b 3e d3 48 16 bd
       0.16361819 -0.06904999 0.19872291 -0.036690544
000060 6b df df bd 0f 50 97 3d 6e bf f0 bb 7d 35 6c 3e
       -0.109312855 0.07388317 -0.007347039 0.23067279
000070 d9 11 f7 3d 26 6b 1e 3e 5b 00 8f 3c c7 b2 b8 3e
       0.12063951 0.15470561 0.017456224 0.36073896
000080 cb 5c 38 bd 13 8c 04 be 29 1a 51 3e 07 8e 56 be
       -0.04501037 -0.12944059 0.20420136 -0.20952617
000090 83 cf c8 3e 7b b8 0e bd d5 a1 00 3e 33 ff 6d be
       0.3922082 -0.034843903 0.12561734 -0.23241882
0000a0 df c4 61 3e d8 1c 93 3e d6 5d 8b be 9c 9c 9b bd
       0.22047757 0.28732944 -0.2722003 -0.0759823
0000b0 84 92 1f 3e 8c fb 41 3e c8 b6 08 3e fa 71 10 be
       0.15583235 0.18943614 0.13350976 -0.14105979
0000c0 2d 69 79 be 81 88 ff 3c 80 1e ca 3e 01 bd 30 3e
       -0.24356528 0.03119302 0.39476395 0.172596
0000d0 42 66 dc bc e5 a9 b1 bd 1c 06 18 bd 06 2e ae 3c
       -0.02690423 -0.08674983 -0.0371152 0.02126218
0000e0 cd 1d 40 be 45 ff 7c bc cf 3f ab 3e 33 9b 44 b9
       -0.18761368 -0.01544172 0.3344712 -0.00018749833
0000f0 ea 85 97 bc 60 9e 38 bc d2 5e 7e be 7d ea ad 3c
       -0.018496472 -0.011268228 -0.24840859 0.021229977
000100 8b a5 21 be b1 8c 3b be fd 4d 1b 3e 6d d7 2a bd
       -0.15785806 -0.18315388 0.15166469 -0.041709352
000110 a1 c2 a5 3d e8 17 b4 bd 3c 28 80 bd 8a d8 60 3d
       0.08093763 -0.08793622 -0.06257674 0.054894008
000120 85 00 3a bd a5 df 94 3d 92 26 9a 3e 32 dc ea bd
       -0.04541065 0.07269219 0.30107552 -0.1146778
000130 19 ae ef 3d 02 13 8f 3d ce ae 54 3e 90 a7 61 be
       0.11703128 0.06986047 0.20769808 -0.22036576
000140 ae 68 84 3c 34 57 63 3c 35 5e a7 3d 5e 29 df bc
       0.016163196 0.013875771 0.081722654 -0.027241405
000150 ba dc 70 bc 08 a7 12 bd 56 05 f1 3d f0 e9 06 3c
       -0.014701063 -0.035803825 0.11768596 0.008234486
000160 bd d3 a4 bd d5 09 99 3c ca bc 01 3e bf 12 83 be
       -0.08048198 0.018681446 0.12669674 -0.2560024
000170 e4 01 9b be a9 51 9b 3d 03 d6 45 3d 75 76 25 bd
       -0.3027488 0.07583935 0.0482998 -0.040396173
000180 fc 13 4f 3e 80 37 8a 3e 9f 68 55 bd dc 08 1c bb
       0.20222467 0.26995468 -0.052101728 -0.0023808992
000190 4c e1 f3 be fd 40 8e be 42 e3 e2 bc b4 0d 49 3d
       -0.47632825 -0.27783957 -0.027696256 0.049085334
0001a0 e9 63 94 3e c7 d6 f6 be bd 47 42 be 24 fb 60 3e
       0.28982475 -0.48210737 -0.18972678 0.21970803
0001b0 39 52 8e 3e 15 0b d2 be 51 e6 51 be ab f3 b0 3d
       0.27797106 -0.4102408 -0.20498015 0.08640226
0001c0 c2 cc 9d bd 4b 87 99 3e 5c bb b0 be 66 da aa bd
       -0.0770507 0.29986033 -0.34517944 -0.083424374
0001d0 0f 7d 65 3d d1 46 6a 3d 61 c0 3d be b3 dd b7 bc
       0.05602747 0.057196442 -0.18530418 -0.022444582
0001e0 5d 86 2b be e9 b4 66 3d 13 a9 7c be 7a 68 14 be
       -0.16750474 0.056324873 -0.24673872 -0.1449298
0001f0 74 2a e8 bd 99 13 9e 3d e0 b5 0c be 0d 4b 34 be
       -0.11336222 0.07718582 -0.13741255 -0.17606755

c f4 [8]
000000 62 18 b2 bd 44 4a d7 bc b5 4c 5d 3c e6 2b ac bd
       -0.08696057 -0.02628053 0.013507058 -0.084068105
000010 3a 66 37 3d 55 2a 3c 3e 4a 5a 31 3d 57 fe a4 bd
       0.044775225 0.18375523 0.043298997 -0.08056324

bias f4 [64]
000000 e0 16 81 3d 00 8b 9b bd 6c 07 4e bb 9d 44 57 bc
       0.06303191 -0.075948715 -0.003143753 -0.013138917
000010 e0 80 37 3b 6d e3 8e 3d 20 14 31 3d 60 e8 af 3d
       0.00280004 0.06976972 0.043232083 0.08589244
000020 dd c8 c5 3d ce c5 3d bd 18 85 de 3b 6e dc aa bd
       0.09657452 -0.04633122 0.0067907684 -0.08342825
000030 f3 3e 46 3e 0e 1a 14 ba 6d 62 d0 3d 28 75 2c be
       0.1935995 -0.00056496344 0.10175023 -0.16841567
000040 78 f4 e4 3c 15 93 01 3e 28 6b ba 3d fe 54 99 bd
       0.027948603 0.12653764 0.0910247 -0.07486914
000050 bf 2c 32 bc f9 4a ba 3b 85 98 7b bd d7 34 91 3d
       -0.010874926 0.005685207 -0.06142475 0.070901565
000060 ff ea a0 3d 71 86 25 bc 7b a6 9b bb c2 75 99 bc
       0.07857322 -0.010102854 -0.0047500706 -0.01873291
000070 f9 87 94 3d 6d df a1 3d 97 07 d5 bc 11 de 09 3d
       0.07252497 0.07903943 -0.026004596 0.033659045
000080 bf e6 d3 bb 35 f6 fa 3c 32 70 ef 3d 84 58 86 3d
       -0.006466716 0.030634979 0.116913214 0.06559852
000090 6b 73 af 3d 74 0c 6e 3d 78 4c aa 3d 02 ed ea 3d
       0.08566936 0.058117345 0.083153665 0.11470987
0000a0 33 21 a4 3d 72 10 ee 3d af c5 a2 3c 42 c6 af ba
       0.08014145 0.116242304 0.019869654 -0.0013410526
0000b0 59 10 fb 3d be 16 92 bd 45 e7 20 3d d9 fd 35 3e
       0.122589774 -0.07133244 0.039283056 0.17772616
0000c0 ee 1d 63 3e ec c5 41 3d d6 f2 c4 3c a0 25 8b bd
       0.22179386 0.047307894 0.024041574 -0.06794286
0000d0 bf 33 58 bd a6 c1 27 3d a2 2f b4 3d 41 4a cb 3b
       -0.052783724 0.040956162 0.08798148 0.00620392
0000e0 61 46 b2 bd 03 dd 4b bd 66 69 05 be 54 e0 72 3b
       -0.0870483 -0.04977132 -0.13028488 0.003705998
0000f0 8c 35 da 3c 41 41 a4 3d 3d 3a 29 3e f5 53 ed 3d
       0.026636861 0.08020259 0.16526122 0.11588279

weight f4 [512, 32]
000000 6a 0b 31 3e 33 93 9f bd 0b 9c 80 bd 22 2f 8f 3c
       0.1728951 -0.07791748 -0.06279763 0.01747853
000010 9c 1b bd bd 70 09 62 bd d6 97 62 3d 05 ac 10 be
       -0.09233782 -0.05518478 0.055320583 -0.1412812
000020 94 72 37 3e 4a ea 07 3c 07 86 00 be 00 35 11 3e
       0.17914802 0.008295605 -0.12551127 0.14180374
000030 b4 65 71 bb e3 f3 45 3e f1 f3 45 bd 18 15 1d bd
       -0.0036834301 0.19331317 -0.048328344 -0.038350195
000040 c0 3d a0 bd d1 48 69 bc 0d 83 9e bd e9 c1 78 bd
       -0.07824278 -0.014238552 -0.0773984 -0.060731802
000050 d9 52 64 3d 95 4b aa bd e1 f7 f6 bd b4 33 d0 bc
       0.055743072 -0.083151974 -0.12058998 -0.025415279
000060 0f 02 47 3e cb d1 4e 3e ae 2e e5 bd dd e8 15 3e
       0.19434379 0.20197217 -0.11190544 0.14639612
000070 29 be 95 3d 4f 37 15 bd f2 b4 78 bd 5a 2f 54 bd
       0.07311661 -0.0364297 -0.060719438 -0.05180297
000080 38 8c ab bd ef 9f 2d 3d 46 73 9f bd af 7d 46 bd
       -0.08376354 0.042388853 -0.077856585 -0.048459705
000090 17 36 d9 3c 25 0a c1 bd dc 64 a0 bc 2e 9e 2a 3d
       0.02651505 -0.09425763 -0.019579343 0.04165476
0000a0 8a 23 98 3d 7e fb fe bc d2 f2 65 3c 47 c8 14 3c
       0.074286535 -0.03112578 0.014034944 0.009080953
0000b0 cb 90 03 3d 2f 23 c4 3d 15 69 ea bd 62 77 9d bb
       0.032120507 0.09577023 -0.11445824 -0.0048054913
0000c0 43 ff 29 bd 2a bd 37 bb af f5 33 3e cc 23 1c 3d
       -0.041503202 -0.0028036335 0.1757419 0.038120076
0000d0 d1 56 3a 3d 4f c8 c9 3c db 02 bc 3c 17 d0 24 3d
       0.04549295 0.024631647 0.02295058 0.040237512
0000e0 0a f0 94 bc 14 df 26 3e 09 33 af bb 9e 5a 16 3e
       -0.018180866 0.16296035 -0.00534666 0.14683005
0000f0 50 2e e5 3d 40 1c c3 bb 41 72 09 bd 36 5d 3b b9
       0.11190474 -0.0059542954 -0.033556227 -0.00017868433
000100 05 d2 8f 3a f8 ea 93 ba 42 b3 1c 3b cb 89 9f 3b
       0.0010972625 -0.0011285236 0.0023910557 0.004868721
000110 3c df 20 bb 0c 6f 3a bc b6 9b 76 bb 0b 66 84 bc
       -0.002454712 -0.011379015 -0.0037629432 -0.01616194
000120 da 5a 4d 3b 83 99 40 bc a0 29 10 3c 67 8f f6 bb
       0.003133467 -0.01175535 0.008798987 -0.007524419
000130 c3 65 9c ba 6e 20 28 bc 3a 8c 23 bc 23 95 4c bc
       -0.0011932183 -0.010261638 -0.009982163 -0.012486729
000140 be 1e a0 3c 1f f1 7f 3b 63 fa 9d 3b f8 36 b8 3b
       0.019545909 0.0039053631 0.004821108 0.005621787
000150 c5 2c ce bb 36 a4 b5 b7 74 fd 04 bb c5 af 01 bc
       -0.006291958 -2.1653348e-05 -0.0020292671 -0.007915442
000160 c6 bb 4e ba 20 fc aa 3b 06 a8 29 3b 7a 58 43 3c
       -0.0007886257 0.005218044 0.0025887503 0.01192295
000170 eb 44 21 3c 50 1b 19 37 a1 89 26 3c b1 fe 33 3c
       0.0098430915 9.12587e-06 0.010164649 0.010986016
000180 69 0c 92 3c bd ad be 3b be d9 48 bb 8f 45 04 3c
       0.017828183 0.005819051 -0.0030647363 0.008073225
000190 33 bf 95 3b cf 45 21 bc 0c 1b b9 3b e9 6c 4b 3c
       0.004569912 -0.009843304 0.005648976 0.012416103
0001a0 10 b0 17 3a e6 e0 9d 3c 71 3d d8 bc 8d 5e a1 3c
       0.0005786428 0.019272279 -0.026396485 0.019698406
0001b0 50 1e 6b 3c ed 8a 3b 3c 85 fc 62 3c 50 f7 7b 3c
       0.014350489 0.011446697 0.013854151 0.015378788
0001c0 c0 fc 8c 3c 98 01 6a 3c 39 70 52 ba 2a 3d 9d bb
       0.017210364 0.014282607 -0.0008027587 -0.004798551
0001d0 64 fa 04 3c c3 ee e1 bc ff 6e 3c ba 10 fb 4e 3c
       0.008116338 -0.02757967 -0.00071881706 0.0126331
0001e0 c9 69 09 bc 55 68 78 bc fa c7 87 bc 1a f7 5b 3c
       -0.008387038 -0.015161593 -0.016574848 0.013425613
0001f0 1e 4e 1d ba 42 e3 82 bc 45 6d cc bc 4b c0 5a 3c
       -0.0006000715 -0.015977506 -0.024954448 0.01335151
000200 4b 1e fd bb 2f 38 73 bb 4c 41 84 bb 45 82 e3 b9
       -0.0077245585 -0.0037112345 -0.0040361043 -0.00043393872
000210 c4 95 a4 39 76 06 18 bc b2 46 4c bc 6c ea 1b bc
       0.00031392102 -0.009278884 -0.012468027 -0.00951634
000220 0b 14 2a 3c 15 0f 7e bb 01 84 75 3c 06 ff 37 3d
       0.010380755 -0.0038766314 0.014985085 0.044920944
000230 4b 54 84 3b f6 ce 55 3c 90 da 75 3c bd e3 74 bb
       0.004038369 0.013049832 0.015005723 -0.0037367188
000240 30 7d c5 3a fb b7 9a bc 07 b3 59 bc 32 16 3f 3a
       0.0015067216 -0.018886557 -0.013287312 0.0007289379
000250 3e 29 01 3a 47 37 8d bc 75 3c 69 3a f3 56 45 bb
       0.0004927105 -0.017238272 0.00088972534 -0.003011164
000260 04 7e d1 3b e5 53 45 3d bb cd dc 3b ee 4a 6c 3d
       0.006393196 0.04817571 0.006738392 0.057688646
000270 db a2 5c bd 05 c8 99 3b b5 ae 8d 3b 18 dc 48 3b
       -0.05386625 0.0046930336 0.004323805 0.0030648764
000280 8e 72 ba 3d d1 8f 85 bd 75 59 ea 3d e2 0f b0 bd
       0.09103881 -0.065215714 0.11442844 -0.085967794
000290 f1 21 a9 bd b4 90 8c bd d1 64 b7 3c 6e f5 e5 bc
       -0.08258427 -0.068635374 0.02238694 -0.028071132
0002a0 c3 54 0e bd 3c 35 5c bd 17 3e 83 3d f8 c7 2a be
       -0.034748804 -0.053761706 0.06408327 -0.16677845
0002b0 69 e0 d1 3c 0a 93 ac bd c8 93 6a 3d 85 da 65 bd
       0.025619702 -0.08426483 0.05726984 -0.0561166
0002c0 e5 fd f5 3d 86 c2 44 3d b9 58 02 be 81 e5 49 bd
       0.12011317 0.048037075 -0.12729158 -0.049291138
0002d0 75 fc dd 3c d7 a9 34 bd 0b cf 5a bd f0 66 00 3c
       0.02709792 -0.044107284 -0.053420108 0.007837042
0002e0 d5 03 de 3d f0 d9 91 3d 3c 72 ce bd 95 36 bf 3c
       0.10840575 0.071216464 -0.10080382 0.023341456
0002f0 c6 9d 33 3d 0b 09 c8 bd 4c 74 0c 3e 43 18 dc bd
       0.043851636 -0.0976735 0.13716239 -0.10746815
000300 86 d2 00 bd 7d 94 81 bd 37 e7 7e bd 1f 1b 75 3c
       -0.03145077 -0.0632715 -0.062232222 0.014960079
000310 9e b8 a0 bc d5 bc b9 3b d2 96 ec 3b 8c 93 15 bc
       -0.019619282 0.0056682625 0.0072201276 -0.009129416
000320 bc f8 b2 38 59 63 26 bc 15 ad 8b bd 5e 99 04 bd
       8.534032e-05 -0.010155522 -0.06820122 -0.032372825
000330 de 93 a8 3b 8b 5e a1 3d f8 43 dd 3c 63 56 0a bd
       0.0051445803 0.07879361 0.02700995 -0.03377379
000340 94 89 d1 bd 49 10 fd bb 64 d2 f6 bd 4b 1c df ba
       -0.10231319 -0.0077228886 -0.120518476 -0.0017021982
000350 88 16 c0 bc 04 15 7c bd a3 b3 63 bc 18 39 cb 3b
       -0.023448244 -0.06154348 -0.013897809 0.0062018745
000360 ab 23 d4 3d 93 fc cc bd 92 cd 88 bc 04 99 34 bd
       0.103583656 -0.10009112 -0.016699586 -0.04409124
000370 d9 e2 7a bd 22 ab 75 bd 4d bb 87 3d c0 bb 8b 3d
       -0.061251495 -0.059977658 0.06627522 0.0682292
000380 e5 95 d3 ba dd 28 ef bc 55 61 bc bd 7f 26 6c 3d
       -0.0016142695 -0.02919429 -0.09198252 0.0576539
000390 c3 96 60 bc 04 c3 ab bc cd aa 02 bc 5a f9 a5 bd
       -0.013707819 -0.020967014 -0.007975292 -0.08104201
0003a0 ee 06 ab 3c 98 97 35 bd 2e 1c cf bd 6b 29 01 be
       0.020877328 -0.044334024 -0.10112797 -0.12613456
0003b0 c3 6e 8f 3d d4 36 d8 3d 64 1c d4 3c e3 ee aa bd
       0.07003548 0.10557333 0.025892444 -0.08346345
0003c0 1b d7 f8 3d 5d 26 f2 bd 42 c1 fe bd af d1 79 bd
       0.12150403 -0.118237235 -0.12439205 -0.060990985
0003d0 7b 21 e4 bc 8b 16 76 bd 4a a8 b3 bb c4 03 14 bd
       -0.027847996 -0.060080092 -0.005482708 -0.036136404
0003e0 c5 d7 14 3e 49 dd f1 3d 71 b7 6e bb 52 34 88 3c
       0.14535435 0.11809785 -0.0036425258 0.01662651
0003f0 61 b4 0d bd b9 24 45 bc dd d8 40 bd 65 31 61 3d
       -0.03459585 -0.012032681 -0.047081817 0.054978747

weight f4 [8, 32]
000000 4c 25 78 be d6 89 94 3e a9 dd 05 3e 20 93 a2 3d
       -0.24232978 0.2901141 0.13072838 0.07938218
000010 96 f9 17 be 9a 82 80 3e d2 e5 ab bd 72 d1 b0 3c
       -0.14841303 0.2509964 -0.08393444 0.021584246
000020 92 50 eb 3d 60 07 e0 bd fe cf a1 3e 77 9f b4 3d
       0.11489977 -0.10938907 0.31603998 0.08819478
000030 f5 0d 59 bd 47 8b fd 3d 00 96 d2 3b 1d 4d 68 be
       -0.052991826 0.12380081 0.006426573 -0.22685666
000040 c3 ff 62 bd 77 95 b0 3d 57 08 4e 3e dd cc 32 3e
       -0.055419695 0.08622258 0.20120369 0.17460962
000050 69 12 05 be f7 96 0a 3e d3 29 95 3d e6 bf 1f 3c
       -0.12995304 0.13534151 0.07283368 0.009750342
000060 a4 92 ba bd 09 f5 2b 3e 99 d8 52 3e 7a e6 63 3e
       -0.09110001 0.16792692 0.20590438 0.22255889
000070 1b 5a d1 bd f7 63 fe bc 3d 92 78 be 42 4d 5e 3d
       -0.102222644 -0.031053526 -0.24274535 0.054272898
000080 ee 75 6e bd 01 9d e6 3d 72 28 4b be 92 58 39 3e
       -0.058217935 0.11260415 -0.19839647 0.18100193
000090 e4 15 dd 3d 63 eb 69 3d cc 7c 34 3d ee 3a cd 3c
       0.10795191 0.057109248 0.044064328 0.025052514
0000a0 23 9e 18 be 73 d9 2f bd 7a 21 87 bd 91 ac dd bd
       -0.14904074 -0.042931985 -0.06598182 -0.1082393
0000b0 e1 a9 30 3e 32 ad 60 be 40 92 cd bd fc b1 f5 3d
       0.17252304 -0.21941069 -0.100376606 0.119968385
0000c0 23 fb 3e 3e 5d b0 62 3d 33 0e 0d be 5a 1a 7a 3e
       0.18650489 0.055343974 -0.13774948 0.24424115
0000d0 68 46 93 3d b0 26 10 3e 90 92 29 3d 9e 39 8a 3d
       0.07191163 0.14077258 0.04139954 0.06749271
0000e0 93 2d 26 3c 71 94 c5 3d 6f 8e 96 be 73 54 88 be
       0.010142702 0.096474536 -0.29405543 -0.2662693
0000f0 3e dc 41 be dc 08 36 be cf 4b 5b 3e a6 bd 14 3e
       -0.18931672 -0.17776817 0.21415637 0.1452547
000100 85 4c b8 bd e3 d8 d9 3d 4b 39 78 3d 89 5d aa 3c
       -0.0899897 0.10637071 0.060601514 0.020796554
000110 98 7f 8f bd c2 2a 33 3e 40 15 8a 3d 2b 51 56 3d
       -0.070067585 0.1749678 0.06742334 0.0523235
000120 d9 85 0d 3e 96 11 ed 3b d7 f6 bf bd 51 1e 19 3e
       0.1382059 0.0072347624 -0.09373253 0.14952971
000130 74 a8 35 be 54 ca 20 3e 39 80 81 3d b6 16 93 3d
       -0.17740041 0.15702182 0.06323285 0.07182066
000140 e6 c8 83 be a4 4a 23 3e 73 50 0d be 58 93 84 be
       -0.2573921 0.15946442 -0.1380022 -0.25893664
000150 66 91 a6 bd 32 d6 e4 bd 99 a7 04 be 43 9c 1c be
       -0.08133201 -0.11173667 -0.12954558 -0.15293984
000160 ec 45 04 3c c2 c2 3d 3e 36 35 02 3e 61 3f 2b 3e
       0.008073311 0.18531325 0.12715611 0.16723396
000170 4a f4 19 bd 36 14 3d 3e e0 bc 68 be 24 34 cf bd
       -0.037586488 0.18464741 -0.227283 -0.10117367
000180 21 e3 04 3d 3b 19 8d 3d 59 1d fb 3d dc c3 59 be
       0.03244317 0.06889578 0.12261457 -0.2126612
000190 b5 11 11 3d 8a 83 db bd 60 32 fd 3c cf 4f 78 3d
       0.035417277 -0.107184485 0.03090781 0.060622986
0001a0 06 4d 43 be b7 c0 5d 3e 55 72 47 bd 66 25 d9 3d
       -0.19072351 0.21655546 -0.04869302 0.10602836
0001b0 4a 95 d3 3c cf 6f 48 bc e0 73 db bc 69 b5 1d 3d
       0.025828023 -0.0122336885 -0.026788652 0.038503084
0001c0 55 69 bc bd 52 b9 08 3e 36 bb 89 3c 16 e5 fb bd
       -0.09199778 0.13351944 0.016812902 -0.12299554
0001d0 4a 75 e4 3d cb 08 77 3d 75 a4 12 bd a9 4b 76 3c
       0.111551836 0.06031112 -0.03580137 0.015032687
0001e0 c8 cb 94 bb 35 21 33 be 73 e5 30 3d 2e d4 3d bd
       -0.004540894 -0.17493136 0.04318757 -0.04634493
0001f0 55 2f 73 bd cc 04 d5 bd d4 aa be 3c e8 51 ab 3d
       -0.05937131 -0.104013056 0.023274817 0.08365232
000200 e4 24 8e bd 24 a3 88 bd 5f c6 e0 bd 0f aa 5e 3d
       -0.0694063 -0.066717416 -0.10975336 0.0543614
000210 72 c3 2e be a0 0c 0e be 4a 65 0b 3e 78 24 13 be
       -0.17066744 -0.13872004 0.13612857 -0.1436938
000220 91 a5 45 be a9 94 43 bc eb a4 82 3d df b6 5a be
       -0.1930144 -0.011937299 0.06379112 -0.21358822
000230 5a c1 c4 bc bc 19 94 3c 9c 8d 3e be fe ac 05 bd
       -0.024017978 0.018078677 -0.18608707 -0.03263568
000240 96 38 f9 3d a2 be b4 bd ce db 11 3e 9d 13 74 3e
       0.12168996 -0.08825423 0.14244005 0.23835607
000250 04 2a dd bd e5 f2 df bd 57 27 d8 3d 03 02 88 bd
       -0.107990295 -0.10935 0.105543785 -0.06641009
000260 c0 bc b0 3c bf 02 d6 3c 54 68 78 bf eb 6d e7 3d
       0.021574378 0.026124356 -0.9703419 0.11300262
000270 34 70 e2 bc 1e cc 92 bf 69 64 ed 3d d2 c4 00 3d
       -0.027641393 -1.1468542 0.11591417 0.031437702
000280 4c 0f 91 3a c2 52 d5 be 2e 3d 2d 3e fe 02 1e 3d
       0.0011067181 -0.41664702 0.1691787 0.038577072
000290 a0 bf 10 bb 47 28 82 bd 1d e7 14 3d 25 99 08 bd
       -0.0022086874 -0.063553385 0.03635322 -0.033349175
0002a0 9d 93 a9 3d bc 2c 70 3d 9c 78 ab bb 30 eb 15 be
       0.08280108 0.058636412 -0.0052328836 -0.14640498
0002b0 cf 22 11 be 83 4a d5 3c ca f8 37 bd 4f 09 b8 3d
       -0.14173435 0.026036507 -0.044914998 0.089861505
0002c0 4d 5c 68 3e 60 bb 9d 3d 43 2a f7 3d 89 f6 a9 bd
       0.2269146 0.077017546 0.12068608 -0.08298976
0002d0 b3 52 20 be d5 49 9c 3c 1a 13 bf bd 7c cf 95 3d
       -0.15656547 0.019078175 -0.09329815 0.07314965
0002e0 45 4a c6 3c 31 f0 d0 3b 17 7c 79 3e 32 d9 87 3d
       0.024205336 0.0063762893 0.24363743 0.066332236
0002f0 32 1e be 3d e6 8e 65 3e 16 b9 00 3e 82 b9 65 3d
       0.09283103 0.22417793 0.12570605 0.056085117
000300 57 61 c3 3d eb 06 a6 3d f1 ca d9 bd d0 0f aa 3c
       0.095400505 0.08106788 -0.10634411 0.020759493
000310 a3 e0 0c bd a4 07 de bd 89 ce 8c 3d fc 35 86 bc
       -0.034393918 -0.10841301 0.06875331 -0.016383164
000320 a0 8a 22 3d 04 5f 65 3e b9 78 76 3d 6a 4b 1c be
       0.039682984 0.22399527 0.060173724 -0.15263143
000330 78 c0 d9 3d 40 f3 e9 3c 12 ee 25 3e 45 1a a6 3c
       0.106324136 0.028558373 0.16204098 0.020276198
000340 bd da 09 3e 76 b7 c8 3c f7 9b 14 bb c5 e5 28 3d
       0.13462348 0.024501543 -0.002267597 0.04123475
000350 eb 00 8f 3d 0c 17 2a be f7 c8 8c 3b 54 6f 74 3d
       0.06982597 -0.16610354 0.004296418 0.059676483
000360 2f 38 30 3e 54 8e 4b 3c a1 6d d7 3b fc 9c 1e 3d
       0.17208932 0.01242407 0.006574348 0.03872393
000370 92 02 7e bb 9b d8 ec bc d8 65 0c be 17 de 94 3c
       -0.0038758856 -0.02891188 -0.13710725 0.018172307
000380 35 c1 42 bd 79 6e 48 bd fd 3e 21 be 4d a4 16 be
       -0.047547538 -0.04893348 -0.15746684 -0.14711113
000390 4c cf c7 bc 96 48 11 3d a0 44 86 3d 14 dd 81 3d
       -0.024390839 0.035469614 0.06556058 0.063409954
0003a0 d9 b2 03 3e b4 c9 f9 bd 57 bc 9e 3d 5a ba 23 be
       0.12861194 -0.12196675 0.07750767 -0.15989056
0003b0 e8 83 e6 bd e9 08 32 bd 20 ae e2 bd 01 1a 62 bd
       -0.11255628 -0.04346553 -0.11068368 -0.05520058
0003c0 d1 dd e0 3c 64 aa 07 be 82 e7 46 bc 92 83 8d bd
       0.02744952 -0.13248593 -0.012140157 -0.06909861
0003d0 34 76 f0 bd 2f a0 5f bd b0 ab ec 3d 10 e0 25 be
       -0.117412955 -0.054596122 0.11556184 -0.16198754
0003e0 01 45 97 bc ea e1 79 bd a8 a6 50 3f cb 68 82 3d
       -0.01846552 -0.061006464 0.815043 0.06367644
0003f0 41 5a 8b 3c e2 54 80 3f 1c 5c ce bb 3b ab 39 bd
       0.01701081 1.0025904 -0.0062976014 -0.045329314

c f4 [8]
000000 d6 68 f8 bd 2e ad 21 be d0 67 04 bd d9 1c 70 3e
       -0.12129371 -0.15788719 -0.032325566 0.23448505
000010 2e f1 4d bd 2a 02 2a be 54 a9 64 3e 0a 19 15 bd
       -0.050278835 -0.16602388 0.22330219 -0.036400832

bias f4 [128]
000000 8a 8f 1b be 49 f1 16 3d 8e 0c 23 3a 60 b8 cd bd
       -0.15191475 0.0368512 0.00062198273 -0.10044932
000010 38 93 6a 3d 9e 34 ad ba 83 55 97 3d 14 91 68 38
       0.057269305 -0.0013214534 0.07389357 5.5448225e-05
000020 6b 7f 29 ba 41 e4 9d 3d 5b d1 92 3a ce 3e 00 bd
       -0.0006465825 0.077095516 0.0011201309 -0.031309895
000030 80 e2 52 be 31 50 52 ba 42 ad a8 39 6c d2 f7 39
       -0.20594215 -0.00080228137 0.00032172544 0.00047268288
000040 2d cf 14 bc 39 c6 68 3d 65 ff 6d 3d fc 50 b5 bd
       -0.009082598 0.056829665 0.05810489 -0.08853337
000050 fe 42 f5 bc 72 c5 0a bd 8f e2 38 bb e9 10 72 be
       -0.02993917 -0.033879705 -0.0028211211 -0.23639263
000060 bd 3e c5 bd 4a f3 bb 3d ad a5 6a bd 13 6c ea bc
       -0.09631107 0.09177263 -0.057286907 -0.028615987
000070 6d 26 7c 3d a6 db 98 bd 35 69 84 bd 22 86 86 bc
       0.061560083 -0.074637696 -0.06465379 -0.016421381
000080 fe 7c e1 bc 01 02 d9 3d 5d c7 95 3d 10 3d fe bc
       -0.027525421 0.10596085 0.07313416 -0.031034976
000090 4d b0 90 3c 6d 94 da bc ae 8b 73 3a d6 bc 8a ba
       0.017662192 -0.026682103 0.0009290528 -0.0010584842
0000a0 08 8c 80 ba 4f 68 db bd 97 34 21 3e 5c c9 3e 3d
       -0.0009807358 -0.10713255 0.15742718 0.04657875
0000b0 6a fa 3c 3d 94 ba e1 bd ae 91 b1 bd 9d 4d bd 3d
       0.04613725 -0.11021915 -0.08670364 0.09243319
0000c0 85 99 64 3a b4 27 79 bc ef 58 ac 3d 5e 3e f7 3d
       0.0008720386 -0.01520722 0.084154 0.120724425
0000d0 e7 64 e8 3d 68 70 2c bd 5c d9 3b bd 90 17 9f ba
       0.113473706 -0.042099386 -0.045861587 -0.001213776
0000e0 2b c7 88 bd 97 99 e4 3a fc 3e 63 3d ce 96 00 3c
       -0.06678613 0.0017440793 0.05547999 0.007848455
0000f0 43 8b 52 ba 8f e8 f0 39 e3 63 2b 3a ea 36 18 bd
       -0.0008031616 0.00045949637 0.00065380166 -0.037161745
000100 44 de 2c bd 30 64 73 3a 6d 49 a2 ba 3c 5e d1 3c
       -0.042204157 0.00092846435 -0.0012381502 0.02555763
000110 c4 61 06 bd 28 70 fa 3b 1b 46 5f 3c a6 5a f6 3c
       -0.03280808 0.0076427646 0.013627554 0.030072521
000120 a5 25 91 ba 82 ec 38 bd fd b9 93 3d 3f 75 01 3e
       -0.0011073841 -0.045147426 0.07213209 0.12642382
000130 ed da 9c ba 3a b2 ac bc 74 68 a4 b9 48 29 b9 3d
       -0.00119671 -0.021081079 -0.0003135834 0.09041077
000140 82 f2 36 bd f8 33 43 3c f6 61 b7 bc 54 f6 6c 3a
       -0.044664867 0.011914246 -0.022385579 0.00090393913
000150 0a 46 64 ba 98 53 bc bd 26 cf 13 bb 1f 21 f0 bd
       -0.00087079464 -0.09195632 -0.002255389 -0.11725067
000160 ac a1 b8 3a 0b 69 bb 3a 06 8a 05 bd 44 59 83 3b
       0.0014086268 0.0014298273 -0.032602333 0.004008444
000170 6a b8 82 bd e3 95 aa bd a9 ce d6 bd 32 40 2d bc
       -0.063828304 -0.0832937 -0.10488636 -0.010574387
000180 17 66 4f 3d db 1c 96 3c f2 7b 1f 3d f8 27 95 bd
       0.05063447 0.018324306 0.038936563 -0.07283014
000190 5c a4 80 3d 02 12 40 bb 29 c5 16 ba ae 04 9a 37
       0.06281349 -0.0029307608 -0.0005751425 1.836041e-05
0001a0 97 bd b6 3c b7 4e c3 bc 47 68 13 be 84 ad 10 3e
       0.0223072 -0.023841245 -0.14395247 0.14128691
0001b0 82 16 14 3d 8d 62 4f 3a ae 6f 42 bd 54 b7 a7 3a
       0.036154278 0.00079111086 -0.047469787 0.0012795725
0001c0 fa 81 13 3c b3 f8 fd bc e8 a3 af 3c 1c e5 41 3a
       0.009003157 -0.031002378 0.021440461 0.00073965057
0001d0 92 9b 0c 3c cc db ee 37 1b 0e b0 bd ca 77 f8 bc
       0.008582013 2.8474162e-05 -0.085964404 -0.030330557
0001e0 31 53 f7 3c 9c d2 8d bc 1c c6 7e bc 33 ad 80 ba
       0.030191036 -0.01731234 -0.015550163 -0.0009817242
0001f0 d1 cd b2 bd 46 a7 26 3d b2 b9 68 3b d7 a8 ba 3b
       -0.087306626 0.040686868 0.0035511074 0.005696397

weight f4 [1024, 64]
000000 34 5f 9b bc b3 8f b4 bc f9 c1 3c 3b d4 38 09 b9
       -0.018966295 -0.022041177 0.002880214 -0.00013086508
000010 72 ab 09 3b 28 cd 2f bd 75 5b 9a 3c b3 85 81 bc
       0.002100673 -0.04292026 0.018842438 -0.015810823
000020 df 41 aa 3c fc 1a 3a 3c 22 bd 65 bb 8c 98 31 3c
       0.020783363 0.011358973 -0.003505536 0.010839593
000030 54 1a 03 3a 80 3b 07 bc c0 0f f4 3c e2 39 af bc
       0.00050011766 -0.008253932 0.029792666 -0.021389905
000040 10 d7 31 bb 94 57 0e 3c 85 af a4 3b 16 23 0b 3c
       -0.0027136244 0.008687872 0.0050258064 0.008492252
000050 4c f2 99 39 8a 75 b2 3b 9a 53 81 3d 6d 86 15 bd
       0.0002936296 0.0054461407 0.06314774 -0.03650515
000060 bb f6 28 bc 01 34 62 ba 08 d1 8c ba ef 4e 8d 3d
       -0.010312731 -0.0008628965 -0.0010743449 0.06899821
000070 53 2c e5 bc 5f 4d b3 3b fc 98 29 3d cc b6 aa bc
       -0.027975237 0.00547187 0.041405663 -0.020839117
000080 b1 df d5 bb e8 3f be 3c bf 63 ad bc 76 e7 22 3c
       -0.0065269102 0.023223832 -0.021165727 0.00994288
000090 50 6d 38 bc 81 8e 9d bc c0 86 b0 bb 5b 86 c7 bb
       -0.011256531 -0.01923299 -0.005387157 -0.0060890145
0000a0 ab 3b 1c bd 4b f3 4b 3c f6 4a 89 bc 22 58 4b bc
       -0.03814284 0.012448142 -0.016759377 -0.012411149
0000b0 dc 3b 04 bd f8 36 9a 3c ab 1d a5 3c 42 5c 60 3c
       -0.03228365 0.01882504 0.020155748 0.013693871
0000c0 98 a3 00 3d 31 2f b2 3c e5 4b c8 3b fc e2 25 bb
       0.031406015 0.021751018 0.006112563 -0.0025312295
0000d0 8b ba 60 3d ef 1a 8a bc c3 82 2f bc 5a 2d 71 3b
       0.0548654 -0.016858546 -0.010712328 0.0036800713
0000e0 9f 86 63 bc 8a e8 d3 bb 77 0c 2e 3c 5c 0b 88 3b
       -0.013887077 -0.00646693 0.010623089 0.004151745
0000f0 f5 17 0c 3c ef 59 46 bd f7 4d f5 3c 03 93 16 bd
       0.008550634 -0.04842561 0.029944403 -0.036761295
000100 f6 e2 e6 3c 4f 2b 27 3c e0 8f 28 3b 0e fd cc 3a
       0.028184395 0.010203197 0.0025720522 0.0015639381
000110 04 03 f2 ba e9 7e 3a 3d e6 6d 5a bc da 90 87 3c
       -0.0018464033 0.045531187 -0.013331866 0.016548563
000120 3d c5 71 bc 81 9b f3 bb 77 68 2c 3b 3f 48 39 bc
       -0.014756498 -0.007434309 0.0026307383 -0.011308729
000130 e4 b7 20 bc fe 9c 39 bd 22 e2 2f 3b 2b 45 37 bb
       -0.009809468 -0.045315735 0.0026837667 -0.0027964811
000140 06 28 4c 3c 08 3a 61 bc 5e 58 25 bc a2 0d 89 3c
       0.012460714 -0.013746746 -0.010091869 0.016730133
000150 f5 8c f1 3a ab 5a c5 3b 82 1f e1 3a 99 0e 63 3c
       0.0018428849 0.0060227714 0.0017175528 0.013858461
000160 25 c1 8a 3b 2f 88 a9 3b 05 16 a3 3a 61 26 be bb
       0.0042344504 0.005173705 0.0012442475 -0.005802915
000170 1d 68 22 3c 25 02 31 bc 9b ca 94 bb 0d 38 c3 3c
       0.009912518 -0.010803734 -0.004540754 0.023830438
000180 05 ff 6d 3a a6 67 54 bc e8 7f 55 3c 4d dd 02 3c
       0.00090788334 -0.012964165 0.0130309835 0.0079873325
000190 58 8c 4f bb 5e da 96 bc 4e 89 dd 3b 13 80 8b 3a
       -0.0031669345 -0.018414672 0.0067607528 0.0010643027
0001a0 60 92 99 3c 0b 7c 56 bc bd 8c ce 3c 98 e7 70 3b
       0.018746555 -0.013091098 0.025213594 0.0036759134
0001b0 b1 8e 18 3d bd f2 32 bc 8e 46 24 bc 6b f5 74 bc
       0.037245456 -0.010922131 -0.010026587 -0.01495109
0001c0 5c 24 73 bc a2 08 4a bc 4c 2d e9 3a 7b 00 c6 3b
       -0.014840212 -0.01233116 0.0017789989 0.0060425377
0001d0 a0 72 1b 3b ad d2 60 3c 40 4c 0d 3a 79 6a 61 ba
       0.0023719445 0.013722104 0.0005390085 -0.00085989345
0001e0 c7 03 2e 3d 9d d6 a1 bb 0c e0 a9 3b b9 1f d5 3b
       0.04248407 -0.004938914 0.005184179 0.006504026
0001f0 49 73 b9 3b 27 a5 df 3c 14 76 25 bb e1 a3 74 3c
       0.005659495 0.02730043 -0.0025247382 0.01493165
000200 0f 5b 82 38 1c 00 4c 39 5e ab 83 b9 64 2a c6 38
       6.215844e-05 0.00019454997 -0.00025113946 9.4492716e-05
000210 2d 2d 48 39 a0 24 b2 b8 c4 4e 01 39 2d 42 16 b9
       0.00019090316 -8.494523e-05 0.00012331741 -0.00014329767
000220 35 05 36 39 c6 89 a3 38 b5 62 18 b8 60 d3 1d b8
       0.00017358812 7.798108e-05 -3.6331552e-05 -3.7628575e-05
000230 72 b4 0a b9 13 08 ee 39 5c 89 08 b9 7f 85 dd 39
       -0.00013227927 0.00045400913 -0.00013021141 0.00042251867
000240 4a ec 0c b7 a2 84 a6 39 e5 0d 86 39 93 2d dd 39
       -8.399666e-06 0.00031760806 0.00025568824 0.0004218636
000250 7c 2c 5f 38 31 a6 99 b9 e4 50 90 38 64 29 4d b9
       5.3208772e-05 -0.00029306256 6.881522e-05 -0.00019565743
000260 d6 88 8d b8 c7 81 94 b9 7a ae 42 b7 a9 56 b8 b8
       -6.7488916e-05 -0.0002832545 -1.1603925e-05 -8.7899454e-05
000270 c1 b1 eb b7 87 eb a2 38 bd d8 4c b7 d7 6f a5 39
       -2.8096956e-05 7.768632e-05 -1.2209811e-05 0.0003155458
000280 72 39 4f b9 2b e7 08 37 12 c7 e6 b9 ab ff bf b7
       -0.00019762458 8.160055e-06 -0.00044017337 -2.2888029e-05
000290 f6 d9 ec 38 7c 43 cd 39 00 f0 39 b9 45 21 9b 38
       0.00011293955 0.00039150927 -0.00017732382 7.397173e-05
0002a0 54 d0 a5 b8 f8 64 3c b7 b6 66 1e ba 5b 18 60 38
       -7.906617e-05 -1.1229182e-05 -0.0006042527 5.3428445e-05
0002b0 47 0b 06 3a 69 2f 8a b8 fa 16 0d 38 e8 5e a1 39
       0.0005113375 -6.5891836e-05 3.363842e-05 0.00030779024
0002c0 87 88 84 39 f2 3b 8d b8 ac 5f 6f b8 53 2b 40 38
       0.00025278723 -6.7345696e-05 -5.707114e-05 4.5816716e-05
0002d0 92 b3 a3 38 85 18 18 39 6b ff 84 b8 18 bc aa 38
       7.805893e-05 0.00014504984 -6.341826e-05 8.141267e-05
0002e0 9e 1b fa 39 48 f0 8c b9 47 d3 eb 38 7d 3e 69 b9
       0.00047704292 -0.00026881904 0.00011245027 -0.0002224389
0002f0 2b b2 27 b9 14 06 82 39 db d7 b2 b8 cf 95 46 3a
       -0.00015992734 0.0002480006 -8.5279076e-05 0.0007575424
000300 62 70 06 bd 9f 31 57 3d db 80 ac 3b 34 2c e0 3a
       -0.03282202 0.052537557 0.005264384 0.0017103017
000310 97 a9 db 3b ff 77 a1 bd d9 d2 4f 3d cc c1 ed bc
       0.0067035663 -0.078842156 0.05073819 -0.029023074
000320 4a bf 61 3d 12 c9 05 3d 61 9e b7 bb 38 eb d4 3c
       0.055114068 0.03266246 -0.005603597 0.025991067
000330 9d 6c c4 3c ef 3e 95 3c 04 a2 36 3d 3b 55 95 bc
       0.023977572 0.018218486 0.044588104 -0.018229118
000340 21 bc 5d 3b 93 87 02 3d 74 2b c8 3c f9 29 4f 3c
       0.0033834057 0.031867575 0.024434783 0.012644284
000350 52 93 3f 3b bd 8a 27 3c bd 8a ca 3d a3 c2 83 bd
       0.0029232097 0.010225949 0.098897435 -0.064336084
000360 1f b1 03 bd d8 95 34 bb b9 3b 03 bb e1 d0 ed 3d
       -0.032151338 -0.0027555134 -0.002002461 0.11612106
000370 53 4e 70 bd 0a d1 d9 3c 0a 1c 8a 3d 47 66 1d bd
       -0.058668446 0.026588935 0.06743629 -0.038427617
000380 19 63 c2 bc 21 4b 82 3d 94 8d 0b bd 23 21 5e 3c
       -0.023728894 0.06361986 -0.034070566 0.013557705
000390 76 03 3c bc 2c 3a 52 ba 05 69 88 bc ab 7c 32 bc
       -0.0114754345 -0.00080195325 -0.01665164 -0.010893981
0003a0 91 4e 86 bd 6b 3c 18 3d c8 0e 11 bd 63 1c ff ba
       -0.06557954 0.037166994 -0.035414487 -0.0019463416
0003b0 07 ef 84 bd 92 b2 40 3d 20 8e 58 3d 82 0f 1b 3d
       -0.06490903 0.047045298 0.052869916 0.037856586
0003c0 b2 b0 8c 3d 42 84 5c 3d f3 1e fb 3b a8 22 08 3d
       0.068696395 0.05383707 0.0076636015 0.033236176
0003d0 1d 7d 9b 3d 08 df 14 bd 5b 78 ee bc 79 f3 73 3c
       0.07592223 -0.03634551 -0.029110124 0.014889591
0003e0 58 05 0c bd 00 ca df bb 70 78 84 3c c5 e5 30 3c
       -0.034184784 -0.0068295 0.01617071 0.010796969
0003f0 84 08 69 3c b7 02 af bd de 01 6b 3d 39 38 7c bd
       0.014223222 -0.0854544 0.057374828 -0.061577056

weight f4 [8, 64]
000000 d4 2b 5a bb 81 5c 02 3e c5 f6 28 3d 23 2b 55 bc
       -0.0033290284 0.127306 0.041250963 -0.013010773
000010 8f 1f ee 3c 1d 36 0e be 60 c8 66 3d 4a 8d 9c 3c
       0.029067783 -0.1388783 0.056343436 0.01911034
000020 04 3d ac 3c 7b 1d 8b bd a7 a8 b7 bd 72 e0 28 3d
       0.021025188 -0.06792732 -0.08967715 0.041229673
000030 e7 fb 92 3d c6 7d d2 bd 80 88 9d bc 85 10 7f 3c
       0.07176953 -0.10277896 -0.019230127 0.015567903
000040 f7 a5 0a bd eb a5 10 3d 60 2c 22 bc 68 cc 3b 3d
       -0.033849683 0.03531448 -0.009898275 0.045849234
000050 f0 f4 f9 3c f4 a2 a8 3c f3 6e 5c 3d 99 58 8e bd
       0.030512303 0.020585515 0.053816747 -0.069504924
000060 36 b8 08 3c c3 27 5f 3b 61 b7 ca bc ad 71 3d bb
       0.008344701 0.00340508 -0.024745645 -0.0028906867
000070 13 e6 b5 bd ac bc 11 3c 26 54 84 bd 92 b1 4b bb
       -0.08881774 0.008895081 -0.064613625 -0.0031081182
000080 80 5b db 3d 42 f4 0e 3d a4 ad d4 bd dc 6a 76 ba
       0.107108116 0.03490091 -0.10384682 -0.00094000786
000090 7b 2e f1 bd e5 05 c5 bd 16 9e a2 bd 52 91 62 3c
       -0.117764436 -0.09620265 -0.07940309 0.013828592
0000a0 95 7b 6d bd b8 67 a8 3c 7b 04 93 3c 16 e0 32 bd
       -0.057979185 0.02055727 0.017946472 -0.043670736
0000b0 30 31 fe 3c 4f 56 19 3d d8 3a b4 3c d1 40 59 3d
       0.031029314 0.037435826 0.022000715 0.05304033
0000c0 e1 37 77 3d f9 7c 87 3c 17 1c 8b 3d 84 08 ab bd
       0.060356025 0.016539084 0.06792467 -0.083512336
0000d0 47 30 e9 3d 55 db 5e bb 09 a0 b0 bc 58 e2 14 be
       0.11386161 -0.0034005244 -0.021560686 -0.14539468
0000e0 8b 63 01 3e bc b3 a4 bd 64 87 a0 3d d2 fc a5 3d
       0.12635629 -0.08042094 0.07838324 0.08104862
0000f0 9f 15 62 3b 25 98 62 3d cd a2 a3 3d e5 9a 49 bd
       0.003449775 0.055320878 0.07990036 -0.049219985
000100 e5 67 40 3c 2c 51 8f 3d c8 f1 f2 bb 33 34 27 3b
       0.01174352 0.06997904 -0.0074140765 0.002551329
000110 b7 9f 9c 3c 48 8b 3b bc fe 15 5e 3d d9 d2 0c bd
       0.019119127 -0.011446781 0.054220192 -0.034380767
000120 b7 f9 ae 3d b3 45 d2 3d cb a5 b1 bb 3f 8a 05 3d
       0.08543723 0.102672 -0.0054213754 0.032602545
000130 ef ba ba 3d b9 2a 28 3d f3 b2 4b bd ae 14 bf 3c
       0.09117686 0.04105637 -0.049731206 0.02332529
000140 30 39 30 3e 5f 1a 49 3d 37 78 9e bc 3d 21 66 3d
       0.17209315 0.049097415 -0.019344432 0.056184042
000150 99 83 19 bd 4c 78 60 3d 76 f9 dd bc 2c 0e cf bc
       -0.037479017 0.054802224 -0.027096491 -0.025275312
000160 1f 07 99 bd 94 91 0e 3b 3d a2 12 ba 60 a7 64 bd
       -0.07472061 0.0021754252 -0.00055936334 -0.055823684
000170 02 1c 42 3c db fa 09 bb 26 e0 c3 bd e7 8a bb bd
       0.011847498 -0.0021054063 -0.09564237 -0.09157353
000180 99 9c e9 bc f8 17 3d 3d 3c fd e7 3c 34 8a 19 bd
       -0.028517054 0.046165437 0.028318994 -0.037485316
000190 13 6f d4 bb 3f fa ec bc 49 91 a1 bd 80 ff b7 bc
       -0.0064829676 -0.02892792 -0.07889039 -0.0224607
0001a0 d1 97 17 3d 36 22 43 3b ad 94 af bd b6 1c 00 3e
       0.037010018 0.002977503 -0.085732795 0.12510952
0001b0 8f e1 a3 bc bc d3 b9 3c d0 d7 28 3d ec 3f 8b bc
       -0.020005016 0.02268397 0.04122144 -0.016998254
0001c0 4b d7 05 3e 2b 3c 55 3d af 37 c5 39 94 cd 9d 3d
       0.13070409 0.052059334 0.00037616256 0.077052265
0001d0 9d 10 b4 bc fa 58 56 3d 2b 91 65 bd 72 ce 0d 3e
       -0.021980578 0.05233095 -0.056046646 0.13848284
0001e0 a2 0c a9 bc e7 09 13 3e 12 25 94 3c 77 ec 53 3c
       -0.020635907 0.14359246 0.018084083 0.012934796
0001f0 3d 5b 9a bc ed c5 82 3d dd 8e c1 bd aa 8e ed 3c
       -0.018842334 0.063854076 -0.09451077 0.028998692
000200 54 77 16 be 6c 17 8f 3d 02 e8 7c bd 3c 56 22 bd
       -0.14693958 0.06986889 -0.061744697 -0.03963302
000210 1d aa fd bb 1f a0 e8 3d 46 11 5a 3c 3d 76 12 3d
       -0.0077412263 0.11358666 0.013309782 0.035757292
000220 aa 92 58 bc 7f 97 15 3d ac 26 3c bc 6b 93 89 3c
       -0.013218561 0.03652143 -0.0114838295 0.016793927
000230 c3 9e d0 bc 67 ea 39 bd e6 71 55 3c e6 75 a0 bc
       -0.025466328 -0.04538956 0.013027644 -0.019587468
000240 eb 91 48 bd 45 db 8d bb d5 c6 b0 bc b6 12 fe bc
       -0.048967283 -0.0043291175 -0.021579186 -0.031014781
000250 35 06 d4 bc c7 2f a2 bd 66 e7 8a bd 50 65 85 bd
       -0.025881866 -0.07919269 -0.06782417 -0.065134645
000260 1b eb e2 3c a4 b0 6c bb d3 21 f5 ba 5d 8c ea bc
       0.027699998 -0.0036116028 -0.0018702097 -0.028631384
000270 02 be 87 bd b1 26 ed 3b b2 88 0e 3e 49 19 a7 bd
       -0.06628038 0.0072372784 0.13919333 -0.0815912
000280 1e 49 23 3d fe c4 6a bd 4c 29 0a bc 6f dd ab bc
       0.03986465 -0.057316773 -0.0084326975 -0.020979611
000290 f4 92 9e bd d1 22 a3 3d 8e c6 b1 3b dc 8f 54 3c
       -0.07742873 0.07965625 0.005425281 0.012973752
0002a0 0b d7 2c 3d d9 2c 56 bc 96 6a ba bc e8 af 5f 3d
       0.04219727 -0.013072216 -0.022755902 0.054611117
0002b0 b8 09 11 3c 32 ff 09 bb 5e 5b 92 bc 8d c4 25 bc
       0.008852415 -0.002105665 -0.017865833 -0.010117662
0002c0 7b f6 8a 3d b3 12 35 bd ed c0 95 bc b6 23 b5 3d
       0.06785294 -0.044207286 -0.01828047 0.08844702
0002d0 9a db e3 3d 31 1e e8 3c d5 1b b2 3d c8 d1 72 bd
       0.1112587 0.028334709 0.08696715 -0.059282094
0002e0 dd 46 c1 3b a4 11 8f 3d 39 ca 0a bd cb a5 25 bd
       0.00589834 0.069857866 -0.03388426 -0.040441316
0002f0 e4 db 9f 3d 66 1f bb 3d 7a 08 3a bd d6 27 c3 bd
       0.07805613 0.09136848 -0.04541824 -0.095290825
000300 94 46 41 ba 89 67 18 3e 83 8e 5d 3d e4 aa 02 3e
       -0.00073728827 0.14883246 0.054090988 0.12760502
000310 16 7e 4e bd 8c 3c 92 3c bb ab 28 3e 40 54 7a bd
       -0.050413214 0.017851137 0.1647176 -0.061115503
000320 df 10 db bd 82 d1 b8 bd d3 23 af 3d 35 ad 73 3e
       -0.10696577 -0.090243354 0.08551755 0.23796542
000330 95 64 a2 bc 71 d7 f2 3d 0d 58 76 be 5a c1 49 3d
       -0.019823352 0.118574984 -0.24057026 0.04925666
000340 e1 ff 8f 3d 43 1f 88 3e cf 8b cc 3e 28 a9 8d 3d
       0.07031227 0.2658635 0.39950415 0.069170296
000350 42 7b 4f 3e 34 23 22 be 09 c2 9e bd 6b 65 5a 3e
       0.20261863 -0.15833741 -0.07751853 0.2132775
000360 5e 8e df 3d e6 6e 69 be e5 ae 1b 3d 61 70 75 3d
       0.10915826 -0.2279621 0.03800859 0.059921626
000370 bb 66 38 3e 62 48 f9 3e 36 d3 6e 3d c1 bf 63 3e
       0.18007939 0.48688036 0.058306895 0.22241117
000380 57 6e b0 bd ba d1 98 3e ce 20 20 be f9 01 d9 3d
       -0.08614796 0.2984751 -0.15637514 0.105960794
000390 6d fe e3 3d ef de 14 3e 13 ef 74 3d db fa 5a 3b
       0.11132512 0.14538167 0.05979831 0.0033413682
0003a0 4f 37 07 bd 91 fc bd 3e 30 1e d6 bb a0 0b 2e 3d
       -0.03301173 0.37106755 -0.0065343603 0.042491555
0003b0 16 56 d5 bc e5 3c 85 3e ac 4e a3 bc da 55 e6 3d
       -0.026042026 0.2602302 -0.019934975 0.11246844
0003c0 37 39 75 be ed f4 e7 3d 5c 70 00 be 61 42 f6 3d
       -0.23947607 0.11326013 -0.12542862 0.120243795
0003d0 90 52 18 bd d9 66 21 3c 53 95 97 3c d9 92 67 bd
       -0.037188113 0.009851181 0.01850382 -0.05653653
0003e0 e5 f2 60 3d c9 52 e0 bd 64 59 2f be 13 b4 b3 bd
       0.054919142 -0.1095329 -0.17123944 -0.08774581
0003f0 2e 47 5e be 9a f1 f3 3d 92 2f 1d be 57 cf 10 3e
       -0.2170684 0.11911316 -0.15350178 0.14141594
