GNN/Apr-19ver6.pt (torch, 394923 bytes, 17 tensors)

weight f4 [16, 3]
-0.14597888 0.6373245 -0.53602266 0.26190656 0.116036795 -0.42581552 -0.04611025 0.47950584
0.4387116 -0.065329276 -0.35455835 0.16266224 0.67498744 0.12974326 -0.15968774 -0.031277146
-0.48175773 -0.4255621 -0.26030648 0.5765741 -0.26171133 -0.21757872 -0.45174363 0.43480635
0.19047225 -0.31433386 0.40851218 0.19564775 0.19894885 0.064886056 -0.5058265 0.08908004
0.66812015 -0.114563696 0.50608057 -0.5434839 -0.36870122 -0.15739314 -0.61539346 -0.5199786
0.12238958 -0.68322074 0.38330933 -0.03385051 0.88898927 0.032023825 -0.023927623 -0.9469432
00000000: 7d7b 15be b327 233f c838 09bf 9e18 863e
00000010: b3a4 ed3d 7e04 dabe 1ade 3cbd ca81 f53e
00000020: cf9e e03e 5bcb 85bd ac88 b5be ee90 263e
00000030: facb 2c3f 6bdb 043e 2f85 23be 771c 00bd
00000040: f3a8 f6be 47e3 d9be e446 85be 5c9a 133f
00000050: 07ff 85be f5cc 5ebe f14a e7be f09e de3e
00000060: 280b 433e 5ef0 a0be 8228 d13e e257 483e
00000070: 3fb9 4b3e fbe2 843d d87d 01bf 996f b63d
00000080: ec09 2b3f 5fa0 eabd 7f8e 013f c321 0bbf
00000090: 68c6 bcbe ab2b 21be 6d8a 1dbf 511d 05bf
000000a0: 63a7 fa3d 8ee7 2ebf 1f41 c43e d5a6 0abd
000000b0: cd94 633f 6a2b 033d dd03 c4bc df6a 72bf

bias f4 [16]
-0.24330539 -0.08123029 -0.54430807 0.04131934 -0.5734438 0.12101269 -0.3178056 0.31893173
0.065282054 -0.47248212 0.62127167 0.13289161 0.3356479 0.12508532 -0.16864674 0.8291616
00000000: 0c25 79be 115c a6bd c657 0bbf 783e 293d
00000010: 36cd 12bf 80d5 f73d 6ab7 a2be 054b a33e
00000020: 99b2 853d 2de9 f1be a90b 1f3f bd14 083e
00000030: 0bda ab3e 5e16 003e bbb1 2cbe ef43 543f

c f4 [8]
0.05101283 0.03170588 -0.022200216 -0.1426332 0.20823805 -0.017298622 -0.19264072 -0.004954851
00000000: d4f2 503d 06de 013d 3add b5bc 700e 12be
00000010: 5b3c 553e d7b5 8dbc 9c43 45be 4e5c a2bb

bias f4 [32]
-0.22937608 -0.19142486 -0.089408845 -0.16624066 -0.35333756 -0.072931536 -0.27912349 -0.099795565
0.26314178 0.37365055 -0.29728305 0.3126221 -0.6666315 0.38056403 -0.11969462 -0.025193928
0.028478192 -0.062771186 0.4636147 0.25771192 0.24923 -0.06623192 0.28076765 -0.21574008
0.24183725 0.047956444 0.30002984 -0.04634558 0.10808101 -0.029669985 0.093944155 -0.21268809
00000000: 90e1 6abe e104 44be fc1b b7bd fe3a 2abe
00000010: a9e8 b4be 215d 95bd 46e9 8ebe 9e61 ccbd
00000020: 85ba 863e 204f bf3e 7c35 98be 0110 a03e
00000030: 5da8 2abf 4ad9 c23e 7422 f5bd 7f63 cebc
00000040: 194b e93c 2e8e 80bd e85e ed3e d1f2 833e
00000050: 2636 7f3e 9aa4 87bd c7c0 8f3e f8ea 5cbe
00000060: 2fa4 773e fa6d 443d 839d 993e ddd4 3dbd
00000070: 9459 dd3d 780e f3bc cb65 c03d e8ca 59be

weight f4 [256, 16]
-0.10925182 0.031368505 0.068792395 0.033528656 -0.067296825 0.04027434 0.09348285 0.012729748
-0.019321537 0.06652094 0.0800421 -0.13091445 -0.09380931 0.054853313 0.033241685 0.029984403
0.12904371 0.086648874 0.1576108 0.029166035 0.07909238 0.03721862 -0.0657685 0.033062745
0.03439806 0.1666566 -0.09220275 0.20744884 0.059832584 0.010604006 -0.05492262 -0.10133819
0.19322833 0.14010888 0.0366288 -0.012761432 0.07646619 -0.0060319677 0.06517243 -0.031822283
-0.020918157 0.025683295 -0.15382025 -0.13909027 -0.0095297005 0.06088236 -0.13144986 -0.0713464
-0.12166049 -0.079020925 -0.16237637 0.011564963 -0.010970228 0.045825828 -0.21145865 0.023509247
-0.0054677194 0.096557155 -0.07889019 0.004147445 0.026305389 -0.055780746 0.15975522 0.16273816
-0.11058653 -0.05370242 0.17995714 0.09742038 -0.06360825 0.11124457 0.054963283 0.102658205
0.13108638 0.12776737 0.05109749 0.12802133 0.04506603 -0.09664105 0.13815728 -0.20525226
-0.027254608 -0.044053324 0.10814989 0.016853565 -0.0469699 -0.017289575 -0.017977947 -0.00011150566
-0.021005841 -0.026199983 0.06894246 0.034747068 -0.0148686 -0.027470734 0.20836982 -0.045350306
-0.08929897 0.19250783 -0.013146295 0.041905966 0.11158401 0.04697103 0.055706326 0.05792847
0.05813247 0.18699005 -0.026433008 -0.04820513 0.08354405 0.115988724 0.1606521 -0.015214085
0.20171103 -0.03140675 0.08330584 -0.044457454 0.1373368 0.0035914814 -0.1863666 -0.05957364
-0.05151906 -0.063180044 0.16956088 -0.072629906 -0.0426681 0.06688605 0.09314685 0.36051428
0.16755804 0.01783877 -0.035931952 -0.12073651 -0.10694327 -0.102194704 0.17054668 -0.11202088
-0.04495141 0.17297313 -0.046508685 0.23832044 -0.15352699 0.044663664 -0.039999373 -0.1821801
0.19286445 0.08164686 0.027248308 -0.14731869 -0.053209428 -0.14071456 0.11651198 -0.124233685
-0.11272616 -0.1798135 0.09969754 0.29448953 0.04362682 0.31148556 0.040483568 0.35532483
-0.25721076 0.0050866404 0.09668963 0.065799296 -0.1289629 0.0806699 -0.14927119 0.063184895
0.079402894 -0.029186934 0.029770482 0.1012888 0.0421805 -0.060251106 0.031733967 0.015638525
0.0914 -0.0028349631 -0.06732961 -0.06834858 -0.10174045 -0.10056066 -0.010565417 -0.06275371
-0.12277048 -0.116484545 0.013264446 0.11827816 -0.11015405 -0.079522416 -0.064362705 -0.13723347
-0.16403951 -0.041583113 -0.052725233 0.14632902 0.142094 0.15853393 -0.13037252 0.12405865
0.0936637 -0.18777232 -0.14191611 0.08942628 0.15143932 -0.11740154 0.061660234 -0.1046453
-0.055336647 0.24221273 -0.18743922 -0.102564186 0.065458775 -0.11954346 0.20517915 -0.013427165
-0.035493437 -0.042536475 0.06750078 0.019772561 -0.102032594 0.17330904 -0.16554323 0.09478996
-0.20126112 -0.15315212 0.118958 0.04241315 -0.07487667 0.054181535 -0.1809799 0.044304535
0.059838336 0.10840877 0.1298635 0.0005778951 0.049006917 -0.046541452 0.20247856 0.048392616
-0.11199405 0.02269745 -0.06569787 -0.01879781 0.27716786 0.039853595 0.052041523 0.0011804884
0.032665513 -0.08389901 -0.036769744 0.24159396 0.009943095 0.002601427 0.021710115 0.07288993
00000000: 6bbf dfbd 437c 003d 07e3 8c3d 5855 093d
00000010: ebd2 89bd b5f6 243d f073 bf3d 6f90 503c
00000020: 3348 9ebc 213c 883d 1ded a33d 700e 06be
00000030: 181f c0bd dead 603d 6f28 083d daa1 f53c
00000040: 0924 043e f774 b13d ba64 213e 9ced ee3c
00000050: 30fb a13d 8d72 183d a3b1 86bd cd6c 073d
00000060: fbe4 0c3d 07a8 2a3e ccd4 bcbd 786d 543e
00000070: 0313 753d 6dbc 2d3c 8bf6 60bd 668a cfbd
00000080: a6dd 453e b478 0f3e 1508 163d 5315 51bc
00000090: 4e9a 9c3d d0a7 c5bb 1f79 853d 1558 02bd
000000a0: 8e5c abbc c665 d23c 0e83 1dbe ae6d 0ebe
000000b0: 7622 1cbc c85f 793d cb9a 06be 101e 92bd
000000c0: 2329 f9bd b9d5 a1bd fe45 26be f87a 3d3c
000000d0: 79bc 33bc ddb3 3b3d 9e88 58be 7796 c03c
000000e0: 8e2a b3bb c2bf c53d 2e91 a1bd 4ae7 873b
000000f0: 667e d73c 5a7a 64bd df96 233e d5a4 263e
00000100: 317b e2bd 12f7 5bbd af46 383e 5684 c73d
00000110: 0b45 82bd 31d4 e33d 2e21 613d 773e d23d
00000120: 823b 063e 73d5 023e 9a4b 513d 0618 033e
00000130: 2897 383d beeb c5bd 1a79 0d3e a62d 52be
00000140: 0e45 dfbc 4271 34bd b17d dd3d 7d10 8a3c
00000150: 8363 40bd dea2 8dbc 7d46 93bc 25d8 e9b8
00000160: 7114 acbc 59a1 d6bc b431 8d3d f152 0e3d
00000170: 6e9b 73bc 4e0a e1bc e65e 553e 3ec1 39bd
00000180: 61e2 b6bd c620 453e 8f63 57bc 97a5 2b3d
00000190: 2886 e43d b264 403d 512c 643d 6746 6d3d
000001a0: 501c 6e3d 527a 3f3e 098a d8bc be72 45bd
000001b0: 2519 ab3d 7f8b ed3d fc81 243e 7f44 79bc
000001c0: 568d 4e3e 5da4 00bd 419c aa3d 0519 36bd
000001d0: 05a2 0c3e 0f5f 6b3b e3d6 3ebe 7d03 74bd
000001e0: a605 53bd 8a64 81bd 5ea1 2d3e fdbe 94bd
000001f0: bfc4 2ebd 8efb 883d c7c3 be3d 5495 b83e
00000200: 5694 2b3e 9d22 923c 622d 13bd b444 f7bd
00000210: 1305 dbbd 754b d1bd caa3 2e3e 346b e5bd
00000220: f81e 38bd de1f 313e e47f 3ebd 460a 743e
00000230: 2e36 1dbe 3ff1 363d 62d6 23bd 6c8d 3abe
00000240: 427e 453e 7836 a73d d837 df3c b6da 16be
00000250: 21f2 59bd 7a17 10be d59d ee3d 3b6e febd
00000260: f9dc e6bd 0821 38be 392e cc3d 55c7 963e
00000270: 09b2 323d 097b 9f3e 19d2 253d 23ed b53e
00000280: 21b1 83be d5ad a63b 3605 c63d c8c1 863d
00000290: da0e 04be 4336 a53d 8cda 18be 1567 813d
000002a0: fc9d a23d 7019 efbc 3ae1 f33c 8170 cf3d
000002b0: 76c5 2c3d ddc9 76bd 7afb 013d 5d1c 803c
000002c0: ec2f bb3d caca 39bb 1be4 89bd 57fa 8bbd
000002d0: 4c5d d0bd bff2 cdbd 921a 2dbc 0485 80bd
000002e0: 176f fbbd 738f eebd 1e53 593c d23b f23d
000002f0: 7298 e1bd a6dc a2bd 98d0 83bd ee86 0cbe
00000300: f9f9 27be 0e53 2abd 6af6 57bd 46d7 153e
00000310: 1781 113e b856 223e 6080 05be 7612 fe3d
00000320: c1d2 bf3d 6347 40be 7552 11be 2025 b73d
00000330: e912 1b3e 3870 f0bd 718f 7c3d 4650 d6bd
00000340: aea8 62bd 9d06 783e 11f0 3fbe 2c0d d2bd
00000350: 400f 863d 34d3 f4bd 7c1a 523e 9dfd 5bbc
00000360: 9161 11bd ba3a 2ebd d93d 8a3d 11fa a13c
00000370: 77f6 d0bd ed77 313e 2a84 29be 3d21 c23d
00000380: 6517 4ebe e9d3 1cbe 40a0 f33d 69b9 2d3d
00000390: f158 99bd 75ed 5d3d cb52 39be ac78 353d
000003a0: 0b19 753d 6b05 de3d f0fa 043e e27d 173a
000003b0: 7abb 483d 40a2 3ebd 8a56 4f3e 5637 463d
000003c0: 235d e5bd 01f0 b93c 9b8c 86bd ddfd 99bc
000003d0: f2e8 8d3e 863d 233d 7e29 553d 9eba 9a3a
000003e0: 46cc 053d 3fd3 abbd df9b 16bd 6864 773e
000003f0: 5de8 223c b47c 2a3b 69d9 b13c 5147 953d

weight f4 [8, 16]
-0.00051225536 0.13452265 0.18931858 -0.14374891 0.13772164 -0.3227717 -0.093542434 -0.113453634
0.039859075 0.23387147 0.24409999 0.18121365 -0.0335226 0.29723796 0.1398084 -0.18684
-0.09805263 -0.24381837 0.31256074 0.11625214 0.13803585 -0.021976966 -0.11390099 0.13388865
0.09719611 -0.14825742 0.24795498 -0.10906586 -0.10394179 -0.23070231 0.2614408 0.037715014
-0.20108403 -0.12225325 -0.10031002 0.1029698 -0.30297932 0.043567754 -0.07093251 0.41738638
0.28875342 0.13518144 0.18775755 0.033565205 0.33942538 -0.19936125 -0.08189902 -0.07568496
-0.21084593 -0.064506546 0.30420864 -0.007632255 0.009844248 0.22103299 0.009683205 -0.039526206
0.11705508 0.25757205 0.12165685 0.029011711 0.10372893 -0.0779809 0.11378565 -0.107397646
0.26846388 0.3740276 -0.18748991 -0.40780732 0.10905018 0.13460708 0.21512058 -0.57941633
-0.34813467 -0.003716887 -0.54964346 0.095712386 -0.08485753 0.06845261 -0.19706096 -0.017507143
-0.27783242 -0.060569078 -0.30532965 0.29656145 0.0109177595 0.42059103 0.08254898 -0.051737722
0.06534629 -0.2640485 -0.20048892 -0.26050135 0.097598635 -0.10657274 -0.07172263 0.16122012
-0.08918521 -0.21076925 -0.030221859 0.061391212 -0.10791883 -0.5104343 0.15524179 -0.15373518
0.03310939 -0.09624528 -0.102996476 -0.1542697 -0.3184367 0.16648936 -0.033680502 -0.038988844
0.015057037 0.034287717 0.1330779 -0.04028055 -0.10270151 0.07213234 -0.17352997 -0.035655797
0.05238716 0.13995446 0.14696115 -0.18609238 0.2205641 -0.25741565 0.2226743 0.40207896
00000000: e048 06ba 4ec0 093e bbdc 413e ea32 13be
00000010: e706 0d3e 5542 a5be 2d93 bfbd 615a e8bd
00000020: 4543 233d 017c 6f3e 59f5 793e 1290 393e
00000030: fe4e 09bd 932f 983e ef29 0f3e fc52 3fbe
00000040: d1cf c8bd 86ab 79be f607 a03e 9a15 ee3d
00000050: 4559 0d3e 0a09 b4bc ec44 e9bd 1b1a 093e
00000060: c10e c73d cbd0 17be e9e7 7d3e ec5d dfbd
00000070: 6fdf d4bd 3a3d 6cbe 92db 853e 0f7b 1a3d
00000080: f9e8 4dbe e95f fabd 576f cdbd d5e1 d23d
00000090: 1b20 9bbe 1a74 323d 1045 91bd abb3 d53e
000000a0: 7dd7 933e 016d 0a3e 8443 403e ab7b 093d
000000b0: 2ac9 ad3e 5b25 4cbe acba a7bd b700 9bbd
000000c0: ffe7 57be 021c 84bd 3cc1 9b3e ff17 fabb
000000d0: c549 213c 7956 623e 4ea6 1e3c 3be6 21bd
000000e0: 93ba ef3d 7ce0 833e 3a27 f93d f8a9 ed3c
000000f0: d56f d43d 73b4 9fbd 7308 e93d 4cf3 dbbd
00000100: 1974 893e 8c80 bf3e 5bfd 3fbe 1fcc d0be
00000110: b355 df3d 70d6 093e 9248 5c3e a154 14bf
00000120: b53e b2be 0497 73bb 6fb5 0cbf db04 c43d
00000130: c9c9 adbd e230 8c3d 59ca 49be 246b 8fbc
00000140: 0d40 8ebe 4817 78bd 2b54 9cbe e7d6 973e
00000150: 67e0 323c b557 d73e 710f a93d efea 53bd
00000160: 47d4 853d 5d31 87be f84c 4dbe 6f60 85be
00000170: cbe1 c73d cf42 dabd 50e3 92bd e316 253e
00000180: bca6 b6bd e5d3 57be d593 f7bc 5a75 7b3d
00000190: 8c04 ddbd d3ab 02bf b4f7 1e3e c16c 1dbe
000001a0: b69d 073d 3f1c c5bd d1ef d2bd e0f8 1dbe
000001b0: 230a a3be 307c 2a3e 91f4 09bd c4b2 1fbd
000001c0: cab1 763c 4771 0c3d 9345 083e 38fd 24bd
000001d0: 2b55 d2bd 1fba 933d d7b1 31be d00b 12bd
000001e0: eb93 563d 3950 0f3e fc7c 163e 008f 3ebe
000001f0: 8edb 613e fccb 83be bb04 643e 4bdd cd3e

c f4 [8]
-0.12327104 0.028873106 -0.24986029 -0.15361995 0.04071118 -0.12570547 0.016552867 0.053613137
00000000: 8775 fcbd 4b87 ec3c 60db 7fbe 8c4e 1dbe
00000010: c4c0 263d efb8 00be e199 873c 7399 5b3d

bias f4 [64]
0.2060804 0.19201018 -0.119410224 -0.004351257 -0.05607499 0.11476884 -0.18815851 0.0024689136
0.024614248 0.16383624 0.018477095 0.023850357 0.12563622 0.07855405 0.04264236 0.0020758451
-0.0027214848 0.08211612 0.29034114 0.10903815 0.22689337 -0.0021413837 0.07928923 0.00072972564
-0.031633012 0.030575195 0.28677228 0.44232434 -0.10941345 -0.055214956 0.22550519 -0.1127537
0.008053878 0.0030074771 0.050096504 0.048030294 0.17402607 -0.1855304 0.064619966 0.3667002
0.32718155 0.0016011016 0.05427051 0.5705283 0.18453877 0.18774712 0.17390665 0.26148233
0.5055689 0.2234864 -0.0690952 0.38442856 0.30474216 0.18379621 0.08697178 -0.023499243
-0.036911126 0.4325506 -0.072390094 -0.4621543 -0.01779369 0.02506844 -0.06395795 0.1479137
00000000: be06 533e 519e 443e 598d f4bd fd94 8ebb
00000010: e4ae 65bd ed0b eb3d a0ac 40be 7fcd 213b
00000020: d2a3 c93c b0c4 273e 475d 973c d361 c33c
00000030: c8a6 003e f2e0 a03d c1a9 2e3d e70a 083b
00000040: f05a 32bb 7f2c a83d 98a7 943e 654f df3d
00000050: bc56 683e 7556 0cbb 6462 a23d 0f4b 3f3a
00000060: 9e91 01bd d578 fa3c d1d3 923e 5678 e23e
00000070: 2914 e0bd 1429 62bd d5ea 663e 69eb e6bd
00000080: 6af4 033c 1819 453b fe31 4d3d 6abb 443d
00000090: e433 323e aefb 3dbe 7957 843d 21c0 bb3e
000000a0: 5784 a73e 0edc d13a c14a 5e3d 250e 123f
000000b0: bbf7 3c3e c840 403e 9614 323e 03e1 853e
000000c0: f76c 013f 9ed9 643e c981 8dbd d2d3 c43e
000000d0: 2a07 9c3e 1335 3c3e 431e b23d 7c81 c0bc
000000e0: 1f30 17bd 4677 dd3e 4241 94bd 7d9f ecbe
000000f0: 13c4 91bc 545c cd3c 63fc 82bd b076 173e

weight f4 [512, 32]
-0.03155885 -0.054140747 -0.011985781 -0.047490545 -0.053878173 -0.02132381 -0.07134455 -0.0020481797
0.046573594 0.022821471 -0.028797109 0.018336348 -0.01843177 0.04289404 -0.0040397756 -0.04706383
0.012637731 -0.022329517 0.016684307 0.006819664 -0.0003817319 -0.012727848 0.061051182 -0.022042744
0.0027907253 0.025308328 0.004254847 0.0010134473 -0.0013759905 -0.049593143 -0.017466292 -0.0011241805
-0.03950746 -0.08056527 0.03989146 -0.11082109 -0.079652034 -0.010252422 -0.087063834 -0.04519627
0.008328575 0.023932735 -0.0069000656 -0.03647039 -0.07950092 0.015624611 0.0135486815 -0.083768
0.12762338 0.0033688513 -0.034814626 0.010323361 0.03777198 0.024451766 0.03997783 -0.0014346254
0.023371056 0.06970584 0.0073466753 -0.03542841 -0.014690901 -0.10902162 -0.014868628 -0.027775608
-0.09014765 0.12969641 -0.026686316 -0.05138489 0.1555364 0.0479365 0.0074518905 -0.123198576
-0.031797953 -0.065648675 -0.06792911 0.06602293 0.12426326 -0.011148917 0.010642863 -0.04673789
-0.09254811 -0.01907222 0.062210508 0.042713754 -0.015053134 0.026498513 -0.11697305 0.030955551
-0.02346886 -0.036862217 0.018544262 0.16557053 0.048526194 -0.025886701 0.01788106 0.032830715
-0.0037484772 0.011727359 -0.0047805537 -0.004705578 0.0066877822 0.0005173213 -0.0009231619 -0.012720461
-0.01474747 -0.009229737 -0.0030740427 -0.009615325 0.0033218649 -0.0003838254 -0.012226621 -0.0074321437
-0.010868801 0.003086875 -0.0018549175 0.0047274427 -0.0023844386 -0.0005374319 -0.012531373 0.0005038602
0.0003571674 0.0006646715 0.0011628834 -0.0024766617 0.0025864174 0.0055978615 0.00069128186 0.004903824
0.038637906 0.10283413 0.0972468 0.021376831 -0.05075187 0.015298586 -0.04517279 -0.0006468268
-0.023593672 0.027909754 -0.0046411343 -0.07844103 -0.015236204 0.0155605255 -0.08045924 0.016991867
-0.028474145 0.033765215 -0.023288103 0.02899961 0.0076940055 -0.005492145 0.03372109 0.017115735
0.0120300595 0.07313283 0.0182419 -0.014145523 0.0058193943 0.007010019 -0.004810229 0.07624902
-0.023005594 -0.053135082 -0.021285139 -0.12209057 -0.11602159 0.001984026 -0.17089726 -0.0807162
-0.000813936 0.001726918 -0.07216644 0.020896135 -0.0779784 -0.01229192 0.049972054 -0.069207154
0.030317673 0.026041113 -0.020568486 0.053139523 0.0033731095 0.0063175694 0.07112018 0.008195727
-0.028527789 -0.007379739 0.008948225 -0.005086984 -0.016680041 -0.037412778 -0.019091792 -0.071205005
0.008442821 -0.02461365 -0.017766114 -0.010325784 -0.029237822 -0.00467452 -0.056373272 -0.007075967
-0.01548788 -0.003977061 -0.005990766 -0.004798442 -0.010299068 -0.014265157 -0.004973503 -0.06639888
0.032628153 0.0022354922 -0.006523941 -0.0031775958 -0.007901523 -0.009226895 -0.0061396738 -0.0020355585
0.0039288914 0.004927232 -0.0051226104 -0.00898095 0.004567205 -0.02222016 -0.010587371 -0.009964571
-0.0004482896 5.586153e-05 -8.986232e-05 -0.00042693035 0.00047657712 -0.000601468 -0.00023817844 0.00032657426
-0.0009062528 0.0007703186 -0.0001166775 -0.00066007854 0.00048017415 -0.0005974305 -0.0011869619 0.00023141172
0.00075199653 -0.00030779847 -0.00014924596 -0.00056887884 -0.00023659237 -0.00041815528 -0.00055329484 0.0011581817
-0.00018440073 0.00021044395 0.00017678137 0.0003521465 -0.0008515495 0.0005579078 -0.00024584075 0.000260114
00000000: da43 01bd b0c2 5dbd 0260 44bc 7285 42bd
00000010: 5caf 5cbd 45af aebc 171d 92bd c13a 06bb
00000020: f4c3 3e3d 18f4 ba3c eae7 ebbc 1c36 963c
00000030: 39fe 96bc a9b1 2f3d 1860 84bb 01c6 40bd
00000040: 7c0e 4f3c 64ec b6bc 87ad 883c 7d77 df3b
00000050: 3023 c8b9 7788 50bc ce10 7a3d fc92 b4bc
00000060: 9ae4 363b 6953 cf3c 3e6c 8b3b a6d5 843a
00000070: 945a b4ba 2e22 4bbd 7815 8fbc 3d59 93ba
00000080: 93d2 21bd 67ff a4bd 3a65 233d 2bf6 e2bd
00000090: 9b20 a3bd c6f9 27bc 864e b2bd b91f 39bd
000000a0: 9374 083c 950e c43c f219 e2bb fa61 15bd
000000b0: 61d1 a2bd 5efe 7f3c 4afb 5d3c 8f8e abbd
000000c0: b4af 023e f2c7 5c3b c899 0ebd 5023 293c
000000d0: cbb6 1a3d 124f c83c cbbf 233d 0a0a bcba
000000e0: a874 bf3c efc1 8e3d 61bc f03b 611d 11bd
000000f0: 1bb2 70bc ba46 dfbd 8c9b 73bc ac89 e3bc
00000100: 559f b8bd 23cf 043e 439d dabc f678 52bd
00000110: ef44 1f3e 1059 443d fd2e f43b 894f fcbd
00000120: 923e 02bd d072 86bd 6b1e 8bbd 0837 873d
00000130: bc7d fe3d f2a9 36bc 675f 2e3c 3b70 3fbd
00000140: dd89 bdbd 583d 9cbc 72d0 7e3d 9ef4 2e3d
00000150: 6ca1 76bc 6913 d93c 918f efbd 7f96 fd3c
00000160: c441 c0bc d6fc 16bd 23ea 973c 528b 293e
00000170: 67c3 463d 5910 d4bc 4d7b 923c 8079 063d
00000180: 03a9 75bb 1c24 403c 31a6 9cbb 4031 9abb
00000190: 2f25 db3b d89c 073a 5900 72ba 7b69 50bc
000001a0: 5f9f 71bc 5338 17bc e175 49bb 9989 1dbc
000001b0: a5b3 593b 2c3c c9b9 2a52 48bc 5789 f3bb
000001c0: 0e13 32bc 2b4d 4a3b b420 f3ba aae8 9a3b
000001d0: 3e44 1cbb 72e2 0cba 6350 4dbc 7c15 043a
000001e0: 3242 bb39 593d 2e3a e46b 983a 7d4f 22bb
000001f0: e280 293b 446e b73b 2437 353a 42b0 a03b
00000200: c842 1e3d b39a d23d 5529 c73d 771e af3c
00000210: 31e1 4fbd eca6 7a3c 1a07 39bd d08f 29ba
00000220: 8447 c1bc ffa2 e43c a814 98bb b1a5 a0bd
00000230: 45a1 79bc 93f1 7e3c d0c7 a4bd 8732 8b3c
00000240: 9c42 e9bc 654d 0a3d b1c6 bebc 9790 ed3c
00000250: ff1d fc3b 74f7 b3bb 201f 0a3d 4c36 8c3c
00000260: ba19 453c aac6 953d 0970 953c a0c2 67bc
00000270: 9eb0 be3b 4db4 e53b 209f 9dbb 7228 9c3d
00000280: 3a76 bcbc 2ca4 59bd 2c5e aebc 9f0a fabd
00000290: ba9c edbd 6f06 023b b1ff 2ebe 894e a5bd
000002a0: 525e 55ba c159 e23a 00cc 93bd 5f2e ab3c
000002b0: 24b3 9fbd 0d64 49bc 7faf 4c3d 7bbc 8dbd
000002c0: c55c f83c 2c54 d53c 3e7f a8bc d4a8 593d
000002d0: 630f 5d3b 9d03 cf3b 75a7 913d 5f47 063c
000002e0: 1cb3 e9bc bdd1 f1bb 939b 123c b7b0 a6bb
000002f0: 95a4 88bc 243e 19bd 6466 9cbc eed3 91bd
00000300: c253 0a3c 91a2 c9bc 3e8a 91bc 7a2d 29bc
00000310: 2884 efbc b72c 99bb a9e7 66bd 83dd e7bb
00000320: e1c0 7dbc 0152 82bb 304e c4bb 403c 9dbb
00000330: 6cbd 28bc 68b8 69bc c4f8 a2bb 23fc 87bd
00000340: 19a5 053d 5681 123b c9c6 d5bb 363f 50bb
00000350: 6475 01bc 672c 17bc 512f c9bb 0167 05bb
00000360: eebd 803b 9e74 a13b 92db a7bb d624 13bc
00000370: 7ea8 953b 0e07 b6bc a776 2dbc 7142 23bc
00000380: 6908 ebb9 dc4c 6a38 7774 bcb8 9fd5 dfb9
00000390: 19dd f939 d6ab 1dba 8abf 79b9 0e38 ab39
000003a0: 9991 6dba 35ef 493a c1b0 f4b8 1f09 2dba
000003b0: e2bf fb39 e29c 1cba d593 9bba 1ca7 7239
000003c0: a221 453a 0360 a1b9 e87e 1cb9 d020 15ba
000003d0: c815 78b9 da3b dbb9 fd0a 11ba 21ce 973a
000003e0: b25b 41b9 9eaa 5c39 635e 3939 4ea0 b839
000003f0: 853a 5fba 8f40 123a 30e4 80b9 e95f 8839

weight f4 [8, 32]
-0.1580481 -0.20116164 0.079948686 0.059221145 -0.14979577 0.028411478 0.027120817 -0.15700935
-0.086293116 0.06083255 0.09746258 0.22254735 -0.012811518 0.058235433 -0.16269672 -0.078978285
-0.15860514 0.07376524 0.15833549 -0.034124628 0.053206064 0.037426002 0.15505564 -0.156005
0.12903056 -0.080403164 0.04742767 -0.055250797 0.17969917 0.16802955 -0.08936311 0.21328032
0.18219551 -0.056222413 0.06968477 0.19018559 0.04328613 -0.28331515 0.056009885 0.22102128
0.0064939815 0.14075316 -0.054791387 -0.34417948 0.030432886 0.036716506 -0.09130689 0.18476376
0.3627841 -0.00021867956 -1.0580764 -0.21223255 -0.063708924 -0.2802419 -0.10522106 -0.09302189
0.2972662 -0.054556753 -0.21261296 0.03830272 -0.30053306 0.17477629 0.13612175 0.23888734
-0.0014096302 -0.19286247 -0.05087726 0.15914574 -0.11662092 -0.064932525 0.073103905 -0.13545915
0.18881722 0.03550356 -0.027603893 0.2842228 0.34673733 0.0094897 0.15766232 0.18335932
-0.23155461 0.06755339 0.094136424 0.2783573 -0.045636147 -0.066765845 0.07180356 -0.13874446
-0.13898158 -0.03452802 -0.024852566 0.085790284 0.101619445 -0.23776245 0.09571727 -0.0153406095
-0.16893113 0.040546842 -0.07465689 0.0999654 -0.13578771 -0.021009415 0.1919584 -0.06551473
0.0037580358 0.10571248 -0.18273634 0.0807858 -0.15296735 -0.041791208 -0.048032448 -0.04018937
-0.13611428 -0.23414044 0.11816711 -0.02947449 -0.18050298 -0.22596185 -0.08092295 0.12804922
0.03621051 0.05867006 0.043449827 -0.032485697 0.043602332 -0.11953811 -0.11553234 -0.13632444
-0.028677454 -0.11087602 -0.07780314 -0.1602698 0.24194546 0.08089619 -0.056452364 0.21266486
0.034472447 -0.109453365 0.08154003 -0.18159953 -0.13614342 0.041580684 -0.0013832909 -0.032578215
-0.21166943 -0.04952301 0.3629011 -0.24932234 -0.106345505 0.028027734 -0.19397753 0.007828125
-0.047034565 -0.13385987 -0.023954447 -0.066904776 0.11179097 -0.08777756 0.036747046 -0.16743669
0.09536575 -0.32653233 -0.19532524 -0.196566 -0.04709133 0.13436683 -0.30637738 -0.17420195
0.10160714 -0.23005646 -0.025906134 0.40067935 0.14627331 -0.16927667 0.17690888 -0.37421006
0.25728583 0.049697027 0.116749816 0.42367953 -0.17880727 0.061741963 0.15965839 0.12788932
-0.16436775 0.22577935 -0.02681403 -0.19061412 0.04844736 0.027859507 0.17800498 -0.14386658
-0.14197521 0.11476208 0.16060974 0.14155416 0.24413237 -0.021743653 0.28057423 -0.12158313
-0.28744715 0.08734107 0.15164083 0.13157853 0.0045427065 -0.08516618 -0.024342073 0.25133568
-0.053685866 0.0055667413 0.0990855 0.1360614 0.1698165 0.015607017 0.056221526 0.2341402
-0.22578108 -0.20062554 0.030040596 -0.09858642 -0.090231895 0.099396735 -0.23297147 0.043056644
0.18429156 0.037282262 0.07536065 -0.26277646 -0.045098517 0.26841724 -0.04146374 -0.038559422
0.07011348 0.16046637 0.14366643 -0.3173126 -0.17467599 0.19569917 -0.20668301 -0.13500573
0.24150598 0.04044457 0.4356691 -0.26545224 0.15647036 0.29695472 -0.26576436 -0.17150775
0.18397269 0.15763403 -0.15277267 -0.11581927 0.254203 0.11527016 -0.04575605 0.18707052
00000000: 5cd7 21be 51fd 4dbe 23bc a33d df91 723d
00000010: 1064 19be 30bf e83c 7a2c de3c 0fc7 20be
00000020: 72ba b0bd 8d2b 793d 769a c73d 74e3 633e
00000030: 67e7 51bc 4788 6e3d f899 26be 5ebf a1bd
00000040: 6369 22be 3b12 973d b322 223e 44c6 0bbd
00000050: 9aee 593d 024c 193d e8c6 1e3e c6bf 1fbe
00000060: 9620 043e 6aaa a4bd 8443 423d a94e 62bd
00000070: 0f03 383e f00f 2c3e 0204 b7bd 2866 5a3e
00000080: 7691 3a3e 7949 66bd e4b6 8e3d 03c0 423e
00000090: cc4c 313d af0e 91be 9f6a 653d 6753 623e
000000a0: 77cb d43b 9921 103e ef6c 60bd 4b38 b0be
000000b0: 634e f93c 0c64 163d 1bff babd b632 3d3e
000000c0: d6be b93e 594d 65b9 0c6f 87bf 7d53 59be
000000d0: d379 82bd de7b 8fbe 247e d7bd 4382 bebd
000000e0: 4633 983e e776 5fbd 36b7 59be 50e3 1c3d
000000f0: 78df 99be 8ef8 323e 8063 0b3e e29e 743e
00000100: 57c3 b8ba bd7d 45be ac64 50bd 1af7 223e
00000110: f3d6 eebd 58fb 84bd 80b7 953d ceb5 0abe
00000120: 4d59 413e 2e6c 113d 8f21 e2bc a785 913e
00000130: 8e87 b13e b07a 1b3c 3b72 213e 8cc2 3b3e
00000140: a71c 6dbe 6f59 8a3d 99ca c03d d984 8e3e
00000150: f8ec 3abd 88bc 88bd bf0d 933d 0713 0ebe
00000160: 3051 0ebe 416d 0dbd 9c97 cbbc d1b2 af3d
00000170: db1d d03d 0078 73be 6b07 c43d 2e57 7bbc
00000180: 48fc 2cbe 7214 263d b6e5 98bd a9ba cc3d
00000190: ef0b 0bbe f01b acbc be90 443e 962c 86bd
000001a0: 6149 763b c97f d83d 3c1f 3bbe 0773 a53d
000001b0: 79a3 1cbe 422d 2bbd acbd 44bd 9c9d 24bd
000001c0: 8b61 0bbe 83c2 6fbe 9901 f23d 7c74 f1bc
000001d0: c6d5 38be 8b62 67be eeba a5bd 561f 033e
000001e0: 7951 143d 0450 703d 72f8 313d b90f 05bd
000001f0: 5c98 323d 66d0 f4bd 389c ecbd a298 0bbe
00000200: fbec eabc f712 e3bd 4157 9fbd c41d 24be
00000210: 8dc0 773e e7ac a53d 983a 67bd d1c4 593e
00000220: fb32 0d3d 1629 e0bd 76fe a63d 3af5 39be
00000230: 2e69 0bbe 8250 2a3d 8a4f b5ba bc70 05bd
00000240: dfbf 58be a4d8 4abd 2cce b93e 5b4e 7fbe
00000250: accb d9bd 6b9a e53c 0ca2 46be 8941 003c
00000260: 51a7 40bd 9012 09be 1e3c c4bc 5f05 89bd
00000270: aaf2 e43d b9c4 b3bd 1284 163d 8674 2bbe
00000280: 1e4f c33d 3f2f a7be 5703 48be 9948 49be
00000290: d7e2 40bd 7597 093e 7fdd 9cbe ff61 32be
000002a0: 6717 d03d ec93 6bbe 1a39 d4bc d825 cd3e
000002b0: acc8 153e dd56 2dbe 9a27 353e 7698 bfbe
000002c0: f8ba 833e 1c8f 4b3d 871a ef3d 86ec d83e
000002d0: 4119 37be 24e5 7c3d 7d7d 233e 6bf5 023e
000002e0: 0550 28be b432 673e 19a9 dbbc 5930 43be
000002f0: bd70 463d 9f39 e43c f046 363e c351 13be
00000300: f361 11be 6208 eb3d e176 243e 93f3 103e
00000310: d6fd 793e bf1f b2bc 6da7 8f3e 9300 f9bd
00000320: 462c 93be e0df b23d bc47 1b3e 86bc 063e
00000330: fcda 943b 9b6b aebd 0769 c7bc 12af 803e
00000340: b6e5 5bbd 3669 b63b 57ed ca3d ae53 0b3e
00000350: 60e4 2d3e 93b4 7f3c 8b48 663d 73c2 6f3e
00000360: 2833 67be c870 4dbe b217 f63c ade7 c9bd
00000370: 80cb b8bd 8490 cb3d 1390 6ebe 2a5c 303d
00000380: edb6 3c3e 49b5 183d af56 9a3d a38a 86be
00000390: 39b9 38bd fc6d 893e e2d5 29bd 7cf0 1dbd
000003a0: a897 8f3d 4c51 243e 4b1d 133e cc76 a2be
000003b0: 43de 32be 5d65 483e b6a4 53be f13e 0abe
000003c0: 584d 773e 35a9 253d 0510 df3e 5be9 87be
000003d0: c439 203e 730a 983e 4412 88be ba9f 2fbe
000003e0: 5663 3c3e d16a 213e 7070 1cbe a732 edbd
000003f0: e526 823e c312 ec3d b26a 3bbd 6a8f 3f3e

c f4 [8]
0.019597298 -0.51773334 0.045457054 0.21311265 -0.015661806 -0.06318799 -0.18089974 -0.15019353
00000000: 838a a03c 2c8a 04bf 2d31 3a3d 343a 5a3e
00000010: 304d 80bc b468 81bd c83d 39be 55cc 19be

bias f4 [128]
-0.060400955 -0.019853484 -0.028194513 -0.11950573 0.011693364 -0.081706665 -0.1565897 -0.09320123
-0.011052839 0.001487651 -0.0014085738 -0.021668185 -0.001123805 0.0051338617 0.00039021872 -0.0088215405
0.00037042034 -0.0015607115 -0.05269989 0.02326915 0.07525022 -0.011993222 -0.0014300622 -0.058507636
0.10442967 -0.057867233 -0.001020941 1.8077324e-05 -4.3470885e-05 -0.19856915 0.13175297 1.344617e-05
-0.0016853501 -0.10012268 -0.029083762 0.18502614 0.051594302 -0.00035668619 -0.22981922 -0.00044762457
-0.032218225 0.00016465568 0.029877204 -0.00056938495 -0.06999711 -0.0014081999 0.12573475 -0.030231437
0.1024093 -0.015449552 0.0014290459 -0.033162944 -0.15799291 -0.000468442 -0.009302234 -0.0007068658
0.119534865 0.05650809 -0.0022794097 -0.00023373964 -0.0900106 -0.01748081 -0.0011808067 0.056775913
-0.06282644 -0.20579255 -0.2622951 0.0013866851 0.115000725 -0.23336647 -0.037781566 0.046336617
-0.00014771053 -5.920558e-05 0.00039681373 -0.0013864543 0.00045244687 -0.029403687 -4.7676174e-05 0.00026966468
0.0011531743 -0.00069319597 -0.095434785 0.053254053 0.08216481 -0.055619545 -0.0010212224 -0.030073456
-0.046043407 -0.00041286205 -0.08083915 -0.0004562633 0.0025530243 0.0007485349 0.00056941673 -0.0004909207
0.00078082044 0.03944755 0.047346197 0.00011267622 -0.0028159744 0.12561204 0.15520611 0.0002421976
-0.058001846 0.02145777 -0.041643992 0.025983099 -0.06359411 0.029463036 -0.051832434 -0.000620546
0.011028883 0.0007238064 -0.009032468 -0.009534853 0.00023125991 0.00031264636 -0.10555535 0.14527713
-0.13861535 0.10975268 -0.0017636833 -0.0022210341 -0.24648616 -0.0005948494 0.00920646 -0.002491665
00000000: fe66 77bd c6a3 a2bc 2ef8 e6bc 6cbf f4bd
00000010: 8695 3f3c d355 a7bd 0d59 20be 49e0 bebd
00000020: f816 35bc 49fd c23a e59f b8ba 7a81 b1bc
00000030: a34c 93ba f439 a83b 4596 cc39 3988 10bc
00000040: fa34 c239 ca90 ccba d7db 57bd f29e be3c
00000050: ca1c 9a3d 387f 44bc ed70 bbba b4a5 6fbd
00000060: 39df d53d 3106 6dbd 18d1 85ba c2a4 9737
00000070: 8254 36b8 b655 4bbe 40ea 063e dc96 6137
00000080: f7e6 dcba 1f0d cdbd 1241 eebc 7e77 3d3e
00000090: 8c54 533d 9c01 bbb9 bb55 6bbe 27af eab9
000000a0: 42f7 03bd 6ca7 2c39 0ac1 f43c c742 15ba
000000b0: a55a 8fbd 5993 b8ba 9cc0 003e eba7 f7bc
000000c0: f8bb d13d 1e20 7dbc d34e bb3a ded5 07bd
000000d0: e5c8 21be 3999 f5b9 6668 18bc f64c 39ba
000000e0: b2ce f43d 0775 673d 2662 15bb 0218 75b9
000000f0: 7a57 b8bd ea33 8fbc 4cc5 9aba dc8d 683d
00000100: 26ab 80bd 48bb 52be 8b4b 86be 6ec1 b53a
00000110: 8085 eb3d 9ff7 6ebe d8c0 1abd 77cb 3d3d
00000120: bee2 1ab9 8253 78b8 700b d039 b0b9 b5ba
00000130: 6436 ed39 00e0 f0bc e7f7 47b8 c861 8d39
00000140: 1c26 973a 98b7 35ba 5073 c3bd ec20 5a3d
00000150: 0646 a83d 52d1 63bd 8ada 85ba 9c5c f6bc
00000160: 0398 3cbd 6875 d8b9 ff8e a5bd a036 efb9
00000170: a450 273b 5439 443a e944 153a 21b1 00ba
00000180: f9af 4c3a c193 213d 16ee 413d 964c ec38
00000190: 368c 38bb 71a0 003e 5aee 1e3e 6cf6 7d39
000001a0: 5893 6dbd 35c8 af3c e492 2abd 82da d43c
000001b0: a13d 82bd 775c f13c 3f4e 54bd 23ac 22ba
000001c0: 7db2 343c d3bd 3d3a ebfc 13bc 1238 1cbc
000001d0: 5c7e 7239 afea a339 672d d8bd 87c3 143e
000001e0: 2ff1 0dbe 03c6 e03d 642b e7ba c58e 11bb
000001f0: de66 7cbe abef 1bba b1d6 163c 344b 23bb

weight f4 [1024, 64]
0.0023344564 -0.021688472 0.022641268 -0.00074982515 -0.00503162 -0.007479261 0.011592984 -0.00020268135
-0.005545917 0.0023545278 -0.00237181 0.010882044 -0.0017082054 0.018936243 0.0017217788 -0.00041972037
0.00029186445 0.0012524386 -0.0022997004 -0.035280295 -0.023077207 0.00011295476 0.01528092 0.00010246254
-0.044785224 0.0046378425 -0.004459926 0.02203025 -0.00015436692 -0.0006276794 -0.0013695303 -0.037646204
-0.0008438473 -0.00035177308 0.008942006 0.0063159 -0.004681219 0.018260635 -0.011721207 -0.02785878
-0.01483645 -0.00012569824 -0.00011297061 -0.01243155 -0.0008029936 0.016704148 -0.012117162 0.0066064643
-0.016307035 -0.0020778687 -0.014390418 0.0020768913 -0.0474201 -0.031890493 0.027765594 -0.0011190448
-0.023590947 -0.005966897 -0.038191024 0.0017898036 -0.000116989526 0.0059144474 0.008916222 -0.0020109864
-0.0036927136 -0.044985857 0.02314728 5.5093562e-05 -0.007873946 -0.030575579 0.017259369 -0.00019192304
-0.008802793 0.0030669707 -0.0015819755 0.020116335 0.010126786 0.034729447 0.0052661276 -0.00043829973
0.00045552338 -0.006211558 -0.02111742 -0.04006412 -0.037545137 0.000365138 0.026359798 0.00036738382
-0.045259368 0.0034075808 -0.022215417 -0.009305281 0.005503898 0.0023882885 -0.019094538 -0.019026965
-0.0005386188 -0.00060105906 0.013452775 0.0012403189 -0.014105037 0.027595306 -0.03620791 -0.059264902
-0.06101906 -0.00043390744 -0.00059797056 -0.046322443 -0.011503671 0.009714161 -0.017962256 0.0019951395
-0.046003424 -0.027189285 -0.011613904 -0.036912415 -0.061404917 -0.03818437 0.010635339 0.0058942265
-0.028134655 -0.03442726 -0.048534572 -0.0025005352 0.002685605 0.009169247 0.020673748 -0.02079037
-0.0014218282 -0.034625404 0.012770216 -0.0002638498 -0.0042060614 -0.02163766 0.016362913 -0.0001804461
-0.0057758293 0.0017539725 -0.0019018693 0.013137294 0.0036443241 0.023509359 0.0030219473 -0.0004079457
0.00038373363 -0.0019266454 -0.0129395155 -0.026018562 -0.027946666 0.0002752197 0.018420551 0.00024559657
-0.0724421 0.002263641 -0.01338269 0.00031444433 0.0028621622 0.0009690432 -0.009673928 -0.04940678
-0.0007109457 -0.00045150367 0.009935748 0.0007676167 -0.009121759 0.02001233 -0.024478603 -0.038441
-0.039956488 -0.0003060451 -0.000208625 -0.031101516 -0.0063218987 0.009557045 -0.013952856 0.0016398346
-0.03407036 -0.016031273 -0.007715835 -0.022806143 -0.028668229 -0.023666332 0.009234205 0.0012604914
-0.022826612 -0.022064636 -0.027949534 0.0011927572 0.0010152985 0.0073280777 0.013792912 -0.015500393
0.009933823 0.022874093 0.056566104 0.0006307705 -0.014910023 0.025115747 0.005006015 0.000121949895
-0.00073729566 0.0023611998 0.00081350113 0.0078109223 -0.0063271564 0.0070820367 0.0013050153 0.00013709697
-0.00038056256 0.000546929 0.021087812 -0.023136843 0.007043491 0.00014373832 0.009247425 5.8404406e-05
-0.01057661 0.0024087362 0.015169918 0.06702246 -0.018733624 0.00055496924 0.013307449 -0.026318295
-0.00035373826 0.0003605165 0.009912657 0.010131014 0.0070575816 0.018480256 0.025191752 0.022172673
0.052506745 -4.041399e-05 0.0013228563 0.024742674 0.0066846735 0.023205122 -0.013139625 0.011536491
0.017155658 0.03681342 -0.02383971 0.069288075 -0.006215945 0.0025039522 0.062413782 0.0002645919
-0.008098725 0.02343551 -0.015018782 0.0069116373 -0.0005549599 0.005751482 0.004534838 0.027359681
00000000: aefd 183b 06ac b1bc 2e7a b93c ea8f 44ba
00000010: 4ae0 a4bb 9714 f5bb 80f0 3d3c dc86 54b9
00000020: 86ba b5bb 6c4e 1a3b 5e70 1bbb 9a4a 323c
00000030: dde5 dfba 2e20 9b3c 4fad e13a ea0d dcb9
00000040: 6205 9939 de28 a43a 92b6 16bb 1282 10bd
00000050: 690c bdbc 20e2 ec38 d35c 7a3c 28e1 d638
00000060: b670 37bd 0bf9 973b 9224 92bb c878 b43c
00000070: 8edd 21b9 da8a 24ba d081 b3ba e832 1abd
00000080: a235 5dba 2f6e b8b9 7e81 123c 9cf5 ce3b
00000090: e964 99bb 5497 953c 4e0a 40bc 1938 e4bc
000000a0: 9514 73bc ddcd 03b9 a2ea ecb8 b3ad 4bbc
000000b0: fd7f 52ba 23d7 883c 1087 46bc 0a7b d83b
000000c0: 5596 85bc da2c 08bb cac5 6bbc 741c 083b
000000d0: 943b 42bd 9b9f 02bd ac74 e33c eaac 92ba
000000e0: cd41 c1bc f685 c3bb 316e 1cbd d897 ea3a
000000f0: 4658 f5b8 fbcd c13b 5815 123c c1ca 03bb
00000100: 7401 72bb 1743 38bd 5d9f bd3c 4314 6738
00000110: b901 01bc a379 fabc 8563 8d3c f33e 49b9
00000120: 9739 10bc 3bff 483b 4a5a cfba 03cb a43c
00000130: d2ea 253c 7740 0e3d 7b8f ac3b 98cb e5b9
00000140: 50d3 ee39 538a cbbb 71fe acbc 461a 24bd
00000150: eec8 19bd fe6f bf39 81f0 d73c 6c9d c039
00000160: e361 39bd b851 5f3b 1bfd b5bc 2d75 18bc
00000170: 0b5a b43b d584 1c3b 266c 9cbc 70de 9bbc
00000180: 1932 0dba 6490 1dba 0769 5c3c 3292 a23a
00000190: d018 67bc 8d0f e23c bf4e 14bd c1bf 72bd
000001a0: 1fef 79bd 127e e3b9 20c1 1cba 9abc 3dbd
000001b0: e579 3cbc 2528 1f3c 9525 93bc e3c0 023b
000001c0: 166e 3cbd 10bc debc 3e48 3ebc 7931 17bd
000001d0: b983 7bbd 3767 1cbd d83f 2e3c 5b24 c13b
000001e0: a67a e6bc 9903 0dbd 30cc 46bd 05e0 23bb
000001f0: fa00 303b 9c3a 163c fe5b a93c 9150 aabc
00000200: a35c baba 5ed3 0dbd 2b3a 513c 5255 8ab9
00000210: 00d3 89bb 7641 b1bc 840b 863c 2236 3db9
00000220: 2b43 bdbb 8de5 e53a 2548 f9ba ce3d 573c
00000230: 9dd5 6e3b b396 c03c dd0b 463b 8ce1 d5b9
00000240: db2f c939 7e87 fcba 4300 54bc e124 d5bc
00000250: 68f0 e4bc 5d4b 9039 b2e6 963c 6ac3 8039
00000260: 865c 94bd 9859 143b 1243 5bbc 01dc a439
00000270: 1d93 3b3b 6307 7e3a 657f 1ebc c45e 4abd
00000280: c25e 3aba ccb7 ecb9 8cc9 223c e239 493a
00000290: 6e73 15bc e6f0 a33c 5a87 c8bc 4f74 1dbd
000002a0: 6aa9 23bd ae74 a0b9 59c2 5ab9 9bc8 febc
000002b0: ee27 cfbb 2795 1c3c 859a 64bc b8ef d63a
000002c0: 5d8d 0bbd 0454 83bc 1dd5 fcbb f3d3 babc
000002d0: a2d9 eabc e5df c1bc 104b 173c 1337 a53a
000002e0: e0fe babc e5c0 b4bc 6cf6 e4bc 4a56 9c3a
000002f0: c413 853a 5f20 f03b aafb 613c 5cf5 7dbc
00000300: 79c1 223c 7362 bb3c dcb1 673d 4b5a 253a
00000310: 2b49 74bc 8abf cd3c 7f09 a43b 5abf ff38
00000320: 1347 41ba 5cbe 1a3b 2341 553a c4f2 ff3b
00000330: 0954 cfbb 6e10 e83b 0c0d ab3a b0c1 0f39
00000340: 3e86 c7b9 c95f 0f3a 59c0 ac3c 7a89 bdbc
00000350: 16cd e63b 76b8 1639 8382 173c 41f7 7438
00000360: 8549 2dbc e3db 1d3b 3f8b 783c 1243 893d
00000370: 4277 99bc 5b7b 113a 7d07 5a3c 7799 d7bc
00000380: f275 b9b9 b503 bd39 b268 223c 8dfc 253c
00000390: 4943 e73b e863 973c ef5e ce3c 77a3 b53c
000003a0: 5011 573d 3182 29b8 b163 ad3a 26b1 ca3c
000003b0: 1b0b db3b ab18 be3c 9547 57bc 8d03 3d3c
000003c0: 068a 8c3c abc9 163d 7f4b c3bc e8e6 8d3d
000003d0: 20af cbbb 5919 243b 98a5 7f3d ecb8 8a39
000003e0: 84b0 04bc d4fb bf3c 5611 76bc 047b e23b
000003f0: ba7a 11ba ee76 bc3b fa98 943b 6921 e03c

weight f4 [8, 64]
-0.21450928 -0.14526357 0.023329638 0.086282745 -0.110737815 -0.42550933 -0.17739153 0.000102047925
0.15845606 -0.110486925 0.08787954 0.04076636 -0.0066961017 0.03898017 0.12294843 0.0001944291
0.00039096017 -0.079954915 0.007751132 0.022895362 -0.0807064 -0.000114369075 0.13473022 -0.0007478116
0.049578395 -0.45843726 -0.06169733 0.07755199 -0.08111623 0.10848958 0.14445516 0.057848558
0.0013509301 0.00014231623 -0.10694206 -0.36476803 0.027004572 -0.060786076 -0.23658307 0.23324426
-0.10649362 0.0002374377 0.13532376 -0.10705838 -0.08993121 -0.22769256 -0.1498849 -0.3827337
-0.17587082 -0.0026386837 -0.05585052 0.3587569 0.085641645 0.17246237 0.07869161 0.017664073
-0.16866961 -0.26104587 -0.0596014 -0.103259295 -1.9000438e-05 -0.4646916 0.14016531 -0.19292864
0.043667458 -0.033914436 -0.0003113932 -0.031201111 0.004289245 0.0031282455 0.015890434 -0.0006554666
-0.07339548 0.010144785 0.012849406 0.0087357545 0.04958925 0.010126719 0.023544975 -0.0005343366
0.00020058292 -0.048271023 -0.00035647818 -0.01449974 0.012780496 4.0085804e-05 0.018648783 0.00092496333
0.027366044 -0.0014940548 -0.02199137 0.021765295 -0.01638288 -0.015664607 0.009536068 -0.037029162
0.00555414 -0.0011206404 0.025918918 0.00055038923 -0.00060747797 -0.001276237 -0.020505348 -0.06088066
-0.021468153 -0.00077591836 0.003968517 -0.021211306 -0.04505621 -0.025026359 0.01582097 0.053964764
0.024065457 -0.0027489318 -0.01757065 -0.02673717 -0.05775435 -0.07356555 0.013389362 0.0057780505
-0.009946655 0.022745196 -0.07853197 0.0051603904 0.003847624 -0.010536359 -0.0060223644 -0.02480172
0.040644173 -0.024657737 0.10897475 0.044458434 0.030223258 -0.17872113 0.030240541 0.00028107973
0.06328806 0.12303015 0.09615091 0.104682095 -0.077034 0.03420378 0.09209548 0.00025035272
-0.0006620442 -0.006035203 -0.10453345 -0.021630518 0.010802739 -0.0011352842 0.03691709 -0.0011472118
-0.15427199 -0.072717965 0.044289347 0.27172795 -0.00368082 -0.03675246 0.014260699 -0.17687598
0.008254007 0.00034184617 0.09324423 -0.09554787 -0.0038723722 0.12940721 -0.076427035 0.06718931
-0.11422253 0.00072369626 0.03243472 0.12055689 -0.11336781 0.0046136524 -0.11900244 -0.028456554
-0.07290527 -0.07826749 0.029020393 0.08701502 -0.05095539 -0.056092404 0.05324254 -0.013854002
0.19881374 0.03315836 0.09716397 0.054737814 0.037280783 -0.053562645 0.124968454 -0.049754634
0.15195516 0.06879842 0.041102942 0.017433831 -0.19573446 -0.0045379656 0.058167234 4.4178676e-05
0.02900963 0.14189474 -0.012049672 0.09705701 0.044871114 0.062002413 0.0014222156 0.00024282096
-0.000695933 -0.07368203 0.19846813 0.17432153 0.07924426 0.00046973018 0.017257715 -0.00045879904
-0.028723737 -0.08471018 -0.047850657 0.3313368 -0.10293888 -0.04927702 -0.14204744 0.03508712
0.028132267 0.00095400395 0.15216865 -0.07071288 0.04639791 0.016512202 0.011067764 0.05763559
-0.0351001 0.00019860888 -0.035240732 0.028053474 -0.007341295 0.08290019 -0.07705911 0.041230157
0.1856369 -0.004520901 -0.020980269 0.1759552 -0.030661575 -0.21746172 -0.10769259 0.019959806
0.0037267162 0.102952875 -0.05653602 -0.0022244994 0.019599054 -0.071278736 0.05091631 -0.06357359
00000000: 52a8 5bbe f9bf 14be cc1d bf3c 02b5 b03d
00000010: 82ca e2bd 5cdc d9be 20a6 35be 9002 d638
00000020: 4e42 223e f846 e2bd 30fa b33d a0fa 263d
00000030: f96a dbbb aca9 1f3d 63cc fb3d aadf 4b39
00000040: c9f9 cc39 67bf a3bd 35fd fd3b 0e8f bb3c
00000050: 6649 a5bd 6ed9 efb8 b8f6 093e c908 44ba
00000060: b712 4b3d 4ab8 eabe 57b6 7cbd 94d3 9e3d
00000070: 4420 a6bd c92f de3d 0eec 133e 9cf2 6c3d
00000080: b111 b13a b93a 1539 7004 dbbd e0c2 babe
00000090: b138 dd3c d2fa 78bd d542 72be 95d7 6e3e
000000a0: 5419 dabd b3f8 7839 5092 0a3e 6d41 dbbd
000000b0: db2d b8bd 3d28 69be 6d7b 19be acf5 c3be
000000c0: 7b17 34be c4ed 2cbb 84c3 64bd fcae b73e
000000d0: e364 af3d fa99 303e 1129 a13d 3fb4 903c
000000e0: bab7 2cbe cea7 85be 9920 74bd 9c79 d3bd
000000f0: 2163 9fb7 0fec edbe 7f87 0f3e 168f 45be
00000100: a6dc 323d dde9 0abd 7d42 a3b9 7999 ffbc
00000110: cb8c 8c3b 4003 4d3b a82c 823c 9ed3 2bba
00000120: 5f50 96bd 5036 263c 5186 523c 6920 0f3c
00000130: 191e 4b3d 8aea 253c 64e1 c03c b912 0cba
00000140: 9153 5239 d6b7 45bd b1e5 bab9 5190 6dbc
00000150: 4965 513c ce21 2838 55c5 983c 3d79 723a
00000160: c12e e03c 29d4 c3ba 3f27 b4bc 224d b23c
00000170: 6435 86bc 1053 80bc 2b3d 1c3c e4ab 17bd
00000180: 81ff b53b 74e2 92ba e953 d43c ff47 103a
00000190: 283f 1fba 6847 a7ba d5fa a7bc 005e 79bd
000001a0: fbdd afbc 0067 4bba 550a 823b 55c3 adbc
000001b0: dc8c 38bd 1404 cdbc fb9a 813c 280a 5d3d
000001c0: ec24 c53c 6c27 34bb 53f0 8fbc e907 dbbc
000001d0: d38f 6cbd 89a9 96bd 0e5f 5b3c cd55 bd3b
000001e0: 4bf7 22bc 2254 ba3c 5fd5 a0bd 7e18 a93b
000001f0: 6b28 7c3b b1a0 2cbc 4157 c5bb fa2c cbbc
00000200: 817a 263d 06ff c9bc 272e df3d 0c1a 363d
00000210: c496 f73c ac02 37be 03bb f73c e25d 9339
00000220: 2c9d 813d 3bf7 fb3d c5ea c43d 9163 d63d
00000230: 00c4 9dbd 4319 0c3d 8e9c bc3d c641 8339
00000240: 098d 2dba f4c2 c5bb a215 d6bd 7c32 b1bc
00000250: f9fd 303c d1cd 94ba 6036 173d 0a5e 96ba
00000260: 7af9 1dbe 28ed 94bd bf68 353d ed1f 8b3e
00000270: ea39 71bb bf89 16bd b5a5 693c fa1e 35be
00000280: d13b 073c d139 b339 d5f6 be3d 9aae c3bd
00000290: a0c7 7dbb 5383 043e c785 9cbd 8d9a 893d
000002a0: 80ed e9bd 6fb6 3d3a 45da 043d 88e6 f63d
000002b0: 622d e8bd 1f2e 973b 8db7 f3bd b81d e9bc
000002c0: 5c4f 95bd b54a a0bd 2dbc ed3c ee34 b23d
000002d0: 99b6 50bd 26c1 65bd da14 5a3d e5fb 62bc
000002e0: d495 4b3e 0fd1 073d e7fd c63d c234 603d
000002f0: bcb3 183d 8164 5bbd 76ef ff3d 84cb 4bbd
00000300: 229a 1b3e 30e6 8c3d 8f5b 283d 65d1 8e3c
00000310: 9d6e 48be 37b3 94bb c440 6e3d 7e4c 3938
00000320: 9ba5 ed3c db4c 113e fd6b 45bc d3c5 c63d
00000330: c6ca 373d 3ef6 7d3d a369 ba3a c19d 7e39
00000340: 466f 36ba 9be6 96bd 3b3b 4b3e 5881 323e
00000350: d14a a23d 1e46 f639 0d60 8d3c f78a f0b9
00000360: 0b4e ebbc 887c adbd 0dff 43bd faa4 a93e
00000370: 9fd1 d2bd b3d6 49bd e274 11be 83b7 0f3d
00000380: a475 e63c 1f16 7a3a 19d2 1b3e ead1 90bd
00000390: bc0b 3e3d 9944 873c 9155 353c 4c13 6c3d
000003a0: 1fc5 0fbd aa41 5039 9658 10bd 66d0 e53c
000003b0: 3f8f f0bb 93c7 a93d 2bd1 9dbd f4e0 283d
000003c0: 9917 3e3e 1124 94bb d0de abbc 9a2d 343e
000003d0: fc2d fbbc 49ae 5ebe ef8d dcbd bf82 a33c
000003e0: ec3b 743b f5d8 d23d 5092 67bd e8c8 11bb
000003f0: 328e a03c 96fa 91bd 9f8d 503d df32 82bd

weight f4 [64, 128]
0.061389957 0.089928985 0.06515423 0.026311606 0.013792219 0.072911024 0.029873585 -0.055670362
0.006928078 -0.0005519027 0.0004927736 0.0023655482 0.00031500577 0.023462946 8.397657e-06 0.14328666
-0.00045359763 7.2414245e-05 0.048844513 -0.011074434 -0.12054285 0.022125227 0.03934229 -0.030861009
0.07578681 0.12550889 -3.0735813e-05 0.12351278 0.000103599275 -0.04801265 0.1292915 0.00016313574
0.00015145105 -0.04231965 0.026212042 0.08137849 0.055181224 0.00016265958 -0.044418145 0.0001192752
0.09574193 2.3755229e-07 0.081921555 5.0576695e-05 0.04818147 -2.7585484e-06 0.09394856 0.0759684
-0.05680766 0.11442165 -0.00018342675 -0.06651231 0.025081947 -1.1784754e-05 0.10924128 0.000108147986
0.102636896 0.014172818 0.016142368 8.07052e-05 0.042294055 -0.004914187 0.0005095068 0.062716514
-0.075685255 -0.05154022 -0.072290115 7.717743e-06 -0.02809641 -0.03367053 0.12253931 -0.11057503
6.254893e-05 6.9706526e-05 -0.00011239161 0.00015043706 1.551074e-05 0.13392751 0.0004946206 -0.00036726217
-1.0144027e-05 -1.463959e-07 -0.061741047 0.04714005 0.028615272 -0.067939095 7.674639e-05 0.015115569
0.09259549 0.00019153077 0.031028185 4.3465025e-05 -0.00035807586 0.000109226385 7.953643e-05 0.00010911572
-0.0006808371 -0.10924287 0.12604111 -2.9423409e-05 0.00022838754 0.0664435 -0.054360613 -8.237352e-06
0.056885548 0.016865496 0.03625287 0.020398773 0.031487733 0.0066295546 0.09882524 6.7133515e-05
0.03128019 0.000153073 0.0048988983 0.06637092 0.00020962948 -0.00019522266 -0.0023222947 0.1342361
-0.072599195 -0.1142339 7.968943e-05 0.017973805 -0.017903779 4.757925e-05 0.14906207 0.00042628273
0.064636596 0.10077098 0.072032 0.03245465 -0.017431924 0.06896179 0.013803853 -0.051994737
0.01580605 0.00087149255 -0.00046276476 0.013553407 -0.0002834962 0.0042142207 8.231573e-05 0.10826226
0.00045580932 -0.0005138838 0.051119555 -0.08905732 -0.05555717 -0.031262055 0.051975854 -0.02869698
0.11628111 0.10862546 -0.00014295118 0.09278323 3.128033e-05 -0.064415626 0.111452036 0.0007416136
-0.00012666802 -0.028522665 0.020282527 0.1617845 0.112205334 7.4338794e-05 -0.042371638 -0.000754079
0.074480325 -0.0002497123 0.15037741 -0.00035645644 0.029178422 0.00053966284 0.12399999 0.064259775
-0.033117663 0.08813585 0.00053746905 -0.057380382 0.013759126 -0.00027313703 0.12558438 0.00037387654
0.114479415 -0.0010415483 0.011582479 -5.3932563e-06 0.040852103 0.044995256 -0.0007452364 0.13009876
-0.06884144 -0.06924244 -0.08528889 0.00044152664 0.018383987 -0.05657032 0.084920235 -0.023334863
-0.00011431167 0.00035604663 0.00018464502 -0.00024239148 -0.00019397508 0.11133104 -0.0006909785 0.0006533469
-0.00017881932 0.00030648443 -0.07222922 0.080867834 0.077134214 -0.055264022 0.0004431333 0.022223642
0.089627095 0.00026532006 0.024321387 0.00056184677 0.00041939123 0.0003200641 -0.000662146 0.00029234937
0.0051624305 -0.08679894 0.11844519 4.6973473e-05 -0.00028901364 0.12317321 -0.03977162 3.8778307e-05
0.058266 0.014811243 -0.027860658 0.08065632 0.036825757 -0.00022567058 0.08890176 0.00032895998
0.097439356 0.00022079555 0.05231084 0.05402556 0.00023830924 -0.00062395737 0.004324735 0.16752912
-0.081634685 -0.018388487 -0.00047554902 0.02657792 -0.023369981 0.00032918333 0.1178656 -0.00061517936
00000000: 0974 7b3d b02c b83d 956f 853d 708b d73c
00000010: c2f8 613c 6052 953d 73b9 f43c 9b06 64bd
00000020: ee04 e33b 90ad 10ba 7a2d 013a 5007 1b3b
00000030: 5c27 a539 5d35 c03c aae3 0c37 bdb9 123e
00000040: d8d0 edb9 1add 9738 2f11 483d 8b71 35bc
00000050: 2bdf f6bd f73f b53c 6225 213d 3ad0 fcbc
00000060: 1d36 9b3d 6785 003e 54ea 00b8 45f4 fc3d
00000070: 7043 d938 eaa8 44bd fe64 043e 6b0f 2b39
00000080: d5ce 1e39 5f57 2dbd a3ba d63c c4a9 a63d
00000090: b505 623d 998f 2a39 cdef 35bd 6323 fa38
000000a0: 5814 c43d e011 7f34 7dc6 a73d 5022 5438
000000b0: ef59 453d 801f 39b6 1a68 c03d 5295 9b3d
000000c0: 26af 68bd e655 ea3d 3e56 40b9 9b37 88bd
000000d0: a878 cd3c 22b7 45b7 e4b9 df3d 82cd e238
000000e0: 4b33 d23d 1b35 683c 003d 843c 4640 a938
000000f0: 883c 2d3d 3007 a1bb 6c90 053a 8471 803d
00000100: df00 9bbd d61b 53bd d70c 94bd 747b 0137
00000110: 712a e6bc 1cea 09bd e4f5 fa3d 2975 e2bd
00000120: b32c 8338 682f 9238 c9b3 ebb8 a4be 1d39
00000130: 0f1d 8237 4b24 093e 6da9 013a 188d c0b9
00000140: 4430 2ab7 0031 1db4 2ee4 7cbd ed15 413d
00000150: 936a ea3c a723 8bbd e8f2 a038 4ba7 773c
00000160: b4a2 bd3d a6d5 4839 d22e fe3c 374e 3638
00000170: 21bc bbb9 7810 e538 cccc a638 0ed5 e438
00000180: 347a 32ba baba dfbd ec10 013e 4ad2 f6b7
00000190: 507b 6f39 8813 883d 3ca9 5ebd 2833 0ab7
000001a0: d200 693d 8229 8a3c e47d 143d 541b a73c
000001b0: 48f9 003d bc3c d93b e364 ca3d 08ca 8c38
000001c0: a81f 003d 3882 2039 f086 a03b 7aed 873d
000001d0: fccf 5b39 afb4 4cb9 a431 18bb 3075 093e
000001e0: e3ae 94bd 77f3 e9bd f01e a738 cd3d 933c
000001f0: f2aa 92bc d58f 4738 baa3 183e b37e df39
00000200: 3160 843d 0461 ce3d 8385 933d 2bef 043d
00000210: 65cd 8ebc d73b 8d3d 8e29 623c 6ff8 54bd
00000220: b07b 813c e074 643a 3c9f f2b9 1c0f 5e3c
00000230: 37a2 94b9 7217 8a3b eca0 ac38 9bb8 dd3d
00000240: b1f9 ee39 28b6 06ba bd62 513d af63 b6bd
00000250: ea8f 63bd a40c 00bd a2e4 543d ee15 ebbc
00000260: ca24 ee3d 0677 de3d 2ae5 15b9 2205 be3d
00000270: 0033 0338 57ec 83bd f740 e43d d968 423a
00000280: 30d2 04b9 5da8 e9bc 8b27 a63c d6aa 253e
00000290: e9cb e53d 56e6 9b38 e28d 2dbd 63ad 45ba
000002a0: 2489 983d d1eb 82b9 89fc 193e c6e2 bab9
000002b0: 9607 ef3c 2978 0d3a b5f3 fd3d a19a 833d
000002c0: 63a6 07bd 9280 b43d f0e4 0c3a b107 6bbd
000002d0: f56d 613c d533 8fb9 3199 003e dc04 c439
000002e0: 2f74 ea3d 9084 88ba 70c4 3d3c b8f7 b4b6
000002f0: 8954 273d f24c 383d f85b 43ba 9c38 053e
00000300: befc 8cbd fbce 8dbd f1ab aebd b47c e739
00000310: 049a 963c 48b6 67bd a9ea ad3d c128 bfbc
00000320: 9cba efb8 c5ab ba39 459d 4139 782a 7eb9
00000330: ca65 4bb9 8701 e43d c822 35ba 5e45 2b3a
00000340: 7281 3bb9 a5af a039 eaec 93bd 099e a53d
00000350: 8bf8 9d3d 875c 62bd 5854 e839 5b0e b63c
00000360: 698e b73d a81a 8b39 a53d c73c e648 133a
00000370: bde1 db39 47ce a739 de93 2dba 7846 9939
00000380: 9b29 a93b a5c3 b1bd 6493 f23d 6205 4538
00000390: c186 97b9 3c42 fc3d 91e7 22bd e4a5 2238
000003a0: 54a8 6e3d dbaa 723c 093c e4bc 242f a53d
000003b0: 9bd6 163d fca1 6cb9 2012 b63d 4378 ac39
000003c0: 498e c73d 5b85 6739 e443 563d e849 5d3d
000003d0: a6e2 7939 1291 23ba 82b6 8d3b c18c 2b3e
000003e0: 1630 a7bd 74a3 96bc 1c53 f9b9 f0b9 d93c
000003f0: 6772 bfbc 3d96 ac39 8563 f13d fd43 21ba
