GNN/apr18.pt (torch, 89671 bytes, 14 tensors)

weight f4 [16, 3]
0	0xbf29cb1c	-0.66325545
1	0xbecc36d5	-0.39885584
2	0xbec77c03	-0.389618
3	0x3f2e536c	0.6809604
4	0x3eec89ac	0.46198785
5	0x3f0ca082	0.54932415
6	0xbd1820fc	-0.03714083
7	0x3e120b70	0.14262176
8	0x3f647930	0.8924742
9	0xbf010a7a	-0.5040661
10	0xbe89bd0f	-0.26902053
11	0x3f08e1e2	0.5346967
12	0x3f1679b2	0.5877944
13	0xbdf15d6b	-0.11785396
14	0x3e101166	0.14069137
15	0xbec14c50	-0.37753534
16	0x3e82475b	0.25445065
17	0x3c7b66fc	0.015344378
18	0x3f1cb6cd	0.6121643
19	0xbd6cc4a1	-0.057804707
20	0x3ca6da93	0.020367896
21	0x3f148e2b	0.5802943
22	0xbe084bf0	-0.13310218
23	0xbe6bb6ff	-0.23019026
24	0xbea676e3	-0.32512578
25	0x3ef1e84f	0.4724755
26	0xbf0d2686	-0.5513691
27	0x3d7b3cd2	0.0613373
28	0x3edb8230	0.42872763
29	0xbf19a699	-0.6001983
30	0xbee486a8	-0.44633985
31	0x3e82a7be	0.25518602
32	0xbf64c602	-0.89364636
33	0xbd869b23	-0.06572559
34	0x3e68cf62	0.2273536
35	0x3f3543d5	0.7080663
36	0x3f59dc8f	0.8510217
37	0xbd6c0c4a	-0.057628907
38	0xbd25647a	-0.040379025
39	0xbd607580	-0.054799557
40	0x3b02f363	0.0019981496
41	0x3f29a961	0.66274077
42	0xbe99c4b5	-0.30032888
43	0x3e51b5c8	0.204795
44	0x3f09db7f	0.5385055
45	0x3e1de96f	0.15421079
46	0x3c99b038	0.018760785
47	0x3f888f2c	1.0668693

bias f4 [16]
0	0x3ec334c8	0.38126206
1	0xbed981cd	-0.42481843
2	0xbe588bf0	-0.21147132
3	0xbe4b04b4	-0.19826013
4	0xbf05128c	-0.51981425
5	0xbea9f668	-0.33195806
6	0x3eaeb2c9	0.34120777
7	0x3e3e936f	0.18610929
8	0x3e642b2c	0.22282094
9	0xbda68eb7	-0.081326894
10	0xbe102a6b	-0.14078681
11	0xbe3c051b	-0.18361323
12	0xbe5d71c5	-0.21625431
13	0x3d700c9b	0.05860577
14	0x3eda7032	0.42663723
15	0x3de6d6ea	0.1127146

bias f4 [32]
0	0xbe1bdee4	-0.15221745
1	0xbd1d7eb3	-0.038450908
2	0x3d697498	0.056995958
3	0x3e850fda	0.25988656
4	0x3d57d211	0.05269057
5	0xbda456c9	-0.080243655
6	0x3d0e2bfd	0.03470992
7	0xbe2aa0d9	-0.16662921
8	0xbdf3febd	-0.11913822
9	0xbe2c1a39	-0.16806878
10	0xbe9b9d60	-0.30393505
11	0xbdf225bb	-0.11823603
12	0xbccf78c2	-0.025326136
13	0x3ed0999f	0.40742204
14	0xbe609966	-0.21933517
15	0xbd9ce1bf	-0.07660245
16	0x3ecf91e1	0.40540984
17	0xbdcfffba	-0.10156198
18	0x3d7c45b1	0.0615899
19	0xbc9e9926	-0.019360136
20	0xbdbe6ddf	-0.092983
21	0x3e2eba46	0.17063245
22	0x3e13c121	0.14429142
23	0xbdb24edd	-0.08706448
24	0x3f06b7ab	0.52624005
25	0xbe01cc79	-0.12675656
26	0xbe0bf873	-0.13668995
27	0xbe3d1b7a	-0.18467513
28	0xbde5b681	-0.112164505
29	0xbd92c743	-0.071669124
30	0x3bd51bad	0.0065035434
31	0xbd1ce161	-0.038300876

weight f4 [32, 16]
0	0xbc82a0e6	-0.015945863
1	0x3df26345	0.118353404
2	0x3e68738a	0.22700325
3	0xbd3af43a	-0.04564307
4	0x3e230003	0.15917973
5	0x3e4b2bd7	0.19840942
6	0xbc31c339	-0.010849767
7	0x3d92c027	0.071655564
8	0xbe5106e1	-0.2041278
9	0x3ba3511b	0.0049840338
10	0xbcabbe69	-0.020964818
11	0x3e29a513	0.16566877
12	0x3e87f551	0.2655435
13	0xbd6db66e	-0.058035307
14	0xbe01cd6a	-0.12676015
15	0x3e98e259	0.2986019
16	0xbe84543e	-0.25845522
17	0x3e420f1a	0.18951073
18	0xbe3adcea	-0.18248335
19	0xbe260bc3	-0.16215424
20	0x3e27231e	0.1632199
21	0x3b93b2ed	0.0045074136
22	0x3f02d47a	0.51105464
23	0x3ea394a2	0.31949335
24	0xbd975562	-0.07389332
25	0x3b59db3f	0.0033242253
26	0xbcdfbd75	-0.02731202
27	0x3e260dcc	0.162162
28	0x3f17087d	0.5899733
29	0x3dc60bec	0.09670243
30	0x3d56098e	0.052255206
31	0xbe11abdc	-0.14225715
32	0x3d1ee36a	0.038791098
33	0xbe07fdbc	-0.13280386
34	0x3e94f5b3	0.29093704
35	0xbd285d2a	-0.041104473
36	0xbe0d6179	-0.13806714
37	0xbe296d8b	-0.16545694
38	0xbe08bce6	-0.13353309
39	0x3c19dadd	0.00939056
40	0xbe55fc01	-0.20896913
41	0x3e18c16c	0.14917535
42	0x3e35fbc4	0.17771822
43	0x3e8281e2	0.25489718
44	0xbd7ede63	-0.062223803
45	0xbdf66579	-0.12031073
46	0x3e8cf773	0.2753254
47	0x3f2efbdf	0.68353075
48	0xbe2f9ade	-0.17148921
49	0x3e028d9d	0.12749334
50	0xbe603491	-0.21895052
51	0xbeafb99d	-0.343213
52	0xbe925383	-0.2857934
53	0xbe355775	-0.17709143
54	0x3e66b165	0.22528608
55	0xbcdd0e36	-0.026984315
56	0x3c01fb20	0.007933408
57	0xbe4d3983	-0.2004147
58	0xbe2fbc41	-0.17161657
59	0x3d494daa	0.04914633
60	0x3ece17ab	0.40252432
61	0x3e282372	0.16419771
62	0xbda7f408	-0.08200842
63	0xbc221444	-0.009892527
64	0xbea55739	-0.32293108
65	0xbdac2fe1	-0.0840757
66	0x3b43ca76	0.0029875315
67	0xbe8c80db	-0.2744206
68	0xbe0ba74a	-0.13638034
69	0xbdf44641	-0.11927462
70	0x3eda9440	0.4269123
71	0x3da77366	0.081763074
72	0x3df00813	0.1172029
73	0xbda18db3	-0.07888355
74	0x3e08d208	0.1336137
75	0xbe762fd5	-0.24041684
76	0x3ea2b704	0.31780255
77	0xbe69880f	-0.22805808
78	0xbe8b19ae	-0.2716803
79	0x3d136e3c	0.0359938
80	0x3c81b7f4	0.015834786
81	0xbf19feaa	-0.6015421
82	0xbdb9c4ec	-0.09070763
83	0x3ddd796a	0.108141735
84	0x3db55dda	0.088557914
85	0xbdaf1f08	-0.085508406
86	0xbd83cc8c	-0.064354986
87	0x3db4fb77	0.088370256
88	0xbdf41e1c	-0.119198054
89	0xbd8ed59d	-0.06974337
90	0x3e2c11ff	0.1680374
91	0xbdc1de10	-0.09466183
92	0x3e18dbd6	0.14927611
93	0x3d36d1f3	0.044633817
94	0xbe5a8916	-0.21341357
95	0xbe1440b1	-0.14477803
96	0xbe42ff61	-0.19042732
97	0xbe0690ae	-0.13141128
98	0x3d0c5572	0.034261174
99	0x3e5bf7c1	0.2148123
100	0x3e67d41d	0.22639509
101	0xbeb1bf0f	-0.3471608
102	0x3d3b7759	0.045768116
103	0xbe648a52	-0.2231839
104	0xbeacdee9	-0.33763817
105	0xbcd6d126	-0.026222777
106	0xbe61de70	-0.2205751
107	0x3e200096	0.15625224
108	0x3e57c38c	0.21070689
109	0x3d668947	0.05628326
110	0x3e19d921	0.15024234
111	0xbe0587a0	-0.13040018
112	0x3a7f382b	0.00097358477
113	0x3e324419	0.1740879
114	0xbe23abc2	-0.15983489
115	0xbe7c7d4c	-0.24657172
116	0x3eaefae3	0.34175786
117	0x3e4341eb	0.19068114
118	0x39049987	0.00012645694
119	0x3d902447	0.07038169
120	0xbe06a1b1	-0.13147618
121	0x3e3fbc2a	0.18724123
122	0x3e2e68f2	0.17032221
123	0xbe558478	-0.20851314
124	0x3e6047ca	0.21902385
125	0x3e23537a	0.15949813
126	0x3e03be42	0.12865546
127	0x3e169e7b	0.14708893
128	0xbe871398	-0.26382136
129	0xbe8a27e1	-0.2698355
130	0xbd829773	-0.06376543
131	0xbbd772ba	-0.006574956
132	0x3d128c98	0.035778612
133	0x3cbb343c	0.022852056
134	0x3e73ab38	0.23795784
135	0xbc6ebd90	-0.014571562
136	0xbdccebf8	-0.10005945
137	0x3e0d2497	0.13783489
138	0x3cee3e46	0.029082429
139	0xbe8eb38e	-0.27871364
140	0x3e2cfa71	0.16892411
141	0xbd5c7e2d	-0.053831268
142	0xbe504420	-0.20338488
143	0x3c5191d3	0.012791115
144	0xbe69b80a	-0.22824112
145	0x3e1b3974	0.15158635
146	0x3e86616a	0.26246196
147	0x3d57c91b	0.052682023
148	0xbd4500bd	-0.048096407
149	0xbe006860	-0.12539816
150	0x3c6befb7	0.014400414
151	0x3da4ae52	0.080410615
152	0xbe3d17c0	-0.18466091
153	0x3e15e816	0.14639315
154	0x3d1b3e5b	0.037901264
155	0x3df27b7b	0.11839958
156	0xbdda3243	-0.10654118
157	0x3daa10b6	0.083039686
158	0x3af958b0	0.0019023623
159	0x3edb0b62	0.42782122
160	0xbcb45777	-0.022014363
161	0x3e55ba1a	0.20871773
162	0x3d6a6133	0.057221603
163	0x3d689be6	0.0567893
164	0x3ec07b2d	0.37593976
165	0xbe710fbb	-0.23541157
166	0x3ebe01f2	0.3711086
167	0xbe1b4982	-0.1516476
168	0xbd8479c6	-0.06468539
169	0x3dc84e55	0.09780566
170	0x3d1ba82c	0.038002178
171	0xbe37b744	-0.17941004
172	0x3d82c806	0.06385808
173	0xbe6b467c	-0.22976106
174	0x3e71eb8f	0.23625015
175	0xbdfa6770	-0.122267604
176	0x3dccb4a0	0.09995389
177	0x3db33984	0.087512046
178	0x3d1cadb3	0.03825159
179	0x3ddab380	0.10678768
180	0x3dad9a2b	0.08476671
181	0xbd24922e	-0.04017847
182	0x3d9b08da	0.07570048
183	0xbe0af36d	-0.13569422
184	0x3c94ae43	0.0181495
185	0xbe96d600	-0.29460144
186	0xbe6db597	-0.23213802
187	0xbe4a5177	-0.19757639
188	0x3d5b1de8	0.053495318
189	0x3c727ee8	0.014800765
190	0xbe6f7fd2	-0.23388603
191	0xbdf7390c	-0.12071428
192	0xbe14815e	-0.14502475
193	0xbd89911a	-0.06717129
194	0x3d2418e8	0.040062815
195	0xbdaaeb56	-0.08345668
196	0x3d518045	0.051147718
197	0x3bef157b	0.007296262
198	0xbe56d576	-0.20979866
199	0xbe3a3109	-0.18182768
200	0x3e2792d5	0.16364606
201	0x3cfe400a	0.031036396
202	0xbdcf79d6	-0.1013066
203	0x3e202b21	0.15641452
204	0xbc79021a	-0.015198255
205	0x3e506c1e	0.20353743
206	0x3da58e89	0.08083827
207	0xbd6d18c4	-0.057884946
208	0xbd2e2b86	-0.042521976
209	0xbd7ad400	-0.061237335
210	0xbcc48736	-0.023990255
211	0xbe857360	-0.26064587
212	0xbe37521b	-0.17902415
213	0x3d308f8d	0.04310565
214	0x3ed9de6d	0.4255251
215	0xbe27a2d6	-0.1637071
216	0xbda18255	-0.07886187
217	0xbd9b2dee	-0.0757712
218	0xbe0b65ce	-0.13613054
219	0xbdc75179	-0.097323366
220	0x3ed24a80	0.41072464
221	0xbc39128e	-0.011295928
222	0x3e1902c9	0.14942469
223	0xbcb10405	-0.021608362
224	0x3d042825	0.032264847
225	0x3d95276d	0.072829105
226	0xbe48acc8	-0.19597161
227	0xbd87e984	-0.066363364
228	0x3b09bd7c	0.0021017483
229	0xbd0511b0	-0.03248757
230	0x3db4e92f	0.08833539
231	0x3e897c07	0.26852438
232	0x3da6a20d	0.081363775
233	0x3e3424f5	0.17592223
234	0x3e8ba8c9	0.2727721
235	0xbe981272	-0.29701573
236	0x3eebab6d	0.46029225
237	0x3dd043cb	0.101691805
238	0xbe270c9a	-0.16313401
239	0xbdd78454	-0.105232865
240	0xbb1882e7	-0.0023271383
241	0xbe3e506d	-0.18585368
242	0xbdddfd78	-0.10839361
243	0x3ce825b9	0.0283383
244	0x3b65abc0	0.0035044998
245	0x3bbea4e3	0.005817996
246	0xbda40878	-0.08009428
247	0xbd0792a1	-0.03309882
248	0xbe856a0d	-0.26057473
249	0xbe72ecd8	-0.23723161
250	0xbae9f9d4	-0.0017850944
251	0xbe06862c	-0.1313712
252	0xbc1a61c6	-0.009422725
253	0xbc13f835	-0.009031345
254	0xbab28dc0	-0.0013622567
255	0xbcbbff6e	-0.022948947

weight f4 [1, 16]
0	0x800e06c6	-1.288127e-39
1	0x80093c08	-8.48055e-40
2	0x0010fb41	1.559501e-39
3	0x80156c53	-1.967405e-39
4	0x80108326	-1.516415e-39
5	0x00051713	4.67455e-40
6	0x0044bb8c	6.312093e-39
7	0x00169ed9	2.077365e-39
8	0x80142af6	-1.852121e-39
9	0x80148016	-1.882658e-39
10	0x00077c52	6.87446e-40
11	0x8010b048	-1.532606e-39
12	0x0034c3ca	4.845682e-39
13	0x8008bc89	-8.02318e-40
14	0x8006b07a	-6.14321e-40
15	0x0011e908	1.644799e-39

bias f4 [64]
0	0x3db605a1	0.088877924
1	0x3c6f03a7	0.014588273
2	0x3d9d027a	0.07666488
3	0xbe29f560	-0.1659751
4	0x3ce304af	0.027712194
5	0xbcd5290a	-0.026020546
6	0x3dab3f06	0.0836163
7	0x3dc74997	0.09730833
8	0x3e94dbea	0.2907403
9	0x3e08e602	0.13368991
10	0xbdeb8aaf	-0.11501061
11	0x3e28b448	0.16475022
12	0x3e1ba90b	0.15201204
13	0x3d48924e	0.048967652
14	0x3c540361	0.012940259
15	0xbce70a7b	-0.02820324
16	0x3e4ba8e2	0.19888642
17	0xbdd14bc8	-0.10219532
18	0xbe281308	-0.1641351
19	0xbdee68ff	-0.1164112
20	0xbdd0df0a	-0.10198791
21	0x3c170283	0.009216907
22	0x3e8d3ba3	0.27584562
23	0x3e125ad0	0.14292455
24	0xbd5c6316	-0.053805433
25	0x3d1d8203	0.038454067
26	0x3e3b7000	0.18304443
27	0x3d776472	0.060398526
28	0x3d1ac070	0.03778118
29	0x3d2b73b5	0.041858394
30	0x3e33b55a	0.17549649
31	0x3e8b61e2	0.27223116
32	0xbdfccc9a	-0.12343712
33	0xbd182d80	-0.037152767
34	0x3e051c38	0.12999046
35	0xbe091c55	-0.13389714
36	0x3e4c83b2	0.19972113
37	0xbdd44950	-0.10365546
38	0x3e5067cb	0.20352094
39	0x3d330b26	0.043711804
40	0xbdee77df	-0.11643957
41	0x3dc45cb2	0.09587993
42	0xbdd77ef7	-0.105222635
43	0xbe676c3d	-0.22599883
44	0xbecdd2dd	-0.40199938
45	0xbe72a3b8	-0.23695266
46	0x3db1c2a1	0.08679701
47	0x3d5b921d	0.05360614
48	0xbe526a49	-0.20548357
49	0x3c28b020	0.010295898
50	0xbd3613d1	-0.044452492
51	0x3e84af10	0.25914812
52	0x3d056aa7	0.032572415
53	0x3e9514c1	0.29117396
54	0xbe2312b6	-0.15925106
55	0x3cc99a60	0.024609745
56	0x3e0531ba	0.1300725
57	0x3b93a68b	0.0045059375
58	0x3e293e95	0.1652778
59	0xbd96bc80	-0.07360172
60	0x3e079049	0.13238634
61	0xbe11ce50	-0.14238858
62	0x3e97541e	0.29556364
63	0xbcb1bcfd	-0.021696562

weight f4 [64, 32]
0	0xbde17905	-0.11009411
1	0x3be77fef	0.0070648114
2	0xbf163852	-0.5867969
3	0x3cf910aa	0.030403454
4	0xbe1c17b3	-0.15243416
5	0xbcf20c16	-0.029546779
6	0x3d834187	0.06408983
7	0xbda825f7	-0.08210366
8	0xbe534ce2	-0.20634797
9	0xbe56f565	-0.20992048
10	0x3cf5a641	0.029986503
11	0x3d3bded0	0.045866787
12	0xbddf3d2a	-0.10900338
13	0x3d258cb2	0.04041738
14	0x3d84f458	0.06491917
15	0xbd4d7c6a	-0.05016748
16	0x3e6a8cc4	0.2290526
17	0xbd81a807	-0.06330877
18	0x3d9c7497	0.07639425
19	0x3d437efd	0.047728527
20	0x3db3c5bb	0.087779485
21	0x3d7ea9f9	0.062173817
22	0x3d5f7fb8	0.05456516
23	0xbca43b88	-0.020047918
24	0x3d8e71f6	0.0695533
25	0xbcd872ef	-0.026421992
26	0x3e375f48	0.1790744
27	0xbd1278b3	-0.03575964
28	0x3aef7cea	0.001827148
29	0xbe971573	-0.29508552
30	0x3cd1eee5	0.02562661
31	0xbc40872d	-0.011750978
32	0x3dad4603	0.08460619
33	0xbdc152d3	-0.094396256
34	0x3e392456	0.18080267
35	0xbde663ff	-0.112495415
36	0x3cc1ebd2	0.023672018
37	0xbe128bb2	-0.14311102
38	0xbe104a5e	-0.14090869
39	0x3d615b33	0.055018615
40	0xbe147a04	-0.1449967
41	0x3cec74bb	0.028864255
42	0x3db51389	0.08841617
43	0xbd9f71e7	-0.07785397
44	0xbcf5db38	-0.030011758
45	0xbe255e08	-0.16149151
46	0xbc88a656	-0.016680878
47	0xbe368894	-0.17825538
48	0x3d65c5e7	0.056096938
49	0xbd5d4743	-0.05402304
50	0xbdf0fe79	-0.11767287
51	0xbb17fc4c	-0.0023191152
52	0xbd27fa8a	-0.041010417
53	0xbe3e8dee	-0.1860883
54	0x3cadd6d9	0.021220611
55	0xbe379e73	-0.17931537
56	0xbe91456a	-0.2837327
57	0xbdd85c5d	-0.10564492
58	0x3d66d9eb	0.056360167
59	0xbe1a861b	-0.1509022
60	0xbd5b2810	-0.053505003
61	0xbd403866	-0.046928786
62	0xbda9afae	-0.08285461
63	0x3d9bd32d	0.07608638
64	0xbc8a7df2	-0.016905759
65	0xbd55b2da	-0.05217252
66	0x3e0b81d4	0.13623744
67	0xbd5e8fd8	-0.0543364
68	0xbde92a25	-0.113849916
69	0xbdc8321d	-0.09775183
70	0x3c8aecd5	0.016958633
71	0xbc342dbe	-0.010997234
72	0xbd685310	-0.05671984
73	0xbd8cc45d	-0.06873391
74	0x3dbfe5d4	0.09370008
75	0x3ce1651b	0.027514031
76	0x3d468287	0.048464324
77	0xbda51475	-0.080605425
78	0xbf177766	-0.5916656
79	0xbe0bea7c	-0.13663667
80	0xbdc705eb	-0.09717926
81	0xbe88232c	-0.26589334
82	0x3d043cab	0.03228442
83	0xbc2128f9	-0.009836429
84	0x3c6309d9	0.013857328
85	0x3b006fcc	0.0019597886
86	0xbe0e19c5	-0.13877018
87	0xbd4ca972	-0.049966283
88	0xbede9658	-0.43474078
89	0xbdf73557	-0.12070721
90	0xbee62806	-0.4495241
91	0xbd315bfb	-0.04330061
92	0xbbeebaa9	-0.007285435
93	0xbe2972a1	-0.16547634
94	0x3d62b1d3	0.055345368
95	0x3e0ee031	0.1395271
96	0xbd3f7fa4	-0.046752587
97	0x3e328830	0.17434764
98	0xbc48bad3	-0.012251574
99	0x3eaa2721	0.33232978
100	0x3e91795b	0.284129
101	0x3e918cb3	0.28427657
102	0x3ec35dba	0.38157445
103	0x3df40136	0.119142935
104	0x3e83defc	0.2575606
105	0x3da0fa80	0.07860279
106	0xbd9c0ad4	-0.07619253
107	0x3ed41cd8	0.41428256
108	0xbdb4b300	-0.08823204
109	0x3e8a7733	0.27044067
110	0xbd13e112	-0.036103316
111	0x3eb16cab	0.3465322
112	0xbe357694	-0.17721015
113	0x3d228dab	0.039685886
114	0x3e4c90ce	0.19977114
115	0xbd929044	-0.07156423
116	0x3d767c00	0.06017685
117	0x3eb73457	0.3578212
118	0xbdc0f062	-0.094208494
119	0x3c95c28b	0.018281242
120	0x3d93bb88	0.07213503
121	0x3e30ff6f	0.1728494
122	0x3de11133	0.109896086
123	0x3dab3245	0.083591975
124	0x3e9826ac	0.29717004
125	0x3e484987	0.19559298
126	0xbe32bc72	-0.17454699
127	0x3de3d0eb	0.11123832
128	0xbe1f2064	-0.155397
129	0x3d87caf0	0.06630504
130	0xbd31b033	-0.043380927
131	0x3e3244da	0.17409077
132	0x3e1b64dc	0.15175194
133	0xbde76977	-0.11299413
134	0xbdc024a6	-0.0938199
135	0xbe1eede5	-0.15520437
136	0x3c9a703c	0.018852346
137	0xbd3c6d26	-0.04600253
138	0xbd898a68	-0.06715852
139	0xbd3d9bf9	-0.046291325
140	0xbe1147b7	-0.14187513
141	0x3e1bb091	0.15204073
142	0x3d391928	0.045190006
143	0xbc71b226	-0.014751947
144	0xbd7021b6	-0.0586259
145	0xbda248ac	-0.07924017
146	0xbdadf1ff	-0.08493423
147	0xbc012fcd	-0.007884932
148	0xbcd141d2	-0.02554408
149	0x3d3341b1	0.04376382
150	0xbdcba8da	-0.09944315
151	0xbc26cbe0	-0.0101804435
152	0xbcd52a6b	-0.026021203
153	0xbd52247f	-0.051304337
154	0xbd905670	-0.07047737
155	0xbc9af155	-0.018913904
156	0x3af954a6	0.001902242
157	0xbb0346f3	-0.0020031303
158	0xbd813afa	-0.06310077
159	0xbc0a9c92	-0.008460181
160	0xbe20feff	-0.15722273
161	0xbd5bef65	-0.0536951
162	0xbe489acd	-0.19590302
163	0x3c2635d8	0.010144673
164	0x3be2d4df	0.006922349
165	0x3ced1853	0.028942263
166	0xbddd554d	-0.108072855
167	0xbc86d3b1	-0.016458364
168	0x3db0e27d	0.08636949
169	0xbd744066	-0.059631728
170	0x3d484015	0.04888924
171	0xbc8a202d	-0.016861046
172	0x3d9d5cb7	0.076836996
173	0xbdbfd7d2	-0.09367336
174	0x3e3c6dc6	0.1840125
175	0xbcad00ea	-0.0211186
176	0x3d008ffb	0.03138731
177	0x3d31f38f	0.043445166
178	0x3e0c7433	0.13716201
179	0x3bc60bdd	0.0060438947
180	0xbbafa6cc	-0.00536046
181	0xbd894a5e	-0.067036375
182	0xbd89c413	-0.06726851
183	0x3e09d73d	0.13461013
184	0xbe411aa3	-0.18857817
185	0xbda47dda	-0.08031817
186	0xbdb92a69	-0.09041292
187	0x3e29bed5	0.16576703
188	0xbc54e338	-0.012993626
189	0xbd1a3efd	-0.037657727
190	0xbe327820	-0.17428637
191	0x3dcd0cef	0.100122325
192	0x3cca9d11	0.024733098
193	0x3e06dfab	0.1317126
194	0xbe6179ae	-0.22019073
195	0x3e28f3fb	0.16499321
196	0x3e4f2c45	0.20231731
197	0xbdfcb983	-0.12340071
198	0xbe133066	-0.14373931
199	0xbe086af8	-0.13322055
200	0x3dcffa06	0.1015511
201	0xbdf2e711	-0.11860479
202	0xbdc73a74	-0.09727946
203	0x3cbef521	0.023310246
204	0xbe42af1f	-0.19012116
205	0x3e216642	0.15761665
206	0x3d9aa24b	0.07550486
207	0xbe2ace7f	-0.16680335
208	0xbd92abaf	-0.07161652
209	0xbda3a4be	-0.079904065
210	0x3cf8c059	0.030365156
211	0xbd24ca8a	-0.04023222
212	0x3b94aae2	0.0045369724
213	0x3cef0951	0.029179247
214	0xbdaabe0b	-0.08337029
215	0xbd899099	-0.06717033
216	0xbdc85870	-0.09782493
217	0xbd30002b	-0.04296891
218	0xbd9fcfc8	-0.07803303
219	0xbd4a249b	-0.049351316
220	0xbd0d78f7	-0.03453919
221	0xbc677ac4	-0.014128391
222	0xbde74e10	-0.11294186
223	0xbbe3c9ec	-0.006951561
224	0x3d37f575	0.04491182
225	0xbe54335c	-0.20722717
226	0xbd65b0d5	-0.056076843
227	0xbdfcbf07	-0.12341123
228	0xbe25d777	-0.16195475
229	0xbdd390d0	-0.10330355
230	0x3d8610e7	0.065461926
231	0xbe41c08e	-0.1892111
232	0xbe43d433	-0.19123916
233	0xbe5051ac	-0.20343655
234	0xbdd506da	-0.104016975
235	0xbdda9ca9	-0.10674412
236	0xbd7a7180	-0.0611434
237	0xbc90e456	-0.017687004
238	0x3dcfdef8	0.1014995
239	0xbe08192e	-0.13290855
240	0x3d88ff92	0.06689371
241	0x3dedf90d	0.11619768
242	0x3dbd7134	0.092501074
243	0xbdc4859e	-0.09595798
244	0xbe777886	-0.2416707
245	0x3da866e6	0.08222751
246	0x3d2cb392	0.04216344
247	0xbe306904	-0.1722756
248	0x3e341fba	0.17590228
249	0xbe46292d	-0.19351645
250	0xbe653a31	-0.2238548
251	0xbcf19a6f	-0.029492585
252	0xbe3f2c39	-0.18669213
253	0xbdcd15d0	-0.10013926
254	0x3cbda8c9	0.023151772
255	0x3cc0f36a	0.023553569

weight f4 [1, 32]
0	0x000a04f1	9.20128e-40
1	0x0008e64b	8.17298e-40
2	0x8008426c	-7.58512e-40
3	0x0003de3f	3.55233e-40
4	0x804955cc	-6.73477e-39
5	0x002a591f	3.889061e-39
6	0x803045c2	-4.433128e-39
7	0x800b3152	-1.027883e-39
8	0x00008002	4.592e-41
9	0x002cdec5	4.120676e-39
10	0x000d9ecc	1.250827e-39
11	0x00393f92	5.257428e-39
12	0x800bd1e9	-1.085492e-39
13	0x8011fcc0	-1.651873e-39
14	0x80246f3f	-3.345985e-39
15	0x000ffb02	1.467577e-39
16	0x0020a7ae	2.998888e-39
17	0x0002aa75	2.4482e-40
18	0x800d6471	-1.229893e-39
19	0x80297680	-3.807765e-39
20	0x0009bb27	8.93657e-40
21	0x802d2ee5	-4.14942e-39
22	0x800851d0	-7.64033e-40
23	0x8017c0e0	-2.181407e-39
24	0x800eea10	-1.369663e-39
25	0x00108f6e	1.520821e-39
26	0x80151a63	-1.938011e-39
27	0x00137a26	1.788693e-39
28	0x801cc4d8	-2.642008e-39
29	0x803e29bf	-5.708776e-39
30	0x00195cbb	2.329153e-39
31	0x002fa117	4.374056e-39

bias f4 [128]
0	0x3d6ac9af	0.057321247
1	0xbc77e93d	-0.015131292
2	0x3994cf9d	0.00028383444
3	0x3d19482b	0.03742234
4	0x3cfb9f57	0.030715628
5	0x3e3c8758	0.18411005
6	0xbd97d481	-0.07413579
7	0x3c66197b	0.014044161
8	0x3d0dcef7	0.034621205
9	0x3c2baca7	0.010478175
10	0x3d7cbc64	0.0617031
11	0xbc038c61	-0.008029074
12	0x3e169dd6	0.14708647
13	0xbc76d4de	-0.0150654
14	0xbdfb6405	-0.122749366
15	0xbb059f82	-0.0020389264
16	0x3cd7a987	0.026325954
17	0xbe26ef2a	-0.16302171
18	0x3dbbdd40	0.091730595
19	0xbc96faff	-0.018430231
20	0x3e130d50	0.14360547
21	0x3dbfee6e	0.09371649
22	0xbc16eb21	-0.009211333
23	0x3e896beb	0.26840147
24	0xbbd957bf	-0.0066327746
25	0xbe203087	-0.15643512
26	0xbd06ff77	-0.032958474
27	0xb94a3d31	-0.00019287017
28	0x3e0b1ed8	0.13585985
29	0xbe2d461a	-0.16921273
30	0x3c15d3dd	0.00914475
31	0x3a862ee0	0.0010237359
32	0x3c3bd8f1	0.011465297
33	0x3d80ec50	0.06295073
34	0x3d92a1b4	0.07159749
35	0xbe4f3b9f	-0.20237587
36	0xbe37fbef	-0.17967199
37	0x3e63c873	0.22244434
38	0xbe58952b	-0.21150653
39	0xbe174604	-0.14772803
40	0xbb99b5ff	-0.004690885
41	0xbc3e41e6	-0.011612391
42	0x3c0ea3d3	0.008706051
43	0xbd0d1738	-0.03444597
44	0xbc5080b1	-0.012725995
45	0x3e3873c4	0.18012911
46	0x3d9f779e	0.07786487
47	0xba322d17	-0.000679688
48	0x3d0d9c16	0.034572683
49	0xbb556ea4	-0.0032567168
50	0x3d88bf1d	0.06677077
51	0x3bd412bc	0.00647196
52	0x3c351da0	0.011054426
53	0xbc0b5a0b	-0.008505355
54	0xbe580374	-0.21095067
55	0xbccaf994	-0.024777211
56	0x3d12e0c6	0.035858892
57	0xbcf23551	-0.029566439
58	0x3d60e756	0.05490812
59	0x3c6391c1	0.013889731
60	0xbd945299	-0.07242317
61	0xbd50d775	-0.050986726
62	0xbd6f23e8	-0.058383852
63	0xbde8a0e3	-0.11358812
64	0x3d978b8f	0.073996656
65	0x3e13b851	0.1442578
66	0x3d012510	0.031529486
67	0x3c38b07e	0.011272548
68	0x3cd33f25	0.025786946
69	0xbd6a55b8	-0.057210654
70	0x3c65afc8	0.01401896
71	0x3c8a1b1a	0.016858626
72	0xbccf82e0	-0.02533096
73	0x3b973e38	0.0046155713
74	0x3cecfbdd	0.028928692
75	0x3d96c84e	0.07362424
76	0xbe02e77e	-0.1278362
77	0xbd9e8761	-0.07740665
78	0x3d9aeb09	0.07564361
79	0xbd0067cc	-0.03134899
80	0x3be0d604	0.00686145
81	0x3d12b006	0.0358124
82	0xbe0f7e44	-0.1401301
83	0xbcdbeb94	-0.02684573
84	0xbe15b3ca	-0.14619365
85	0xbdcbad6d	-0.09945188
86	0x3b2619c9	0.002534496
87	0xbbbe0819	-0.005799305
88	0xbe31f3bf	-0.17378138
89	0xbd90c61d	-0.07069037
90	0xbe27b02c	-0.16375798
91	0xbe07a482	-0.13246349
92	0xbdb159a4	-0.08659676
93	0xbe115509	-0.14192595
94	0x3e1107f2	0.14163187
95	0xbe3c14de	-0.18367335
96	0xbdeca7a3	-0.11555412
97	0x3deaf5a6	0.11472635
98	0x3d1443e8	0.036197573
99	0xbdd91f73	-0.106017016
100	0xbd976500	-0.07392311
101	0x3bf5437e	0.0074848523
102	0x3c1a4154	0.0094149895
103	0x3cc3d859	0.023906874
104	0xbcba75e3	-0.02276129
105	0x3d01fc22	0.031734593
106	0x3e490caf	0.19633745
107	0x3d7d2223	0.061800133
108	0x3e58013b	0.2109422
109	0x3d9cbb75	0.07652942
110	0x3bddafd6	0.006765346
111	0x3e084ba2	0.13310102
112	0x3b30dd75	0.0026987467
113	0xbc96de80	-0.018416643
114	0x3cb1d88a	0.0217097
115	0x3d58949a	0.052876092
116	0x3da39e57	0.07989185
117	0x3c1ea08c	0.009681832
118	0xbb8c5b92	-0.004283377
119	0x3ce8d9cc	0.028424166
120	0xbdb1fea6	-0.086911485
121	0xbca4b328	-0.02010496
122	0xbc58f32d	-0.013241571
123	0x3dee75d1	0.116435654
124	0xbc74910a	-0.014927158
125	0xbdeeb2eb	-0.1165522
126	0xbce2176d	-0.02759906
127	0xbe09c055	-0.13452275

weight f4 [128, 64]
0	0x3d77c500	0.06049061
1	0x3d272230	0.040804088
2	0x3d8dfda6	0.06933145
3	0xbdd531c2	-0.10409881
4	0xbcc097e3	-0.023509925
5	0xbb8c2ddc	-0.004277928
6	0xbd2df6f0	-0.042471826
7	0xbd570603	-0.052495968
8	0xbd290dfa	-0.041273095
9	0x3d747120	0.059678197
10	0xbc8f64c7	-0.01750411
11	0xbcf7c56d	-0.030245507
12	0xbd3492f5	-0.04408546
13	0x3d0fcd0a	0.03510765
14	0xbdac1608	-0.084026396
15	0xbe0bbab2	-0.13645437
16	0x3d1b1ffa	0.037872292
17	0xbd08ab10	-0.033366263
18	0xbdb39cbd	-0.0877013
19	0xbded4426	-0.11585264
20	0xbdd06dc1	-0.10177184
21	0x3d1c96d4	0.03822978
22	0x3c22ad5d	0.009929028
23	0xbd9470f3	-0.07248106
24	0xbc217c64	-0.009856317
25	0x3c463a1d	0.012098816
26	0x3bd11bbd	0.0063814805
27	0xbc903439	-0.017603027
28	0xbdc3038c	-0.09522161
29	0x3c988820	0.018619597
30	0xbcf7585c	-0.0301935
31	0x3d6526bd	0.055945147
32	0x3cddb0a8	0.027061775
33	0xbc199393	-0.009373563
34	0xbd64c340	-0.055850267
35	0xbd6e01e9	-0.05810729
36	0x3e15b161	0.14618446
37	0x3d3c5092	0.045975275
38	0xbd54a0c6	-0.051911138
39	0xbd6a8a6b	-0.057260912
40	0xbd88904d	-0.06668148
41	0xbdac0ca5	-0.08400849
42	0xbd83f954	-0.0644404
43	0xbdcddb99	-0.100516506
44	0xbd95a550	-0.073069215
45	0xbdb9484b	-0.09046992
46	0xbd5d1c6f	-0.053982195
47	0x3d1cac27	0.038250115
48	0xbdb46e5f	-0.08810114
49	0xbd3d8aa3	-0.046274792
50	0x3c044b95	0.008074661
51	0xbc66cc26	-0.014086759
52	0x3d398c5c	0.045299873
53	0xbd97e069	-0.0741585
54	0xbd7dee60	-0.06199491
55	0x3b4d15eb	0.0031293582
56	0xbdb7d4bf	-0.08976125
57	0xbd61266c	-0.054968283
58	0xbc816dc0	-0.015799403
59	0xbd6cb0c1	-0.057785753
60	0xbcfe44b0	-0.031038612
61	0xbd526732	-0.051367946
62	0xbccddd4c	-0.025129937
63	0x3dc236a0	0.09483075
64	0xbda1eb38	-0.079061925
65	0x3d536ea1	0.051619176
66	0xbd2a0d84	-0.041516796
67	0xbddbc56f	-0.10731017
68	0xbccbc9a3	-0.024876421
69	0xbd392402	-0.045200355
70	0xbd8062fb	-0.06268879
71	0x3d9ba407	0.07599645
72	0x3d2ddce2	0.04244698
73	0xbdddd691	-0.10831941
74	0x3d842e17	0.064541034
75	0xbd1b9555	-0.03798421
76	0x3bb4163e	0.0054958155
77	0xbc70f50c	-0.014706861
78	0x3da3356b	0.07969173
79	0x3c937632	0.018000696
80	0x3bbbc32c	0.0057300534
81	0xbddd3f36	-0.10803072
82	0xbe4572c2	-0.19282058
83	0xbe07e5d9	-0.13271274
84	0xbc0560c7	-0.008140749
85	0xbd7d4107	-0.061829593
86	0x3bebbc59	0.0071940836
87	0x3e2ccd30	0.16875148
88	0xbd1611e1	-0.036638144
89	0xbd00bf76	-0.03143259
90	0x3b7d08c3	0.0038609959
91	0xbbb667b0	-0.0055665597
92	0x3e4dd49f	0.2010064
93	0x3d044246	0.032289766
94	0x3bab9e89	0.0052374047
95	0xbd2d933b	-0.042376738
96	0x3bf8fbe4	0.007598387
97	0x3e4ed1f0	0.20197272
98	0x3d674727	0.05646434
99	0x3dee4b80	0.11635494
100	0xbda33ce3	-0.079705976
101	0xbd281704	-0.041037574
102	0x3dd6cc06	0.10488133
103	0xbde8b285	-0.11362175
104	0x3c56cdec	0.013110619
105	0x3d69ddd7	0.05709633
106	0xbe04b99b	-0.12961428
107	0xbc82ea38	-0.015980825
108	0x3ba5f6ec	0.005064836
109	0x3b5f522c	0.0034076078
110	0x3cda518f	0.026650218
111	0xbdd3f11b	-0.103487216
112	0xbbcc86ba	-0.0062416466
113	0xbd28a934	-0.04117699
114	0xbde77c53	-0.1130301
115	0xbb4ed6f6	-0.0031561232
116	0xbcbc26b2	-0.02296767
117	0x3d49e4e5	0.049290556
118	0x3c49fe07	0.012328631
119	0xbd9c2a62	-0.076252714
120	0x3c3905d5	0.011292894
121	0x3d96b2d7	0.0735833
122	0x3d9640ae	0.073365554
123	0xbd950f71	-0.07278336
124	0x3bc5e4a4	0.006039219
125	0xbd2531c5	-0.040330667
126	0x3bd11bda	0.006381494
127	0x3b870bb7	0.0041212696
128	0xba150077	-0.0005683968
129	0xbb36941e	-0.002785928
130	0x3af4d5eb	0.0018679475
131	0xb98d197f	-0.00026912612
132	0x39d2e522	0.00040225039
133	0x3bc995d5	0.0061518946
134	0x3a9cc8be	0.0011961681
135	0x3ac15608	0.0014750371
136	0xbb1dcc9d	-0.0024078258
137	0x3abe4979	0.0014517746
138	0x3b5e2a00	0.0033899546
139	0x3a21469e	0.00061521854
140	0x3a7e79fe	0.00097075093
141	0xbb3124c3	-0.0027029968
142	0xbc02d6f9	-0.007985824
143	0x3ceb425c	0.028718166
144	0xbadb5a03	-0.00167352
145	0xb95b0ef2	-0.00020891035
146	0xbc340659	-0.0109878415
147	0xbb17cd57	-0.0023163164
148	0xbaa3b434	-0.0012489618
149	0xbbfd76e2	-0.007735119
150	0x39d1ed6e	0.00040040485
151	0xba9f0939	-0.0012133486
152	0x3c018a49	0.007906505
153	0xbc43ae3e	-0.011943398
154	0x3ad2f467	0.0016094566
155	0xbb505782	-0.003179044
156	0xbbbab291	-0.0056975563
157	0x3bf346ee	0.007424227
158	0x3aac450a	0.0013143134
159	0x3ab49297	0.0013776597
160	0x3bb3f707	0.0054920944
161	0xbbfbfc49	-0.007689987
162	0x3b553030	0.0032529943
163	0xbcd0dcc3	-0.025495892
164	0x3c0be93a	0.008539492
165	0xbc0d830d	-0.008637202
166	0xba65a967	-0.00087608997
167	0xbc3d3075	-0.011547198
168	0xba684c22	-0.00088614423
169	0x3a6f42c8	0.00091270776
170	0xbcc48725	-0.023990223
171	0x399f8e3f	0.00030432825
172	0xb9e14ec3	-0.00042974026
173	0x3b994588	0.004677478
174	0xba63f1bf	-0.0008695386
175	0xbbf5e9b8	-0.007504668
176	0x3b31f3ce	0.0027153376
177	0x3b2e5ca5	0.0026605513
178	0xbbd1d052	-0.0064030075
179	0x3a59493c	0.0008288806
180	0xbb22d88f	-0.0024848317
181	0x39e9a7db	0.00044566285
182	0x3abafa85	0.0014265334
183	0x3adfa160	0.0017061643
184	0x3bfab745	0.007651242
185	0xbafb1586	-0.0019156195
186	0x38ad59ce	8.26601e-05
187	0xb9e10167	-0.0004291639
188	0x3ab39a9d	0.0013702695
189	0x39e76fb0	0.00044142967
190	0xbab2e315	-0.0013647998
191	0xbb993fc8	-0.004676793
192	0xbd8a509b	-0.067536555
193	0x3ca78c5c	0.02045267
194	0xbd5bf7ff	-0.053703304
195	0xbe34f33d	-0.17670913
196	0xbd1926f2	-0.037390657
197	0xbe15ff0c	-0.14648074
198	0xbd8cd7c2	-0.0687709
199	0x3df6275d	0.12019227
200	0x3cafbd89	0.021452682
201	0xbd140b2b	-0.036143463
202	0x3c3b5684	0.011434201
203	0xbd8f51c1	-0.06998015
204	0xbd57ffab	-0.05273406
205	0xbce8fbb5	-0.028440336
206	0xbdb72259	-0.08942098
207	0xbe0d4b6d	-0.13798304
208	0x396d1879	0.00022611198
209	0xbe580a8b	-0.21097772
210	0xbe8ad067	-0.27112123
211	0xbdc0b07e	-0.09408663
212	0xbcae6eb2	-0.021293018
213	0xbc2dd0e7	-0.010608888
214	0x3dd845fb	0.10560223
215	0x3e094fbf	0.13409327
216	0xbd7257f1	-0.0591659
217	0xbd8067fc	-0.062698334
218	0x3da6d95f	0.08146929
219	0xbd2ed802	-0.04268647
220	0x3e8a3e44	0.2700063
221	0x3d09a6ce	0.033606343
222	0xbdc93095	-0.098237194
223	0xbd097824	-0.03356184
224	0xbd1860c9	-0.037201677
225	0x3d8bd87b	0.068284
226	0x3c706e27	0.0146747
227	0x3d419062	0.047256835
228	0xbcb13c27	-0.021635128
229	0xbcc764c4	-0.024340041
230	0x3d24ebc4	0.040263906
231	0xbe0f0294	-0.13965827
232	0xbd515a19	-0.051111314
233	0x3d056b19	0.03257284
234	0xbe58c75e	-0.21169803
235	0x3b9d180f	0.004794128
236	0xbe846848	-0.2586081
237	0xbdd86c7f	-0.10567569
238	0xbb34470b	-0.0027508165
239	0xbdfebf40	-0.12438822
240	0xbd9f4e34	-0.07778588
241	0xbded1966	-0.1157711
242	0xbdb0d786	-0.08634858
243	0xbb9d9e52	-0.004810133
244	0x3d033433	0.032032203
245	0xbd139616	-0.036031805
246	0xbc7fe33e	-0.015618144
247	0xbc949f51	-0.018142374
248	0xbcd34554	-0.025789894
249	0xbc1924ba	-0.009347135
250	0x3dc22f4a	0.09481676
251	0xbd9ea873	-0.07746973
252	0x3dd53527	0.10410529
253	0xbcb26149	-0.021774905
254	0xbd678aba	-0.056528784
255	0xbd213e3e	-0.039366

weight f4 [1, 64]
0	0x001a553a	2.418296e-39
1	0x001c68f9	2.609051e-39
2	0x8008a623	-7.94283e-40
3	0x800ae13f	-9.99158e-40
4	0x803c5f6a	-5.544358e-39
5	0x00010b93	9.5988e-41
6	0x0014b1a8	1.900441e-39
7	0x80020d0b	-1.8835e-40
8	0x00448761	6.293379e-39
9	0x804476ca	-6.287427e-39
10	0x00197bc3	2.340285e-39
11	0x80350a0c	-4.870885e-39
12	0x00343070	4.792822e-39
13	0x002136f7	3.050289e-39
14	0x000810d8	7.40726e-40
15	0x000d20d7	1.205642e-39
16	0x801970d1	-2.336358e-39
17	0x80044ab5	-3.94142e-40
18	0x80342270	-4.7878e-39
19	0x803a392b	-5.346967e-39
20	0x8005cf27	-5.3349e-40
21	0x8000dad5	-7.8502e-41
22	0x8000b2fe	-6.421e-41
23	0x800ff928	-1.466913e-39
24	0x8034758b	-4.817612e-39
25	0x003528be	4.881897e-39
26	0x800b4b30	-1.037163e-39
27	0x8046c0c6	-6.497639e-39
28	0x801bdad7	-2.558063e-39
29	0x0008bd80	8.02664e-40
30	0x003d985f	5.656626e-39
31	0x80256a1c	-3.435978e-39
32	0x8004ee00	-4.5272e-40
33	0x801795f9	-2.166016e-39
34	0x80011d47	-1.02338e-40
35	0x80030c16	-2.79842e-40
36	0x8002dcab	-2.62832e-40
37	0x00207049	2.979016e-39
38	0x8009e5fb	-9.09021e-40
39	0x00320a63	4.595501e-39
40	0x8003216b	-2.87495e-40
41	0x80325b95	-4.624628e-39
42	0x8002c631	-2.54769e-40
43	0x8033d238	-4.759023e-39
44	0x00394366	5.258801e-39
45	0x8005938e	-5.1211e-40
46	0x80022f76	-2.00697e-40
47	0x01cb3bdf	7.4656334e-38
48	0x80171645	-2.120205e-39
49	0x801611c5	-2.026755e-39
50	0x800703aa	-6.44163e-40
51	0x80406a36	-5.915573e-39
52	0x0002018f	1.8423e-40
53	0x800436f3	-3.87054e-40
54	0x80151bb6	-1.938486e-39
55	0x00021f34	1.94865e-40
56	0x81a4b84f	-6.0508555e-38
57	0x800617e2	-5.5958e-40
58	0x000df230	1.280742e-39
59	0x800f7515	-1.419534e-39
60	0x801ac116	-2.456989e-39
61	0x0016974f	2.07466e-39
62	0x00078a1b	6.92391e-40
63	0x01dd896d	8.1379775e-38

weight f4 [64, 128]
0	0xbe180093	-0.14843969
1	0x3d85b99e	0.06529544
2	0xbbdbad02	-0.0067039737
3	0xbdec89fc	-0.11549756
4	0x3d3b5def	0.04574388
5	0x3e49e773	0.19717197
6	0xbea87877	-0.32904407
7	0xbdcc58ab	-0.099778496
8	0x3d32a1ba	0.043611266
9	0xbd4f78b9	-0.05065224
10	0x3d21a39d	0.039462674
11	0xbd1842c4	-0.037173048
12	0xbdba2d34	-0.09090653
13	0xbd8ed1e6	-0.06973629
14	0xbd7232ca	-0.059130467
15	0xbb35509b	-0.0027666453
16	0x3ce97553	0.028498327
17	0xbe7ea290	-0.248667
18	0xbda3e0bb	-0.08001848
19	0xbc8961c6	-0.016770255
20	0x3c8291ad	0.015938604
21	0x3dd94efc	0.10610768
22	0x3c88b0dd	0.016685897
23	0x3e4ae2a9	0.19813026
24	0x3cdb6d9e	0.026785668
25	0xbc716b18	-0.014735006
26	0xbd126ae1	-0.03574646
27	0xbb6a95ea	-0.0035794922
28	0x3cb13686	0.021632444
29	0x3cbd5b60	0.02311486
30	0xbd1e96dc	-0.03871809
31	0x3c6c4221	0.014420063
32	0xbd2802be	-0.04101824
33	0xbd5dd306	-0.054156326
34	0x3d54a78f	0.05191761
35	0xbcf3cd91	-0.029761108
36	0xbe81b55f	-0.25333688
37	0x3c6cf5dd	0.014462915
38	0xbd4bc387	-0.049747016
39	0x3c66847f	0.0140696755
40	0xbd278a2c	-0.040903255
41	0xbdf4ba8d	-0.11949644
42	0xbc9903ef	-0.018678633
43	0x3c7632d6	0.015026769
44	0x3da5de64	0.08099058
45	0x3d98caff	0.074605934
46	0xbdb7c2c9	-0.08972699
47	0xbdf138d9	-0.11778421
48	0x3da92270	0.082585216
49	0x3a95e187	0.001143501
50	0xbe0a4afa	-0.13505164
51	0xbdecb195	-0.115573086
52	0x3da7ba01	0.08189774
53	0xbcce93a3	-0.025216883
54	0xbd062d3c	-0.032757983
55	0x3d95253f	0.07282495
56	0x3e1872b7	0.1488751
57	0x3d895749	0.067061014
58	0xbd8660bf	-0.065614216
59	0x3c736f78	0.014858119
60	0xbdbe03cb	-0.09278067
61	0x3b4789d5	0.0030447145
62	0xbd8b84b2	-0.06812419
63	0xbe3bb915	-0.18332322
64	0x3d95457d	0.072886445
65	0xbe2196ea	-0.15780225
66	0xbd32bd61	-0.043637637
67	0x3d8b3125	0.06796483
68	0xbe01dd04	-0.12681967
69	0xbe35eb3c	-0.17765516
70	0x3da0cacd	0.07851181
71	0xbc47bd90	-0.012191191
72	0x3d203326	0.03911128
73	0xbc734895	-0.014848848
74	0x3dca7a20	0.09886575
75	0x3ce61844	0.028087743
76	0xbe38a95a	-0.18033352
77	0xbc791528	-0.015202798
78	0xbd87a018	-0.06622332
79	0x3d84a7bf	0.064773075
80	0x3e25eb28	0.16202986
81	0x3ddb1251	0.10696853
82	0xbddd9283	-0.108189605
83	0x3d2c8842	0.042122133
84	0xbd181ee2	-0.037138827
85	0xbbc26676	-0.0059326245
86	0x3e052207	0.13001262
87	0x3b9a618c	0.0047113355
88	0xbd597fc9	-0.05310038
89	0xbd59fcf4	-0.05321975
90	0xbe524ce4	-0.20537144
91	0xbca38548	-0.019961014
92	0x3e39f671	0.18160416
93	0xbd1815f5	-0.037130315
94	0xbcec64f1	-0.028856726
95	0x3b9689e9	0.004594077
96	0xbe4e401c	-0.20141643
97	0xbd66a37d	-0.05630826
98	0x3dcf8676	0.10133068
99	0x3d2a6032	0.041595645
100	0x3d4661fa	0.04843328
101	0xbd9fc265	-0.0780075
102	0x3d069daa	0.032865204
103	0xbd9e0c10	-0.077171445
104	0xbe02cb29	-0.12772812
105	0xbde214f6	-0.11039154
106	0xbd89f5fa	-0.067363694
107	0xbd46a81f	-0.048500177
108	0x3e328a07	0.17435466
109	0x3d18e15f	0.037324306
110	0xbd5ffc49	-0.054683957
111	0xbe167435	-0.14692767
112	0xbb1827da	-0.0023217113
113	0xbda381cb	-0.079837404
114	0x3dbe2afb	0.092855416
115	0xbe2999c8	-0.16562569
116	0x3da9071c	0.08253309
117	0x3c2d1986	0.010565167
118	0x3c77d738	0.015126996
119	0xbdb35afd	-0.08757589
120	0x3d8bd7b2	0.0682825
121	0xbdea9212	-0.11453642
122	0xbd559fb7	-0.05215427
123	0x3da7b21e	0.0818827
124	0xbd5c5902	-0.053795822
125	0xbdc4523c	-0.095859975
126	0x3bea7dee	0.0071561253
127	0xbb182691	-0.0023216347
128	0x3d02e936	0.03196069
129	0xbd867057	-0.06564396
130	0x3a2a5ad0	0.00064985175
131	0x3cda40d4	0.02664224
132	0xbd4ff935	-0.05077477
133	0xbd51b867	-0.05120125
134	0xbd2daed5	-0.04240306
135	0x3c915dc4	0.017744906
136	0x3c9425ac	0.01808437
137	0xbd0b188f	-0.033958968
138	0x3d1cf507	0.038319614
139	0xbd8e42d8	-0.06946343
140	0x3df543ec	0.11975846
141	0x3c089ec2	0.008338632
142	0x3c3ee333	0.011650848
143	0xbafa6621	-0.0019103923
144	0xbc1c00b2	-0.00952165
145	0x3c605fee	0.013694746
146	0x3dac603c	0.08416793
147	0xbd3d2e27	-0.046186592
148	0xbb5404dc	-0.003235153
149	0xbc9d0dfc	-0.019171707
150	0xbc9adc82	-0.018903974
151	0x3e222f11	0.15838267
152	0xbc9ac2e5	-0.018891761
153	0xbd69c6a5	-0.057074208
154	0x3c23998d	0.00998534
155	0x3a9ed424	0.0012117666
156	0x3a8b2cc2	0.0010618197
157	0xbd7f746c	-0.062366888
158	0x3c3902a9	0.011292138
159	0x39ef11b0	0.0004559881
160	0x3bdf6b6c	0.0068182256
161	0x3cd9f738	0.02660714
162	0xbc425353	-0.011860686
163	0xbbad7cfd	-0.005294441
164	0xbcfb7c80	-0.030699015
165	0xbc26fb65	-0.010191773
166	0xbd9093db	-0.07059451
167	0xbd0ae041	-0.03390527
168	0xbc37fd73	-0.011229861
169	0x3dba58b9	0.09098954
170	0xbc565f9e	-0.01308432
171	0x3d088330	0.033328235
172	0x3ab3549c	0.0013681832
173	0x3c1c03dd	0.009522405
174	0x3ddd3287	0.10800653
175	0x3d75feeb	0.06005756
176	0x3c890b0c	0.0167289
177	0xbae920f4	-0.001778631
178	0x3d5ae8dc	0.05344473
179	0x3dbcae4d	0.09212933
180	0xbd1c7d4b	-0.038205426
181	0xbd2b2f2a	-0.041793026
182	0xbcd9e7f6	-0.026599865
183	0xbc8870ef	-0.016655413
184	0xbd7ad443	-0.061237585
185	0xbddfb7c3	-0.10923722
186	0x3d3f88ee	0.046761446
187	0x3c3cd4ae	0.011525316
188	0xbd66df5c	-0.056365356
189	0xbd1a937a	-0.0377383
190	0xbce6e063	-0.028183168
191	0x3ad966cc	0.0016586422
192	0xbdf82374	-0.12116137
193	0x3dec25bb	0.11530634
194	0x3c3ac466	0.011399364
195	0x3cfea1b7	0.031082971
196	0x3db373ec	0.08762345
197	0xbd054872	-0.032539792
198	0x3da49cad	0.08037696
199	0x3b7c4d18	0.00384981
200	0xbe29d75c	-0.1658606
201	0x3c10bde1	0.008834333
202	0xbe209ac2	-0.15684035
203	0x3c96e45d	0.018419439
204	0xbb4bc234	-0.0031091096
205	0xbd835aca	-0.06413801
206	0x3d04fad4	0.03246577
207	0x3beaebf3	0.0071692406
208	0x3dd02799	0.10163803
209	0xba98fd00	-0.001167208
210	0xbc86d804	-0.016460426
211	0xbb812f52	-0.0039424086
212	0x3967bde8	0.00022100622
213	0xbcfb350d	-0.030664945
214	0xbdfea025	-0.12432889
215	0xbcd3fc96	-0.025877278
216	0xbc9b888f	-0.018986015
217	0xbdc6e291	-0.09711183
218	0xbd2a4b95	-0.041575987
219	0xbd01dcf4	-0.031704858
220	0xbe4d8fcd	-0.20074387
221	0xbd99d2e1	-0.07510925
222	0x3d974ed5	0.07388083
223	0xbb128406	-0.0022356524
224	0xbd05aa90	-0.032633364
225	0x3d659347	0.056048658
226	0x3bd13750	0.0063847676
227	0x3bcb8fc5	0.006212207
228	0xbce6c782	-0.028171305
229	0x3bf53461	0.0074830507
230	0x3c72754b	0.014798473
231	0xbae25fd5	-0.0017270992
232	0x3d174c25	0.03693785
233	0x3daf690c	0.08564958
234	0x3c8ce88c	0.01720073
235	0x3d58ae3d	0.05290054
236	0xbc0d63fd	-0.008629796
237	0xbd61f2f4	-0.05516334
238	0x3a59560c	0.0008290715
239	0xbd1edb08	-0.038783103
240	0xbb843c81	-0.004035533
241	0xbd37f8f9	-0.044915173
242	0x3d410c6d	0.04713099
243	0xbda88ba3	-0.082297586
244	0xbd034c49	-0.032055173
245	0x3c5e4c9f	0.013568073
246	0xbd942145	-0.07232908
247	0xbd5b2368	-0.053500563
248	0xbd046521	-0.032323007
249	0x3d4bb74e	0.04973536
250	0xbb8d2488	-0.0043073334
251	0xbd9f358c	-0.07773885
252	0xbd803f90	-0.062621236
253	0xbb0bff50	-0.0021361895
254	0x3b821703	0.0039700284
255	0xbccc5fda	-0.02494805

bias f4 [64]
0	0x3d9705d2	0.07374157
1	0xbc329764	-0.010900352
2	0x3cd24c84	0.025671251
3	0x3c289f82	0.010291936
4	0xbcb33926	-0.021877836
5	0x3ca138c6	0.019680392
6	0x3d26f8d6	0.040764652
7	0xbcc84795	-0.024448195
8	0xbba402c2	-0.0050052116
9	0xbd484bfd	-0.048900593
10	0x37db3b33	2.6134401e-05
11	0x3d1dda97	0.03853854
12	0xba9bcf53	-0.0011887349
13	0x3a4878df	0.0007647406
14	0xbb9fb21f	-0.0048735286
15	0xbcc767ac	-0.024341427
16	0x3d4aa76c	0.049476072
17	0x3d29f47b	0.04149292
18	0x3c2add34	0.0104287155
19	0x3c8c358e	0.01711538
20	0xbc3a30b8	-0.0113641545
21	0xbbb168fb	-0.005414126
22	0xbd7c0428	-0.0615274
23	0xbd5b4192	-0.05352933
24	0x3da50779	0.08058066
25	0x3c7f255a	0.01557287
26	0xbdb17be1	-0.08666206
27	0xbab549a6	-0.0013831153
28	0x3d3b145e	0.04567372
29	0xbceb7be4	-0.0287456
30	0xbcd13855	-0.025539557
31	0x3d0c96d4	0.03432353
32	0x3d3579aa	0.04430548
33	0xbd5ed34b	-0.054400723
34	0xbd0999e5	-0.03359403
35	0xbc94f3f1	-0.018182727
36	0x3db73159	0.08944959
37	0xbcc27e9d	-0.023742015
38	0x3c902b54	0.017598785
39	0xbad51f2d	-0.0016259901
40	0xbc9affdc	-0.018920831
41	0x3ce88af6	0.028386574
42	0xbcb9ee4b	-0.022696635
43	0xbb03bb99	-0.002010083
44	0x399decd2	0.00030121818
45	0xbaa209e3	-0.0012362566
46	0xbc43ea67	-0.011957741
47	0x3cc39a00	0.023877144
48	0xbd94a053	-0.07257142
49	0x3dd8e48e	0.10590468
50	0x3b596685	0.0033172679
51	0x3c815576	0.015787821
52	0x3c72d8d2	0.014822202
53	0x3c9c4577	0.019076092
54	0xbb1dc51a	-0.002407378
55	0x3c71071c	0.014711168
56	0x3d3034e3	0.043019187
57	0xbd56d2c8	-0.05244711
58	0xbd4ee370	-0.05050987
59	0x3c68eba6	0.014216339
60	0xbd6382f1	-0.055544797
61	0xbda7ba72	-0.081898585
62	0xbdc0e3bb	-0.09418436
63	0xbd37842a	-0.044803776

weight f4 [1, 64]
0	0xbe7962c6	-0.24354085
1	0x3e5499ce	0.20761797
2	0x3e263099	0.16229476
3	0x3e7bf407	0.24604808
4	0x3e14e0d9	0.14538898
5	0xbeb398ba	-0.3507746
6	0x3e97e8b3	0.29669723
7	0x3ec48f98	0.38390803
8	0x3e8955ca	0.26823264
9	0xbe89cede	-0.2691564
10	0xb971703e	-0.00023025364
11	0x3dc71e7b	0.097226106
12	0x3e272c4b	0.1632549
13	0xbdedd045	-0.1161199
14	0x3e0d7ae6	0.13816413
15	0x3e736d66	0.23772201
16	0xbe0ba68d	-0.13637753
17	0x3e4d0af1	0.20023705
18	0x3e15c0cf	0.14624332
19	0x3ded2da3	0.1158097
20	0x3e4c5e11	0.19957758
21	0x3dde1cf3	0.108453654
22	0x3e991dca	0.2990554
23	0x3ed0ff66	0.40819854
24	0xbe2dbc96	-0.16966471
25	0x3e3e0484	0.1855641
26	0xbf67d626	-0.9056114
27	0x392043d5	0.00015284058
28	0xbe2a2dd4	-0.16619045
29	0x3ec730af	0.3890433
30	0xbeca0e04	-0.39463818
31	0xbd7bcf36	-0.06147691
32	0x3e9e253a	0.30887777
33	0xbe7e4999	-0.24832763
34	0xbe84ab12	-0.25911766
35	0x3e21c965	0.15799482
36	0xbe6d32ca	-0.23163906
37	0xbf343527	-0.70393604
38	0x3ec7f214	0.39051878
39	0xb8dd2a0a	-0.000105459316
40	0x3e928633	0.2861801
41	0x3e07a7fe	0.13247678
42	0xbf0d2714	-0.55137753
43	0xb9293496	-0.00016136686
44	0xb935e25d	-0.00017345832
45	0x3e75f697	0.24019848
46	0xbe3ad5c3	-0.18245606
47	0x3f2b6a38	0.6695895
48	0xbef1a6fe	-0.47197717
49	0xbec4f8b0	-0.38470984
50	0xbe8c690c	-0.27423894
51	0xbeaf44c4	-0.34232152
52	0xbeb0c653	-0.3452631
53	0x3e155200	0.14582062
54	0x3eb3056d	0.34965077
55	0x3de00606	0.10938649
56	0x3e2e060d	0.16994496
57	0xbf6ca8ee	-0.92445266
58	0x3e95ca59	0.29255942
59	0xbeb5746b	-0.35440382
60	0x3e69d276	0.2283419
61	0x3f00a82b	0.50256604
62	0x3eb823b7	0.35964748
63	0x3e31e616	0.17372927
