GNN/ArchGNN/trained_models/Apr-21ver1.pt (torch, 394923 bytes, 17 tensors)

weight f4 [16, 3]
00000000: c324 2b3e d405 2c3e 83bd 66bf 22e1 9539
00000010: 8710 9cbe 1ce8 663e e217 ea3e bc80 883e
00000020: 577e 69bf 7461 1abe 0433 54be bca0 503f
00000030: f855 f33e 507a f33e 8e34 ccbe e372 4fbd
00000040: 9381 2ebe a699 d13e 9056 80be a265 1d3f
00000050: 52ac 933e 33fe 493c 95ce f9bd 165e 02be
00000060: 05d9 823e fe16 153f e432 e5be 82f4 1f3f
00000070: ba6c 433f 22e5 a63e 62c4 103d f2e8 9dbe
00000080: 76cb 77be cc3f 76b9 ce6f 0bba 7faa 1fb7
00000090: 954c 77be cf23 51bd 7144 2bbf 5dfd 49bc
000000a0: e19f c3be 6a7c 293f 3792 5abd 9ea5 c0be
000000b0: fa4d 59bd 33dd b93c e6a0 20be 3fcd 71bc
0.16713242 0.16799098 -0.9013292 0.00028587232 -0.3048136 0.2254948 0.45721346 0.26660717
-0.91208404 -0.15076238 -0.20722586 0.8149526 0.47526526 0.47554255 -0.39883846 -0.050646674
-0.17041616 0.40937537 -0.25066042 0.61483204 0.28842407 0.012328672 -0.121976055 -0.12731203
0.25556198 0.5823821 -0.4476539 0.62482464 0.7633778 0.3259669 0.035343535 -0.30841786
-0.24198708 -0.00023484154 -0.00053190894 -9.516835e-06 -0.24150307 -0.05105954 -0.6690131 -0.012328473
-0.38207915 0.66205466 -0.053362098 -0.37626356 -0.05305288 0.022688484 -0.15686378 -0.014758407

bias f4 [16]
00000000: 90ca c8bd 1885 f3bc 0a80 bb3d 27ad b7bb
00000010: d2c2 3a3e 25c7 a0b9 0a0d 143e d11e 41bb
00000020: 5aca dcbd cad2 133e c13c 543e f07a 58b4
00000030: 6500 a13e eead cbbc 368b 9b3f 5731 2c3f
-0.09804261 -0.02972655 0.09155281 -0.005605358 0.1823838 -0.00030665952 0.14458099 -0.002946783
-0.10780783 0.14435878 0.20726301 -2.0161292e-07 0.31445614 -0.02486321 1.2151859 0.67262787

c f4 [8]
00000000: 3606 15be 49d1 4abc 60c2 123e b50b c7bd
00000010: 6c8c 00bd e191 133d f360 debb 002e 943d
-0.1455315 -0.012378999 0.1433196 -0.0971903 -0.031383917 0.036027793 -0.0067864596 0.07235336

bias f4 [32]
00000000: a662 2abe da31 30be 909b 903e 4dba 23b6
00000010: 2758 0a3f 7c98 b9bb a8bd c2bd 9a86 273e
00000020: 1cec be3e 93d7 853e b97a fcbd 9736 fabc
00000030: c52b a03c b3f4 973d 4487 bebc d351 fe3e
00000040: fa53 3dbe 46c3 9f3e 0fea 0dbe 98eb fe3e
00000050: c7b4 b23e 91a9 91bd 18bb 87be 3a4f 96be
00000060: 7341 1cbe e937 99bc a786 d2be 2a2b 2cbe
00000070: 5463 f83b e704 3ebe 7d3e 7e3d f7dd 0c3f
-0.16639194 -0.17206517 0.28243685 -2.4397334e-06 0.5404076 -0.0056639295 -0.0950883 0.1635994
0.37289512 0.26141033 -0.12328095 -0.030543609 0.019552121 0.074197195 -0.023257859 0.49671802
-0.18489066 0.3120367 -0.13858818 0.4978912 0.34903547 -0.0711242 -0.2650993 -0.2935732
-0.15259342 -0.018703418 -0.41118357 -0.16813341 0.0075802 -0.18556558 0.062071312 0.5502619

weight f4 [256, 16]
00000000: b65e ebbd 3367 733a eb74 dc3c 49f0 703d
00000010: 0078 ea3d 66e9 503c 50cd e8bd b4a2 4380
00000020: 2444 763b 3276 603e 4f7e 22bb f1ba 3516
00000030: 10d8 693c 6f75 6cbb 000c 9abb a7a3 b1bb
00000040: 1dd2 50bd 2952 68ba 0b03 eabd f9b9 243c
00000050: db7e 213e ec86 fbba 49eb 383e baf8 89bc
00000060: 2f34 1d3e 12d1 fe3d 1d7d 2fbd e1e4 0000
00000070: 7d8b cbbb d85d 27bb 44e4 8bbb 9ee9 f0ba
00000080: c9b4 93bc bbc5 94bb 9290 193e 0529 45bd
00000090: a8c2 02be 4208 92bc ca14 163d 7284 9f3c
000000a0: c45e d23c 7572 77bc 2552 573d 2052 3e84
000000b0: 0920 a43c 2f33 9cbc 9629 573d e13a cc3c
000000c0: f68b 90b7 106e 2280 7879 21b9 a026 3880
000000d0: d252 cfb9 53bf 0c80 e7c0 8fb9 8ce9 0580
000000e0: 5ebd 04ba a61a 1fba 9797 3c00 007c 8900
000000f0: e927 0ca2 9e84 1680 072d 3680 6eb2 1200
00000100: a447 2b3d 984f 39bb 5e16 723e 7b97 1ebd
00000110: f468 813e ebde a1bc ca8b 363e 33f1 093d
00000120: 38cd 7a3e 568f cebd 9f78 c03d 9a50 421c
00000130: 4346 39bd 2e26 42bc 12d2 083d f9d0 a03c
00000140: 49e9 21bc 541f 1c00 9f4f a8bc 9a5f 0e00
00000150: 48c8 c0bc 4aea 4700 799e 9ebc 84b9 7e3a
00000160: 765b 08bd b407 f0bc 81d7 32ba 973f 1d80
00000170: 1864 79b9 c384 1600 1c31 f581 6a34 0482
00000180: 3550 94bc 0208 023c 64fd 823d aebb 973d
00000190: d97e 80bc 9881 203d d36e d33c 9ca4 8bbc
000001a0: 6f07 1e3e 5aba 83bd aa13 68bd d802 0380
000001b0: d501 81bd ca30 753d 2cc4 5dbd 06d3 aabc
000001c0: 5c72 7d3d 173b 74b9 837f 553d 6852 81bb
000001d0: 8ea7 e4bc 135e dabb 9e0d 8fbd 9768 3d3d
000001e0: bb8e 03bd 49e5 12be 5126 ed3d 7198 d48d
000001f0: 0fab d43d 515d 80bc be99 953b d9b9 153c
00000200: a891 06bd d036 c5ba 1e99 843d 2472 613c
00000210: e4b5 bc3d 779b afbb d993 c43c b945 ad3c
00000220: 47da 89bd 5323 4f3d eb96 593d 276c 0800
00000230: b2be e4bc c6e2 24bc 8a06 813d ecec d23c
00000240: 1f65 0dbd 0936 84ba d282 fd3d 690d 91bc
00000250: 7e68 cbbc 8565 82bc f00d 1e3c 1c7d e13c
00000260: 0822 0b3e 9e72 56bd 97ea 913d a9b7 de11
00000270: 23fc 933d ba30 abbc 6cdc 203d d72f 3b3c
00000280: e2b7 0abc 8b60 923b 7403 81bd 6ad2 033d
00000290: 1532 c0bb 4ba1 823c b235 ffbc cb76 7f3c
000002a0: 5df5 c0bd 3858 19be 0208 043d 71c7 1600
000002b0: 11a7 ba3c 5559 d23c d1a0 8cbb e099 5abb
000002c0: c0c3 373e a4f7 3d02 d45e f83d 801d dd00
000002d0: 0564 443e 3fc4 7d31 ed39 ab3d 9df7 c03c
000002e0: eeb1 bf3d 5b7a b5bc eb32 5c3d 01d3 1780
000002f0: ba92 df3d 41a4 d101 166c 2ebc 82b2 8fbb
00000300: 813b fa3b 8e02 94ba d792 ce3d 228d 36bc
00000310: 7af1 863d 7d3e fcbb e2fa 7e3d 1e82 ed3c
00000320: 6a06 4abd 494c 2f3d 83b8 933d c789 0e00
00000330: cd8c 823d 91c8 4bbc daf5 3ebc 8405 bfba
00000340: abb0 fb3d c4ea d6ba 005f 0a3e a8e7 86bc
00000350: 4a6b c23d 26b0 e5bb bc37 b2bd 43da da3c
00000360: 57e9 813d 1fd7 67bd 7113 773d e0d1 0d00
00000370: 4410 823d 6606 cfbb ef29 223c 6965 8e3b
00000380: 9f88 313d 5890 a400 ca67 0cbd 6666 3000
00000390: 2e86 21be 2251 48b1 9e72 2f3c 81dc 73bd
000003a0: 97c6 2bbd a82b 5bbd d169 19be 7e7e a0a0
000003b0: d984 dcbd d437 4600 501c aebd a58f 2bbd
000003c0: d1aa cf3a 3aa7 c3ba 30f9 cbbc 0674 49bd
000003d0: 14d4 f8bd fe37 08bc f430 743c fbcd 483c
000003e0: d962 873d 13e4 373d 2c10 233d ac5e 0200
000003f0: 13a7 563d c990 7e3a 562f 453d 8d2e ad3c
-0.11492674 0.0009285092 0.02691122 0.058822904 0.114486694 0.012750959 -0.11367285 -6.211345e-39
0.0037577236 0.21920088 -0.0024794524 1.4680052e-25 0.014272705 -0.0036080738 -0.0047011375 -0.00542112
-0.05098163 -0.00088623405 -0.11426362 0.010054105 0.15771048 -0.001918999 0.18058504 -0.016842235
0.15351938 0.12442221 -0.042843927 8.2106e-41 -0.0062116967 -0.0025538113 -0.0042691547 -0.001838017
-0.018030541 -0.004540173 0.14996555 -0.048134822 -0.12769568 -0.017826203 0.03664092 0.019472335
0.025679953 -0.015102972 0.052568574 -2.2372103e-36 0.020034807 -0.019067375 0.052529894 0.02493042
-1.7231312e-05 -3.16189e-39 -0.00015399407 -5.156644e-39 -0.00039543823 -1.17066e-39 -0.0002741881 -5.42958e-40
-0.00050636183 -0.00060693396 5.56451e-39 1.2625946e-38 -1.8994666e-18 -2.067955e-39 -4.97527e-39 1.717047e-39
0.04181637 -0.0028276201 0.23641345 -0.03871868 0.25275385 -0.019759616 0.17826763 0.03367729
0.24492347 -0.10085933 0.09398007 6.429339e-22 -0.045233022 -0.011849923 0.033403464 0.019630896
-0.00988228 2.582632e-39 -0.020545779 1.319992e-39 -0.023533002 6.604367e-39 -0.019362675 0.0009716975
-0.03329035 -0.029300548 -0.0006822274 -2.686041e-39 -0.00023783778 2.068007e-39 -9.0069255e-38 -9.71287e-38
-0.018104652 0.0079364795 0.06395987 0.07408844 -0.015685486 0.03918609 0.025809681 -0.017046265
0.15432523 -0.06432028 -0.056659378 -2.76527e-40 -0.062991776 0.059860982 -0.054142162 -0.020852577
0.06187664 -0.00023291666 0.052123558 -0.003946591 -0.027911928 -0.0066640466 -0.06985019 0.046242323
-0.03211854 -0.14345278 0.11579574 -1.3102208e-30 0.10384189 -0.015669497 0.0045654466 0.009138548
-0.032853752 -0.0015046243 0.06474517 0.013760123 0.092143804 -0.005359109 0.02399628 0.02115141
-0.06731086 0.050570797 0.053122442 7.73482e-40 -0.027922962 -0.010063833 0.06300075 0.025747739
-0.034520265 -0.0010086905 0.123784676 -0.01770659 -0.0248301 -0.015917549 0.009646878 0.027525477
0.135872 -0.0523554 0.071248226 3.5138614e-28 0.07225826 -0.020897258 0.03927271 0.01142498
-0.008466693 0.004467075 -0.06299487 0.03218309 -0.0058653452 0.015946051 -0.031153534 0.015592287
-0.09421799 -0.14975059 0.0322342 2.091927e-39 0.022784742 0.025677362 -0.0042916317 -0.0033355877
0.17945766 1.3956596e-37 0.12127462 2.0306227e-38 0.1917878 3.6927899e-09 0.08360658 0.023555571
0.09360109 -0.02215307 0.053759497 -2.18791e-39 0.10916658 7.701017e-38 -0.010645887 -0.0043852935
0.007636488 -0.0011292265 0.10086601 -0.011142047 0.06589027 -0.007697879 0.06225098 0.028992709
-0.049322523 0.04279736 0.07212927 1.335122e-39 0.06374512 -0.0124379555 -0.011655295 -0.0014573787
0.12289556 -0.001639687 0.13512802 -0.016467884 0.0949312 -0.007009524 -0.08702037 0.026715403
0.06343334 -0.05660164 0.060321275 1.26915e-39 0.06350759 -0.0063179014 0.009897693 0.004345585
0.043343183 1.5112802e-38 -0.03427867 4.444837e-39 -0.15773842 -2.914995e-09 0.010708479 -0.05953646
-0.041937437 -0.05350843 -0.14981772 -2.718876e-19 -0.10767526 6.448512e-39 -0.08501494 -0.041885037
0.0015843754 -0.0014927157 -0.024899095 -0.049182914 -0.12149826 -0.008314131 0.014904249 0.012256141
0.066106506 0.044895243 0.039810345 2.17633e-40 0.05240543 0.0009710906 0.048140846 0.021140361

weight f4 [8, 16]
00000000: 81f5 7d3e 21ed 03bd 5146 7c3c 2ea0 87be
00000010: 5ee3 da3d a3b1 fd3b 4688 08bb 23ea d13d
00000020: e943 073d 77f8 16be 2f0e ee3d 4d46 aa37
00000030: 5d50 683e f7e8 a13d 81e1 86bd 8c52 7ebc
00000040: a91c 423c cfb7 9fbe 1322 9ebd a0b4 d3bc
00000050: 7de6 fcbc 5517 8cbd 8c31 253d 5bd0 66bd
00000060: 1ca0 843e f4e4 493e 5927 7ebd 1188 6fb9
00000070: 5fc9 cf3b af7b 0abd 0783 1d3f d41a a03e
00000080: da48 2dbe e316 ecbb 6a79 6e3e ae8c bc3c
00000090: 279b 2a3e 9d38 00bc e061 6ebc 3b1f 563c
000000a0: 446f 54be c723 39be 844a ba3c d235 1736
000000b0: 61ed a1bd 38b0 033c b3ba d23d 0822 6c3d
000000c0: 203c 3b3e 9fe5 c6bd 5541 4d3e e516 96be
000000d0: 00ec 10be 7f4f 3a3c 2e5e 70bc cc0b 7abc
000000e0: 0678 3d3d e390 94be deca a9bd e36e 30b6
000000f0: d290 27be c517 863d da47 983d ebb2 073d
00000100: d553 de3c 3f41 2c3e a956 1b3e db5d 453e
00000110: 864f 303d bc37 623e 75a0 4dbd 1d18 863c
00000120: 6f45 3ebd 275d 563e 4a4f eebd 2c3c 5db2
00000130: 7daf 3cbc eedf ab3d 7d95 42bf 9583 ecbe
00000140: 83d6 91be f7ee 323e 2fe4 c3be ca7e c53a
00000150: 9804 30bb 2331 97bc 0604 733e 0273 873b
00000160: c885 8bbe d431 8d3d d89d 33bd 60a1 2f37
00000170: 94f1 c83c 92e1 98bd d20e 103d 1249 983c
00000180: fe02 6bbd 21f9 cabd 8a4b 4fbe c3ae 96be
00000190: 562d 21be 09d2 45be 7d44 5f3e 21b2 6cbd
000001a0: b958 64be 8e05 45be 1cf1 14be cf9f f535
000001b0: 3159 9d3d f311 85be 4060 66bc c1bf cfb9
000001c0: 29de 873d 4a2f 4f3e 2297 933d 751d 2d3e
000001d0: a8a3 3bbe 6e51 143e a814 e2bc 10ef 05bb
000001e0: 2945 a9bd 2a6e 95be 3a1f 053e 83f6 4b38
000001f0: 0cf1 273d f206 603d 5b37 343e 0444 bc3d
0.24800684 -0.032208566 0.015397624 -0.26489395 0.10687898 0.007742123 -0.0020833178 0.10249736
0.03302375 -0.1474322 0.11623799 2.0298316e-05 0.22686906 0.07905763 -0.0658598 -0.01552261
0.011847653 -0.31194922 -0.07721343 -0.025842965 -0.030871624 -0.06840388 0.040330455 -0.056351047
0.25903404 0.19716245 -0.062049244 -0.00022843505 0.006341144 -0.03380936 0.61528057 0.31270468
-0.16922322 -0.0072048767 0.23288503 0.0230163 0.16660748 -0.007825998 -0.014549702 0.013068969
-0.2074557 -0.18080054 0.02274061 2.253208e-06 -0.079066046 0.008037619 0.10289516 0.057649642
0.18284655 -0.097117655 0.20044453 -0.29314342 -0.14152527 0.011371492 -0.014670892 -0.015261602
0.04625704 -0.2901679 -0.08290647 -2.6290588e-06 -0.16363838 0.065475024 0.074355796 0.033129614
0.027139584 0.16821764 0.15169777 0.19274084 0.04304459 0.22091573 -0.050201852 0.01636892
-0.046452936 0.20933972 -0.11636217 -1.2877575e-08 -0.011516449 0.083923206 -0.7600935 -0.4619414
-0.28483972 0.1747397 -0.38260028 0.0015067693 -0.0026858207 -0.018456047 0.23732004 0.004133583
-0.27250504 0.068942696 -0.043851703 1.0468386e-05 0.024529256 -0.07464899 0.035170384 0.01858953
-0.0573759 -0.09910799 -0.2024366 -0.29430208 -0.1573995 -0.19318403 0.2180347 -0.057787064
-0.2229947 -0.192404 -0.14545101 1.8300433e-06 0.076830275 -0.25990257 -0.014061034 -0.00039624984
0.066341706 0.20232883 0.07206561 0.16905768 -0.18324149 0.14484188 -0.02759774 -0.0020436682
-0.082651444 -0.2918561 0.13000193 4.8628553e-05 0.041001365 0.054694124 0.17599241 0.091926605

c f4 [8]
00000000: 3fa1 82bd 0a95 53be 143f 37bd 4978 20bc
00000010: 41f9 04bd 5d32 933d 6590 1bba a839 87bc
-0.063784115 -0.20662323 -0.04473789 -0.009794303 -0.03246427 0.071873404 -0.0005934297 -0.016506985

bias f4 [64]
00000000: 47fb c39b 838d efbd 8a0d 14ba 297f edbe
00000010: a6e1 00bf af9a 34bb 7863 b53d 0c1a ac3c
00000020: a952 21ba e5c8 7abe 9001 c23d b3e6 7ebd
00000030: dbf9 01b3 a831 e2bd e3f8 85bd 230f 76bd
00000040: d313 82bb 0997 cda5 24ad be3e a73a b8bc
00000050: 4ee0 5abb aefd eabd 103c c3be 4604 9a3e
00000060: 37fa d03e a7c9 34ba c69d dc3e 638b a83e
00000070: 4bab a0bb 775c edb3 e1e6 ef3d 5f6b bf3d
00000080: e5cf 2fbb 6948 bd3e f1c1 803e 7b6b 103f
00000090: c03e 31be ff66 24bf c811 ef3e 2859 fcbd
000000a0: 7b1b 1ebe 9e80 a73b ebaf 333e 5b26 243e
000000b0: 58ca 08bd 6eab 8bb7 c175 973e 2bfd bfbb
000000c0: 3323 e53d b403 cc3d d08d cfbe 0364 b4bd
000000d0: 6cff 7f3e 0f46 b23d 4103 983e 87de 98bb
000000e0: 6a90 673e 6e9e 963d db77 d4be aecd 57bd
000000f0: ce66 88ba 9fb9 b83c 3ee4 63be 7bbb 8ebd
-3.2422428e-22 -0.11696913 -0.00056477694 -0.46386078 -0.5034431 -0.002755802 0.08856863 0.021008514
-0.000615398 -0.24490698 0.09472954 -0.06223173 -3.0262395e-08 -0.110446274 -0.06541612 -0.06007303
-0.0039696484 -3.5664177e-16 0.3724147 -0.022488905 -0.0033397856 -0.11474167 -0.38131762 0.30081385
0.408159 -0.00068965036 0.43089122 0.32918844 -0.004903232 -1.1052992e-07 0.117139585 0.09346651
-0.0026826796 0.36969307 0.25147966 0.56414 -0.17309093 -0.6421966 0.46693254 -0.12321693
-0.1544017 0.005111768 0.17547576 0.16030256 -0.033396095 -1.664992e-05 0.29582027 -0.0058590374
0.11188354 0.09961644 -0.40537882 -0.08808138 0.2499978 0.08704769 0.29689983 -0.004665199
0.22613683 0.07354437 -0.41497692 -0.052686386 -0.0010406615 0.022549449 -0.22255036 -0.06969353

weight f4 [512, 32]
00000000: 2787 1000 bbb7 0900 2f59 df0e 9058 1380
00000010: cab6 1100 b477 1b80 736f 0a80 1d13 1f80
00000020: e5c3 2f80 a048 2280 f76b 1480 1887 2380
00000030: 1e82 2a00 35b3 0d80 957a 0980 abd0 1c80
00000040: 8770 1d80 7ca2 2b80 64bb 0800 d0ba 0900
00000050: 68b8 1480 9580 1a80 0a24 0200 787c 3080
00000060: bbcb 3e9f 9140 0600 58b8 2480 e9a6 0180
00000070: 9bc8 0280 2538 dda2 77e1 0200 0477 0400
00000080: d766 dfbc fd2c 9dbc ad01 59bc d061 85a8
00000090: f6f7 43bd a8c2 873b 0566 28bc 967f 5bbc
000000a0: b276 f33b 093c 233d eb87 6a3d d590 a73b
000000b0: a4aa 8ebc 79f4 f53a a226 bb3c c731 2dbc
000000c0: d19a 0a3d 2bcf 25bc 54dd 173b 557d 7b3c
000000d0: 3c35 6bbc 81eb e0bc 3c66 ddbc 5501 8dba
000000e0: 60b2 8bbc f320 d5bc 8ba8 f53c dbf3 1c3c
000000f0: fd17 ac3c 6bbf e63c 9c9d 88bc bc97 373c
00000100: c66a 2cb8 96de f5b2 537f e731 d964 2000
00000110: 550f 1ab8 8d34 1500 616d 0db6 00e1 c2b6
00000120: ab56 8796 4a1b 93af 5b6b 57b3 e355 c0b6
00000130: 497f 11b6 1b94 b1b5 387a b9b5 729e 7934
00000140: 06ce cdb2 21fc ce98 b21d cfb5 15f3 6899
00000150: 1d7a d9af b8e6 3ab5 d923 25b5 290d af9e
00000160: 5feb d0b7 f1f4 00b7 3a50 229d 1d15 feb7
00000170: 93b8 20b6 3383 33b8 3f6b 9db8 38c8 0628
00000180: 9c4a 0e3d 1158 8d3d f1d8 023d 8001 e133
00000190: c3cc 32bc 77a4 ea3a 3d6b 853d 8cb5 f43a
000001a0: ab44 dfbb cc1c 3fbc 8672 f73c 0a41 453d
000001b0: 6b78 283c 939b b33b 8b01 fe3c 99cd f93b
000001c0: 7568 e33b 120b bbbb 9fac 1a3a 2860 d4bc
000001d0: 79c1 053d 3963 1fbd 33c9 ef3d f913 d93c
000001e0: 2edc 093e f1bd 043c 2283 ed3c 7b1c 823d
000001f0: 8306 fe3c e532 99bd f75c f43c 87e8 cebc
00000200: 5562 6ebb 406e 9f3d 0be6 3f3d 371a 08b9
00000210: 3376 acbd 4bb1 40b9 796a 3f3d d7c2 4a3c
00000220: 5032 b8bc 6201 66bc f9f1 86bc 3bc1 243c
00000230: cedc 673c e687 aebd a2f3 e5bd a0b2 91bd
00000240: dd86 4fbc bf60 e1ba 63a1 083d e6d5 14bd
00000250: a491 ebbc 97cc 673c 7748 e13b 5ddd 813d
00000260: 0bf0 943c 6bf4 933b b440 d43d c448 45bd
00000270: 50c2 80bd 9b59 cbbd 7fe7 d6bd 773b 02bd
00000280: e5bd 40ba feea d6ba cded fbba 21b1 2c00
00000290: 8d6e 7cba bb1a 1129 3674 44ba 9b70 273a
000002a0: 5799 ceb8 f3bb 4fb9 223d 13b9 710e d2b7
000002b0: 43a0 283a c355 22ba b1b3 beb9 d437 67ba
000002c0: 8244 31ba 4894 2aba e88f 45ba 3d7a acb9
000002d0: 61b5 33ba c053 fcba 712c d8ba e59f a0b8
000002e0: e5cc 39bb 5aeb a5b7 b997 bbb7 1d73 beba
000002f0: 92bc 11b9 f2b7 35bb 47c9 6fba 2ddd deb9
00000300: e1b6 48bb 8b02 b33a 460e edbb a9d6 1980
00000310: 9a14 aebc 1ba0 0480 2eb9 21bc 9b90 84bc
00000320: cb0c 72bc 3981 01bc a45a ddba beed 0239
00000330: e28e 12bc 83a4 42bc 457a 1ebb ec06 3dbc
00000340: 81c1 9a39 a181 b6bb 4ca0 f23a 3aaa 68bc
00000350: f142 33bc 4998 83bb 2318 1f3a 25d7 b0ba
00000360: 3aff a1bc be5f 1bbc 3e9c ccb9 55c2 c339
00000370: 430e 9dba 0e74 64bc f8b4 55bc 4d07 7dbb
00000380: ef31 08bd 115c f1bc 73e5 babc e77f 2600
00000390: 5294 873c f4bf a9b9 dfd5 5d3d 1486 5a3c
000003a0: 2e21 353c 8762 bd3c 82a2 b93c b56a 943d
000003b0: ab9a 913c 34d7 763d 74aa 5c3d d48b 64bc
000003c0: d7f8 a4bc a72b 9f3c 1c89 1abc fb0f ce3b
000003d0: 18a9 15bd 3e45 b83c 27a9 563c 1073 3d3c
000003e0: c484 493b 0825 32bd 80fa af3c 9829 b83c
000003f0: ae71 4d3d 4583 94bc f24b a73a 0eb4 01bc
1.517851e-39 8.9243e-40 5.5059625e-30 -1.776645e-39 1.626776e-39 -2.5225e-39 -9.58335e-40 -2.853757e-39
-4.386542e-39 -3.14846e-39 -1.87544e-39 -3.262705e-39 3.903768e-39 -1.258149e-39 -8.70494e-40 -2.64625e-39
-2.703597e-39 -4.007215e-39 8.01907e-40 8.93535e-40 -1.902862e-39 -2.43385e-39 1.966e-40 -4.452755e-39
-4.0402587e-20 5.74175e-40 -3.372208e-39 -1.51712e-40 -2.55635e-40 -5.9961615e-18 2.64553e-40 4.10037e-40
-0.027270718 -0.019186491 -0.013245028 -1.4808386e-14 -0.047843896 0.004143078 -0.01027823 -0.013397118
0.007429921 0.039852176 0.057258528 0.005113701 -0.017415352 0.0018764875 0.02284557 -0.01057095
0.03383905 -0.0101201935 0.0023172693 0.015349706 -0.014355954 -0.027456047 -0.027026288 -0.0010757843
-0.01705283 -0.026016688 0.029987594 0.009579624 0.021007532 0.028167447 -0.016676717 0.01120561
-4.1107436e-05 -2.8622974e-08 6.73746e-09 2.974913e-39 -3.673074e-05 1.947397e-39 -2.1074304e-06 -5.807844e-06
-2.1865121e-25 -2.6758534e-10 -5.0156228e-08 -5.7320444e-06 -2.1680773e-06 -1.3230632e-06 -1.3819144e-06 2.3247574e-07
-2.395883e-08 -5.3504337e-24 -1.5431344e-06 -1.2043209e-23 -3.9558837e-10 -6.962614e-07 -6.1519455e-07 -1.8534289e-20
-2.4905135e-05 -7.686424e-06 -2.1481998e-21 -3.0288991e-05 -2.3949294e-06 -4.2799114e-05 -7.5063195e-05 7.48191e-15
0.03473912 0.06901563 0.031945173 1.0477652e-07 -0.010913077 0.0017901798 0.06514595 0.0018669828
-0.006813606 -0.011664581 0.030205976 0.04815773 0.010282616 0.0054811924 0.031006595 0.007623386
0.0069399425 -0.005708107 0.00059003563 -0.025924757 0.032655213 -0.038912985 0.117082976 0.026498782
0.13462898 0.008101926 0.028993193 0.063530885 0.031008964 -0.074804105 0.029829485 -0.025257362
-0.0036374528 0.077847004 0.046850245 -0.00012979736 -0.08420982 -0.00018376594 0.0467324 0.012375555
-0.022484928 -0.014038416 -0.016472803 0.010055835 0.014151765 -0.08522014 -0.1122811 -0.07114148
-0.012666431 -0.001719497 0.033357035 -0.036336802 -0.02875597 0.014147899 0.0068750936 0.0634105
0.018180868 0.004515221 0.10363904 -0.048165098 -0.06287062 -0.099292 -0.10493373 -0.03179499
-0.0007352515 -0.0016396937 -0.001922065 4.104304e-39 -0.00096295105 3.2219653e-14 -0.00074941234 0.0006387324
-9.851407e-05 -0.00019811075 -0.00014041786 -2.5040676e-05 0.0006432572 -0.0006192589 -0.00036373505 -0.000882027
-0.00067622226 -0.0006507081 -0.00075363973 -0.0003289747 -0.00068553357 -0.0019251034 -0.0016492737 -7.659177e-05
-0.0028350886 -1.9779127e-05 -2.2362789e-05 -0.0014530156 -0.00013898526 -0.0027728048 -0.0009147119 -0.00042507928
-0.0030626582 0.0013657374 -0.0072343675 -2.372893e-39 -0.021250058 -4.24777e-40 -0.00987081 -0.016182235
-0.014773558 -0.007904344 -0.0016887975 0.00012486332 -0.008945199 -0.011880043 -0.0024181765 -0.011537295
0.0002951734 -0.005569652 0.0018510907 -0.014200741 -0.010941253 -0.0040159565 0.00060689653 -0.0013491852
-0.019775022 -0.009483276 -0.00039026322 0.00037338087 -0.00119824 -0.013943685 -0.013043635 -0.0038609088
-0.033250745 -0.029462846 -0.022814488 3.535632e-39 0.016550217 -0.00032377208 0.05415904 0.013337631
0.011055274 0.02311827 0.022660498 0.07246915 0.017773947 0.060263827 0.053873494 -0.013949353
-0.020138187 0.019429995 -0.0094321035 0.006288526 -0.036538213 0.022493955 0.0131018525 0.011563078
0.00307493 -0.043492347 0.021481752 0.022480771 0.05015724 -0.018129 0.0012763722 -0.007916464

weight f4 [8, 32]
00000000: 38cd 743d 9379 2dbe 9066 67be 1165 f835
00000010: eb42 b23d 9c79 9c3d 11fc 923d 578e ab3d
00000020: 2ff7 c4bd 0ef2 253c 3d51 3f3e 3288 c43d
00000030: 525a 293e 16e1 963d 0fb1 5f3e 75a9 be3d
00000040: 2eea e63d 81b3 8a3d b296 30be 46fd 26be
00000050: a3d3 a3bd 5577 48bd 52cc 183e a73b a53d
00000060: d16f 2abe a2e3 c93c 7318 353e 7e8b 963d
00000070: d8ad 243e ac5b 69be 0e6c 08bc 3e9c 3bbd
00000080: 7d6d ca3e 2ba0 a1bd 6e00 5b3d 269c abb8
00000090: e410 b0bd d5ec c13c 6854 abbd 0d25 fe3d
000000a0: be07 c2bd c4d2 693e f2d3 21bd 991e 49bd
000000b0: c047 a23d c48a 1bbe 13e5 09be 84ff 1d3d
000000c0: 1f9b 8f3e 93a2 ac3d 8418 513e 7002 0b3d
000000d0: f691 52be 2117 76be 2094 d939 60c0 11be
000000e0: 3432 55be 4e83 c83e 7ee6 b4bd 581c 003e
000000f0: 08e0 60bb daed ddbb 91db d83e 230d 873e
00000100: 9c0f 0d3e a5e0 623c b143 043e adf3 73b7
00000110: 92d1 1b3e 8a24 08be 8edd 57be 1084 273d
00000120: 1f06 95bc ec9c 35be 66f0 3f3d a959 2c3e
00000130: 2f49 e83d f6d0 cc3d 96cf 62be 111a 243e
00000140: 047c b43d 82e6 ab3d 9b71 03be 6d09 a33d
00000150: 17b7 9a3c 6ee6 533d 8c39 993d 99ae 6d3d
00000160: d5b0 2fbe 9280 bb3c c63a 5a3d ad73 8f3d
00000170: 2264 353e 9956 0fbe 9f6f 1cbe 0df1 babd
00000180: dc63 65bd d36d 523d b792 af3d f0f1 02b9
00000190: 96f2 7bba ccbb 9dbd d828 1d3e 3cfc ddbe
000001a0: c97f 113e 90f6 37bc 19ea b63d 3898 cdbd
000001b0: cbae 8ebe 7863 03bd fe23 873e 0ca3 733e
000001c0: e684 b3bd 5a3b cfbd fa76 273d 14c0 7c3d
000001d0: 1bd1 fc3d 5417 b5bc f745 b9bd 2254 c73c
000001e0: 5ad0 86bc 2c82 f9bb f494 23be eb7c f638
000001f0: b02a e43d 6951 813d 4465 e03d cc48 923d
00000200: 200b f63c 4092 72bd 0f70 0dbe 65da a332
00000210: be22 e93d 9e93 953d 323b 803c be84 5e3e
00000220: aecc 21bd 5aa7 6abd b16d 9f3d 7855 e4bd
00000230: 4afd 223e 8aa2 2fbc eccd 203e 34e7 43be
00000240: cffe 75bd 69b8 3b3e 771d 653d 9b19 1bbe
00000250: f496 093e 94c7 a73d 5419 053e 32cd 8fbd
00000260: 139a a3bc 13a0 5bbd a4e7 923d c5a1 ea3d
00000270: 911f 80bd a539 6cbe 4869 88be 57c8 74be
00000280: de52 5abc d2b1 23be 7401 a9be 2a4b 2739
00000290: 0254 43be 9568 0d3d 2aa5 6bbe 3667 893c
000002a0: 1adf bbbc f2a4 96bd 0e21 743d e828 0abe
000002b0: 8f9c bfbc 72d0 1abe 707a 693c 7e94 c73c
000002c0: 4f0f 8cbd 634a 703b d82c a4bd 03d8 02bd
000002d0: caf8 a03c a331 f5bd c1ef 62be 0335 9a3d
000002e0: e93f 8bbe 18ec 9cbd 375e 91bc ec06 09be
000002f0: 543c 3e3d 5662 25be d971 2dbe 1270 0fbd
00000300: dd7a 9fbc 9106 533e abd6 353e ce5c 1036
00000310: 8830 91be be37 50bc d78c 7bbd 2cde f5be
00000320: 3a69 793e 9de2 9c3e 5cbd a1bd 664b 2b3d
00000330: ea0a 93be 28a2 a63d e44f 4bbe 7a49 74be
00000340: 07a2 fdbd b281 a5be 9bfb 8ebd 0d7d 113e
00000350: b054 88bc 24aa 5bbc ccbe 523d 8980 e53c
00000360: b21b 923e a3b8 02be 537c b63d f9fe a6bd
00000370: bed4 03be c1c4 f73b ee76 853e 53e5 3a3e
00000380: 8f9d f13d f62a 2c3e 0181 bd3d 8543 883a
00000390: cfa3 933d c8f4 a83c f8ec 503e e56d e43e
000003a0: 8679 08be aa22 73be 4fbe e7bd 6e5e 613b
000003b0: 1ac3 ed3d 7e99 fbbc 50e0 b2be 43a2 66bb
000003c0: ff6a 14be 17e9 00bd 1367 2a3e 513e 8fbc
000003d0: aa0e f53c ad47 963e d4b3 ebbc 7ce9 e63d
000003e0: ee8c 873e 6349 9ebd d591 263d f3cd 1a3e
000003f0: 267c 28be 0dfd 743d a0c9 663d ec51 22be
0.059766024 -0.16940908 -0.22597718 1.8506854e-06 0.0870417 0.07640383 0.07176984 0.083767585
-0.09617459 0.010128511 0.18683334 0.0959629 0.1653836 0.073671505 0.21844886 0.09309665
0.11275135 0.06772519 -0.17244986 -0.16307554 -0.07999351 -0.04894193 0.14921692 0.080680184
-0.16644217 0.024644677 0.17685108 0.07350825 0.16081941 -0.22788876 -0.0083265435 -0.0458033
0.39536658 -0.07891878 0.053467207 -8.183e-05 -0.08596972 0.0236725 -0.083657086 0.124094106
-0.09474133 0.22834307 -0.039508767 -0.049101446 0.079238415 -0.15189654 -0.13466291 0.038573757
0.28048036 0.08429446 0.20419508 0.03393787 -0.20563492 -0.2403226 0.00041499827 -0.14233541
-0.20819932 0.39162678 -0.088330254 0.12510812 -0.003431322 -0.006772739 0.42355016 0.2637721
0.13775486 0.013847505 0.12916447 -1.4540664e-05 0.15216663 -0.13295189 -0.2108061 0.04089743
-0.018191395 -0.17735642 0.04686012 0.16831078 0.11342084 0.10000794 -0.221495 0.16025569
0.088127166 0.08393575 -0.12836306 0.07960782 0.018886132 0.051733427 0.07481679 0.058027837
-0.171573 0.022888456 0.053278707 0.07004485 0.17713979 -0.13997878 -0.15276955 -0.09128008
-0.056003436 0.051374268 0.085729055 -0.00012487895 -0.0009611038 -0.07701835 0.15347612 -0.43356502
0.14208902 -0.011228219 0.08931369 -0.10038799 -0.2786773 -0.032077283 0.26394647 0.23792666
-0.08765583 -0.10118742 0.04088495 0.061706617 0.12344571 -0.02210585 -0.09046548 0.02433211
-0.016456772 -0.0076143946 -0.1597479 0.00011753462 0.111409545 0.06314356 0.10956815 0.07142791
0.030034602 -0.059221506 -0.13812278 1.9075012e-08 0.1138358 0.07303546 0.015653227 0.21730325
-0.03950184 -0.057288505 0.07784594 -0.11149114 0.15916935 -0.010719905 0.15703553 -0.19131166
-0.060057458 0.18332066 0.055936303 -0.15146486 0.1343649 0.081923634 0.12997943 -0.0702156
-0.01997093 -0.053619456 0.07173088 0.11456636 -0.06256021 -0.23068865 -0.26642823 -0.23904549
-0.013325421 -0.15985802 -0.3300892 0.00015954362 -0.19075015 0.034523565 -0.23012224 0.016772848
-0.022933532 -0.073556796 0.059601836 -0.13492167 -0.023390083 -0.15118578 0.014250383 0.024362799
-0.068388574 0.0036665432 -0.08016366 -0.031944286 0.019649882 -0.11972358 -0.22161771 0.075296424
-0.27197197 -0.07662219 -0.01774512 -0.13381547 0.046444252 -0.16150793 -0.1693796 -0.035018988
-0.019467765 0.20607974 0.1775767 2.1511692e-06 -0.2835734 -0.0127086025 -0.061413612 -0.48021066
0.24356547 0.30641642 -0.078974456 0.041819952 -0.28719264 0.081363976 -0.19854695 -0.23856154
-0.1238442 -0.32325512 -0.06981584 0.1420786 -0.016641945 -0.013407264 0.05145149 0.028015392
0.28536755 -0.12765746 0.08910432 -0.08154101 -0.12874123 0.0075612967 0.260673 0.18251543
0.1179763 0.16813263 0.09253121 0.0010396099 0.072089784 0.020624533 0.20402896 0.44615093
-0.13327608 -0.23743692 -0.11315595 0.003438856 0.11609478 -0.03071284 -0.34936762 -0.003519193
-0.14493941 -0.03147229 0.16640882 -0.01748577 0.029914219 0.2935156 -0.028772272 0.11275002
0.26474708 -0.07728841 0.04066642 0.15117626 -0.16453609 0.05981164 0.05634463 -0.15851563

c f4 [8]
00000000: 03bd 67be 51de cd3e b280 733d 558c bdbd
00000010: fecf 24bd 2f8a 20be 0e88 893d 5e8a 89be
-0.22630696 0.40208676 0.059448905 -0.09255282 -0.04023742 -0.15677713 0.067154035 -0.26863378

bias f4 [128]
00000000: acd4 4a3e 1064 85bd 8cea 3fb9 054e c13d
00000010: b7c3 e8be 8310 f33d e409 713e 7c86 483e
00000020: 239e efad f1de 803e daae 7cab 4854 853e
00000030: 69f3 d73d 69f0 c1be e0d8 4ebe 9bfa 4cba
00000040: 4006 92a8 54c4 d2be be5b 02ab 6564 e0bb
00000050: 7258 c7bd 9681 923d 12a6 b53d 8093 213d
00000060: 5706 8a3a 6936 2c3e 547d 3aba 9176 22bb
00000070: b70d 9fa5 2711 3c3e f87e 0c3d b4ed 2cbb
00000080: 8413 b1ba 9de8 a4be 9790 9eb2 e1b1 b53d
00000090: 5abf b93e c3ef 3fbb 7a79 273e cac3 a9be
000000a0: 6a1f 35a1 d9c6 05bb b251 e6be 366c ce3d
000000b0: 95ab 623e 737f 83be b5ad 9bbb 592b 993c
000000c0: e555 06bb 1f34 5abe e879 993e 0c7a 8fba
000000d0: a1b4 99b8 48bd 9e99 1f00 a33d f151 bdba
000000e0: f028 80bb c760 933e 80b8 3c3e 304e 65bd
000000f0: 7d55 96ba ccb0 b63d 9927 a9be 8d36 a13e
00000100: 4d77 01b9 e6e3 25b3 2e6e 62bb a7e2 67bc
00000110: 3fe9 3bb9 a962 798e f6df 32b9 f9c8 8c3c
00000120: 3e2a 8db9 aa8c 8bb4 e655 60b3 4117 0c3e
00000130: 912b 68a4 283c ecb8 480f 75bd 6fb1 b93d
00000140: 6fa8 683d fda3 bb3d be68 52b3 95d3 b2be
00000150: e87e edb9 c9e8 42bb 9c00 0ca7 457a d1ba
00000160: 2c1f 953d ce7d 12b2 2cc6 e2ba 67f6 388c
00000170: 4157 82b7 a334 a5be 5209 5fbb 10c3 bbba
00000180: a216 3cbc 2ba8 403e 90e1 35ba 7c27 14a7
00000190: 7a5f 36b9 2c60 7bbb 4058 c23c 1726 8abb
000001a0: 5e63 62be 7015 6095 cf31 a8be 7b83 4791
000001b0: f50b 85ad 296b 68bb 7d28 a43d cd9a 3f3c
000001c0: 2871 b83d d050 a7aa 2937 bebe 9db1 47b9
000001d0: 927a 86a7 99c1 7dbe 666d 283e 16f4 2b3e
000001e0: ee2e 27bb bb2b 27bb 7b2a 0f3d 74b6 a4a9
000001f0: 4db3 d1ba 1284 3fbe 2528 74b9 d99c 19ba
0.1980769 -0.06513226 -0.00018302555 0.09438709 -0.4546182 0.11868384 0.23538929 0.19582552
-2.7241381e-11 0.2517009 -8.977104e-13 0.26040864 0.10544474 -0.3787873 -0.20199919 -0.00078193255
-1.6211967e-14 -0.4116541 -4.6312596e-13 -0.0068479055 -0.097336665 0.07153623 0.08869566 0.039447308
0.0010530454 0.16817631 -0.0007114012 -0.002478991 -2.7591397e-16 0.18365918 0.034300774 -0.00263868
-0.0013509844 -0.3220872 -1.8459373e-08 0.08871818 0.36278802 -0.0029287196 0.16354933 -0.33157188
-6.136676e-19 -0.0020412712 -0.44984204 0.10079233 0.22135766 -0.25683174 -0.004750932 0.018697428
-0.0020497974 -0.21308945 0.2997582 -0.0010946407 -7.329253e-05 -1.6413267e-23 0.079590075 -0.0014443976
-0.00391113 0.28784773 0.18429756 -0.05598277 -0.0011469569 0.0892044 -0.33038023 0.3148693
-0.00012346842 -3.862433e-08 -0.0034550535 -0.014153159 -0.000179206 -3.0739123e-30 -0.00017058835 0.017185675
-0.0002692509 -2.5993114e-07 -5.223219e-08 0.13680746 -5.0343883e-17 -0.00011264562 -0.059829026 0.09067046
0.056801256 0.09162138 -4.8989698e-08 -0.3492705 -0.00045298715 -0.0029740802 -1.9429233e-15 -0.0015981874
0.07281336 -8.526923e-09 -0.0017301491 -1.4248993e-31 -1.5537838e-05 -0.3226672 -0.0034032655 -0.0014325101
-0.011480005 0.18814151 -0.00069382135 -2.056053e-15 -0.0001739244 -0.0038356883 0.023723722 -0.0042159664
-0.22108218 -4.525335e-26 -0.328505 -1.5738848e-28 -1.512566e-11 -0.0035464263 0.08015535 0.011694622
0.09005958 -2.9721234e-13 -0.3715146 -0.00019044285 -3.7325362e-15 -0.24780883 0.16447982 0.1679233
-0.002551015 -0.0025508243 0.034952622 -7.3147136e-14 -0.001599887 -0.18702725 -0.00023284608 -0.0005859859

weight f4 [1024, 64]
00000000: 0324 0400 8e77 0bbd 301a 4830 4e72 b43b
00000010: 79db c73b 4824 8cba 66c6 ccba 9c7a bf3a
00000020: f202 9036 e5bb 153c 2cef 893b fc7b 82bb
00000030: ba56 9992 7887 40bc ee99 de3b b51e 093b
00000040: f415 ad3b 7522 0700 c9d3 9b3c ed94 6d3b
00000050: f77c 433b a0ee 82bc 8f7c 79bd 090b 363c
00000060: 1dbf 443a 9227 53b7 c519 a53c 65af 8a3c
00000070: 49a7 3e3a 3abd c028 9be4 603b 6401 ab3c
00000080: 37ac b136 4960 0dbd b568 403c 35c1 1fbb
00000090: d0cc b5bb 5976 0abc c463 023d bcda 903c
000000a0: 5962 c63b 7f09 383c e2be ba3b fcc0 143b
000000b0: 10df 5fbc a9b4 4400 b176 613a 815b 0fb8
000000c0: a529 b43b 9345 7839 523f 02bd e975 bd3b
000000d0: c7f4 f53b 0cca 223b 7b35 92bc 1ed0 24ba
000000e0: 0ac5 92bb 62f5 913b 53f0 dabc 8611 383a
000000f0: 7aa7 c038 76a1 203b f6ec f0bb 0f48 463a
00000100: be91 1a80 5002 72bb 78b9 2080 cee3 1c22
00000110: da1d 0e00 239f cc36 2398 d4bb ed85 84bc
00000120: 9c3f 3b80 82b7 41bc 7dc1 4dba b8c9 b8bc
00000130: 177d 3b80 c3d5 b3bc 38cf 65bb 9eac 76bd
00000140: 824e 1fbb 3a2f 0180 3988 5f3c 39b5 1bbd
00000150: cc1e 2f3c d51a 1437 fcb6 36bd d0fd 0abc
00000160: 1041 193c 6f73 fc9c bac5 78bc 5cf1 b83a
00000170: 3f3c 9231 67c6 1080 71a1 b43c 6e46 833d
00000180: 7e1a 43b8 0af3 54bd 56a7 49bb b71b 243d
00000190: 651c 51ba e02d a0b9 5f0b 9abc 060d c33c
000001a0: 36c4 57bc fac3 b63c 1944 023d 4e59 a23b
000001b0: 0c0c 593b 4bdb 3000 8ca0 2d3c 7b3e 17b7
000001c0: 4372 a33c 8d4a 243b ea8d 0dbd 811a 60bd
000001d0: e95b 86bc c96d 46bd 3970 f0bc 710e 8536
000001e0: 71ed 733c 7d16 063d 4c30 55bc 1645 eeb7
000001f0: 304b c2b4 c584 4a3b e5f7 84bc d74b 8c3b
00000200: 6c12 2700 0404 8db4 409e b381 29af 30a6
00000210: a821 7bab 0076 6082 c308 1800 4e40 dd10
00000220: 80e2 0c82 2438 a9b9 f5e1 fbaf 9bc1 b5b8
00000230: d2ac d001 7ef3 93b5 b852 249c b005 00b7
00000240: f830 0a00 d000 cb81 d296 f52c 0489 adb7
00000250: 0013 2f81 b671 7bab 8d72 0bba a9f7 a8b6
00000260: 5f93 9e34 4edf 4900 e8a5 3b33 213a c330
00000270: 0ce9 ac01 401b 2e80 1396 4000 5528 3480
00000280: 698a 3f00 fe5b 2395 92aa 0f11 5c54 9cb3
00000290: 6a65 5a93 9c3d e7b2 6314 d8b2 e7d6 1f00
000002a0: 3520 acb7 3e20 1300 f46d 0080 d883 1980
000002b0: 8496 17b8 b3e2 0900 59ca 81a4 0073 af81
000002c0: cdc1 e12b b896 3380 2af1 abb9 e641 15b8
000002d0: d5ae e3a8 daf7 09ba b5dc 2e00 80db 4281
000002e0: e72a 1db5 c5b4 0980 1346 7833 66ce 0000
000002f0: a87a a000 9ee8 0800 c7e5 62b2 2b58 2300
00000300: 1f39 0a00 e694 0c3d 7048 1e15 a581 693b
00000310: e9af 8fbb e278 693a 8484 b3ba 8fc2 203a
00000320: 85ed 8734 754b 193c aca9 f43a 1d78 abbb
00000330: b3bb 641f e8db 653c 626b db3b bf18 553d
00000340: c0e9 753b fcc1 1000 c0dc 5e3c dc0f 1a3b
00000350: 8762 9fbb 031b 0c3c efdb 06bd 6b21 843c
00000360: 3349 78bc 2f36 2435 6898 183d 31ad 503a
00000370: 211f 87b8 36e7 642c 8e34 4dbb d344 ab3a
00000380: a1ae 313a 7cdb 903b 0b30 133a f809 a23c
00000390: edc0 203b 3b09 87bb a644 f53c 20db 0e3b
000003a0: cf50 f2ba bd13 0d3c a5db c4bb 465b 50bb
000003b0: c66f 0cbc 03c5 2c00 4e2b f03b 95d7 50ba
000003c0: 3266 d7bb e371 e3ba 6e0c b9bc 4660 153d
000003d0: c8c7 293c f878 7a3d 3cf5 00bc e841 1039
000003e0: f7c1 17bc 95ee bbbb 1e0c d6bb 618e 91bb
000003f0: bcb2 393a 58f1 d2ba 57fa 4bbc aeda abba
3.8026e-40 -0.034049563 7.279679e-10 0.0055067902 0.006099161 -0.0010691965 -0.0015623092 0.0014608684
4.2918773e-06 0.009139036 0.0042094197 -0.0039820652 -9.677037e-28 -0.011751048 0.006793252 0.0020922844
0.005282158 6.5521e-40 0.019021885 0.0036252097 0.0029829124 -0.015982926 -0.060909804 0.011111029
0.0007505285 -1.2585793e-05 0.02015389 0.016929338 0.0007272852 2.1398346e-14 0.0034315947 0.020874687
5.2950595e-06 -0.034515653 0.011743714 -0.0024376635 -0.005548097 -0.008451068 0.031833425 0.017682426
0.0060542044 0.011232733 0.0056990245 0.0022698035 -0.013664022 6.309622e-39 0.0008600755 -3.4179076e-05
0.0054981285 0.00023677041 -0.03179867 0.0057818783 0.0075059864 0.0024839668 -0.017847767 -0.00062871154
-0.0044790553 0.0044543007 -0.026725924 0.0007021654 9.1864684e-05 0.00245103 -0.0073524667 0.0007563838
-2.440005e-39 -0.0036927648 -3.00527e-39 2.1262541e-18 1.296406e-39 6.0981997e-06 -0.0064878627 -0.016177142
-5.441113e-39 -0.011823537 -0.00078489614 -0.022557124 -5.463168e-39 -0.021952515 -0.003506614 -0.060223214
-0.002430827 -1.08777e-40 0.013643318 -0.038014624 0.010688495 8.827735e-06 -0.0446081 -0.008483365
0.009353891 -1.67058e-21 -0.01518386 0.0014110017 4.2560084e-09 -1.540541e-39 0.022049638 0.06409918
-4.6516296e-05 -0.051989593 -0.0030769906 0.040065493 -0.00079769484 -0.00030551758 -0.01880425 0.023809921
-0.013169339 0.022310246 0.031803224 0.0049544936 0.0033118753 4.486771e-39 0.010597359 -9.014849e-06
0.019951945 0.002506885 -0.034559168 -0.054712776 -0.016401248 -0.048444543 -0.029350387 3.96539e-06
0.014888153 0.03273629 -0.013012003 -2.8403982e-05 -3.6190022e-07 0.003090189 -0.016231487 0.0042815018
3.588193e-39 -2.6266218e-07 -6.5981293e-38 -6.129965e-16 -8.921982e-13 -1.6490785e-37 2.207195e-39 8.726821e-29
-1.0350578e-37 -0.0003227602 -4.5817186e-10 -8.6668144e-05 7.665512e-38 -1.1023219e-06 -5.436996e-22 -7.630719e-06
9.35922e-40 -7.457159e-38 6.9800632e-12 -2.068701e-05 -3.2156055e-38 -8.933092e-13 -0.00053194986 -5.0356216e-06
2.953702e-07 6.784098e-39 4.369022e-08 1.4204639e-09 6.351723e-38 -4.234208e-39 5.931308e-39 -4.789914e-39
5.835288e-39 -3.2990157e-26 1.1333272e-28 -7.279661e-08 -2.756547e-27 -2.6919956e-08 -2.515498e-08 2.923993e-39
-2.0518995e-05 1.756441e-39 -3.9444e-41 -2.343184e-39 -3.6141384e-05 9.07844e-40 -5.628762e-17 -6.4449864e-38
1.6041002e-12 -4.737678e-39 -0.00032795343 -3.558574e-05 -2.5277884e-14 -0.0005263068 4.303608e-39 -3.5789656e-38
-5.854949e-07 -8.91367e-40 5.780573e-08 7.4042e-41 1.473768e-38 8.18131e-40 -1.3207177e-08 3.245871e-39
9.38846e-40 0.034321688 3.196499e-26 0.0035630253 -0.004384984 0.00089062576 -0.0013696109 0.0006132507
2.5318528e-07 0.009356369 0.0018666289 -0.0052328245 4.843614e-20 0.0140294805 0.0066961506 0.052025553
0.003752336 1.538956e-39 0.013602436 0.0023507988 -0.0048640403 0.008551362 -0.03292459 0.016129216
-0.015154171 6.117361e-07 0.03725472 0.0007960378 -6.4431e-05 3.2529097e-12 -0.0031311843 0.0013066776
0.0006778036 0.004420696 0.0005614764 0.019780144 0.0024529055 -0.0041209734 0.02993996 0.002179809
-0.0018487218 0.008610663 -0.006007629 -0.0031792684 -0.008571571 4.111436e-39 0.007329381 -0.00079666945
-0.006573462 -0.0017352666 -0.022588935 0.036468767 0.010362573 0.06115052 -0.007870968 0.00013757462
-0.009262553 -0.0057352283 -0.006532206 -0.0044420217 0.00070838234 -0.0016093655 -0.012449822 -0.0013111436

weight f4 [8, 64]
00000000: 807e 0e80 5255 14bd 1819 b316 be96 453a
00000010: 39f4 6b3d 1d9a 6537 455f e73a 0885 fabc
00000020: 99e4 1080 df4e 78bc 1551 8c3d 05fe 4dbe
00000030: 110f 0100 b363 e2bd 4a69 003c cde1 473d
00000040: 6665 4b3a bc34 1a00 b999 f83c 1850 a93d
00000050: 9530 963a 23c9 b53b cb27 c1bd 421e 903d
00000060: 471d 57bc d003 4731 0c13 e3ba c9fd 0d3c
00000070: 45fb 53bb bc59 08ae 68fc babb 2ce9 0cbc
00000080: 4d02 08b8 7a4d 84bd a4c9 003d 1bf9 2cbd
00000090: 2a96 96bd 41f6 4dbd aec3 0b3d 1a35 48bc
000000a0: 0f58 efbd 1b78 1d3c 4b3e 5d3d 043b cf3c
000000b0: 15a9 043d 153d 2a36 e9ed 47bc ee62 7bb7
000000c0: 3748 0dbd d02d 263a 6750 113d 02a0 24bd
000000d0: ba6c 9a3a 41ab 2f3d 2c0b d43b 1a8c 1d3a
000000e0: 193c 6abd 129a abbb 437c 11ba 431b acbc
000000f0: 8fca f2a6 2a22 7dbc ff99 d6bc 68a2 3bbc
00000100: 9d25 0e80 f4ad a23c 2b2e 8b2f a937 7cbd
00000110: 5daa 003d adf6 c4b8 8ccb 373e 5b26 b03e
00000120: cb83 112c 27a6 c0bc 62f1 193d a1ff b6bc
00000130: 1bac f0aa 1312 02bd fd50 ab3d 0805 be3c
00000140: 0c45 9bba c762 0f80 1052 5dbe 46f7 cebd
00000150: 5956 eeba f72b fe3d 1c25 173d 74a0 eabc
00000160: 13ee 1fbd 76e5 3ab8 cc90 d7bd 460e 14be
00000170: 5d48 8db9 fa37 c2b7 c7ff 0c3e 2a5f 49be
00000180: dbae 8f3a e8e2 e83e 6546 2bbe da1d a53c
00000190: 9351 363d 8a90 973d dafd 4cbe dbc5 10be
000001a0: cd20 313d 72dd 24be 91dc 43be 94c6 d4bd
000001b0: cedc f03c ee34 39b8 ebc2 2a3d 6403 caba
000001c0: cd63 ddbd 6f96 75bb e623 093d 1465 ba3c
000001d0: 0593 84bd f9e0 1dbd da76 303f 6699 6f3b
000001e0: 8af2 2cbe 0d65 cfbe 7936 d3bd c05f f13d
000001f0: c23a 22b7 0f69 453e be68 ad3d 4785 b3bc
00000200: afde 1200 fdc4 30be de49 4220 5d54 d8bc
00000210: 41ff 83bd 9334 be38 d353 533a e26b fe3b
00000220: 3212 2aad 9067 b83d e728 263d b949 793d
00000230: b9f7 ae10 0425 9dbc adc3 ffbd 3f58 673c
00000240: 1164 87bb 29b2 1980 91fb 8c3d f10c 56bd
00000250: a823 a439 5f95 efbb 9bf5 d43c d833 cb3c
00000260: ea35 033d 9798 8632 7980 e43b 3458 f139
00000270: f09a baba 32bd 8735 c55f 123c ea27 103d
00000280: ddb2 713a a2a0 5cbb 44e2 523d e891 09be
00000290: a377 86bc 51f3 db3d 5061 2abd 4554 283c
000002a0: e03d ad3d cf7b 8abc 313c 4fbd a0ab 2f3d
000002b0: 1199 bcbd eb0d d837 17c0 adbc 5a3b 91b9
000002c0: 8ffe 42bb 33aa 253c bfdd 94bc b410 cc3d
000002d0: c97f aabd dfa3 cebd a402 b23d 1d38 263a
000002e0: 6da6 a2bd c955 92bc 1511 6d3d c6c1 a03c
000002f0: 8c23 7bb3 4ce5 d6bb 77f4 393c 40ac 9dbc
00000300: 4a0b 2e80 428f 01bc c16f fdaf c4f6 e8bd
00000310: 8e1a 033d 4ee2 6b38 4fb7 49bb 01a8 5ebd
00000320: 818b a4ac 1c5f b23d 3a6e d6bc 3ec7 b1bd
00000330: d84b d12b 238f d8bd 078a 873c 23d5 cbbd
00000340: 3b8d 1e3b 05f9 2b00 0a77 183d 8052 06be
00000350: caf7 6f3b 9689 e53c f0d2 b93c 8dd7 cbbc
00000360: f194 b9bd 96c5 de37 b29a 4d3d 7e7a bf3c
00000370: d8ed 413b b7db bf37 80f4 45bb b46d 943b
00000380: e442 823a 0df6 233d 3c2a 0cbb f57b 09bd
00000390: 6f15 2dbd 72dd ad3d 6f8b 123c 8693 27bd
000003a0: 4051 f738 5a29 dc3c 142f 3a3c 37ed bb3c
000003b0: f86b 313d be27 efb8 5adb 2fbd 8dda 753a
000003c0: d8a2 963d edfb 9d3b 8b64 a9bd f556 4dbd
000003d0: 465d dc3c 2a86 1fbd 3593 8e3b 20b6 25bb
000003e0: e4ef 14bd 2d12 073d 3afd fabb 064f 37bd
000003f0: 03e1 8ab4 3c09 4db7 eaec 4ebd 0e6a 53bc
-1.331077e-39 -0.03621418 2.8934846e-25 0.0007537416 0.057605956 1.3685346e-05 0.0017652294 -0.030581012
-1.551373e-39 -0.015155523 0.06851403 -0.20116432 9.724e-41 -0.11054172 0.007837603 0.048799325
0.0007758945 2.40664e-39 0.030346738 0.0826723 0.001145857 0.005547659 -0.09431418 0.07037021
-0.013129539 2.8960478e-09 -0.0017324402 0.008666464 -0.0032345813 -3.100252e-11 -0.0057063587 -0.008600514
-3.242707e-05 -0.0646009 0.0314423 -0.042229753 -0.0735286 -0.050283674 0.03412216 -0.012219692
-0.11686718 0.009611155 0.054014485 0.025296696 0.03238781 2.5367528e-06 -0.012202718 -1.49838e-05
-0.034492698 0.0006339224 0.03547707 -0.040191658 0.0011781671 0.04288793 0.0064710584 0.00060099515
-0.05718622 -0.0052368725 -0.00055498275 -0.021009093 -1.6847027e-15 -0.01545004 -0.026196478 -0.011452295
-1.29919e-39 0.019858338 2.5316757e-10 -0.06157652 0.03141247 -9.391955e-05 0.1794874 0.34404263
2.06789e-12 -0.023516728 0.037583716 -0.02233869 -4.2751986e-13 -0.03175552 0.08365057 0.023195758
-0.0011846139 -1.412967e-39 -0.21613336 -0.101057574 -0.0018183693 0.124107294 0.036900625 -0.028640963
-0.039045405 -4.4559558e-05 -0.10525665 -0.1445857 -0.0002694753 -2.3152668e-05 0.13769446 -0.19665208
0.0010962145 0.45485616 -0.16726072 0.020155836 0.04451139 0.074006155 -0.20018712 -0.14137976
0.043244172 -0.161001 -0.19127108 -0.10389438 0.029402163 -4.415673e-05 0.041689795 -0.0015412387
-0.10810051 -0.0037473699 0.0334815 0.022753276 -0.06473354 -0.03854463 0.68931353 0.0036559938
-0.16889396 -0.40506783 -0.10313124 0.11785841 -9.669633e-06 0.19278358 0.084672436 -0.021914138
1.732923e-39 -0.17262645 1.645688e-19 -0.026407415 -0.0644517 9.069699e-05 0.0008061502 0.0077643255
-9.667421e-12 0.09004128 0.04056635 0.060861323 6.9012576e-29 -0.01918269 -0.12488494 0.014120161
-0.004131802 -2.359799e-39 0.0688392 -0.052258436 0.00031307084 -0.0073115076 0.02599602 0.024804994
0.03203384 1.5669043e-08 0.006973323 0.00046032818 -0.0014236849 1.0113347e-06 0.008933966 0.035194315
0.0009220073 -0.003366508 0.051485315 -0.13434565 -0.01641447 0.10739768 -0.04159671 0.010273998
0.08459067 -0.01690474 -0.050594512 0.042888284 -0.092088826 2.5755688e-05 -0.02120976 -0.00027700776
-0.002975378 0.010111379 -0.018172143 0.09964123 -0.08325154 -0.1008985 0.0869191 0.0006340759
-0.079418994 -0.017863171 0.05787762 0.019623648 -5.847282e-08 -0.006558096 0.011349789 -0.019247174
-4.228483e-39 -0.0079076905 -4.6099838e-10 -0.11375192 0.032007746 5.623913e-05 -0.0030779426 -0.05435944
-4.6766484e-12 0.08709547 -0.026175607 -0.086805806 1.4871394e-12 -0.10574176 0.016545309 -0.09952762
0.0024193067 4.038258e-39 0.0372229 -0.13117409 0.00366162 0.028019708 0.02268359 -0.024883056
-0.090616114 2.655647e-05 0.050196357 0.023373839 0.0029591229 2.2871287e-05 -0.0030205548 0.004529679
0.0009938148 0.040029574 -0.0021387478 -0.03356548 -0.04225677 0.08489503 0.008944376 -0.040912174
0.00011793012 0.026875187 0.011363763 0.022940261 0.043315858 -0.00011403811 -0.0429338 0.0009378575
0.07355279 0.0048212917 -0.0827113 -0.050131757 0.026899945 -0.03894631 0.0043510445 -0.0025285557
-0.03636159 0.03297632 -0.0076595815 -0.044753097 -2.586822e-07 -1.2221102e-05 -0.050518908 -0.012903703

weight f4 [64, 128]
00000000: 02a8 a33c d235 aa3d 8210 8aba 97aa 103c
00000010: 537d f03d 67d4 d83d c612 183d 0b99 2a3d
00000020: 6cab e1a1 5747 f4bc 01e3 1ea5 8b91 b93d
00000030: 7f2c 093d 20fa f43b ea86 303c 9801 0337
00000040: 6bb7 e31a 44d5 b03d 28a1 a89c 170a a4ba
00000050: 85f9 abbb 7dd7 d0ba d333 ac3c db07 603c
00000060: 0ae2 cfba 7c8d 503d c8e8 cbac 2840 a93a
00000070: 5ee9 1580 a6ab 01be 6648 bdbb ff1d 743b
00000080: 213a 2f37 2e3b 253d bd1b 3c32 e054 833c
00000090: 6bbc f5bc dd9f 12ba 03e2 ba3b 34f6 7b3d
000000a0: ab70 1580 2ab1 1c3b 1214 703d d584 da3c
000000b0: 5d90 573d b3f1 fdbb 713d efb8 144c ca3c
000000c0: 0eef 21bb 50e7 4d3c 470f 35bb 6aab 123a
000000d0: 0cf3 d7b6 0034 be9f 629f c83c 7574 2db9
000000e0: 7ca1 353b b943 aa3d 320a 073d d263 173d
000000f0: 87b7 64ba d134 823d 73ec 853c 39eb 91bd
00000100: 0567 f6a7 6c26 1414 6172 aebb b7c0 073c
00000110: 6d66 1b3a b06c ea01 060a 4b2c d00f a73c
00000120: 8ccc abb7 297e 0034 5dca 0ba9 0edf 713d
00000130: 751b df98 f650 742d 48da 743d 8d3d 243d
00000140: 5c7e db3c cecc 2c3d 9b2b cb2d 1962 113d
00000150: 5300 5038 801a 88b8 0f6d d7a1 e39a 3e3a
00000160: 226e 233d 567e f425 20e1 da39 17b8 0400
00000170: e6bb 0339 c105 87bc 15aa 21bb 12e1 c937
00000180: 2e8c ee3d 5d9b 433d 284d 873b 4dfb 7125
00000190: cc16 8333 13c4 0fbb 2317 9d3d 6abb 98ba
000001a0: 1bfc 8e3c ac36 1195 6293 4c3d 94c3 e110
000001b0: b6f1 918d 9a6c c9b9 46ab 0e3b 7ac5 263d
000001c0: 3d35 913d 4a93 2817 5dbf de3b dec3 acb8
000001d0: 3286 0800 f1b7 88bb 0512 223c 9ad2 783c
000001e0: 80e3 f43c 396f f4ba 7b8c 28bd 4881 011e
000001f0: b7a1 7bb8 45aa a6bb df04 79b7 3de5 5ab5
00000200: 368a 2d3b 01ae 13bd 50db cd3a 0ab3 193c
00000210: d39f 6cbd 97fe 27bd 8945 a63c 1644 b1bc
00000220: 0a70 2a1e bc0e da3d 5ea8 111a d675 17bd
00000230: 9bb4 a7bb 8507 babb fd9d 14bc 6786 b5b5
00000240: d3ed 5e0d 5e6e f6bc 4637 0090 440e ab3a
00000250: 0c22 bd3c 0130 223b 107d bf3b 5615 8b3a
00000260: 7fe9 f03a ad40 a5bc 5cac 0928 ac93 dcba
00000270: 1b8b 3100 32b8 233e 5b3b 483d a64d 7abb
00000280: 7f7f 2fb9 8333 0cbd 9662 a5ad d5fc ae3b
00000290: c7ce 973d ea03 a539 99cd 063c d909 d9bc
000002a0: 6935 0f80 ac67 e6ba fb07 62bb 652e c73b
000002b0: eac1 063d 54e2 943c 4269 6bb9 4164 983c
000002c0: e797 ea3a bc32 22bc befe 203d 3493 0fb9
000002d0: 4468 fc34 da8a 3200 0410 613c d254 1938
000002e0: 71b0 70bb 3905 26bd e4de 953c 53e3 c73b
000002f0: 5bf1 0b3b f2c5 cbbc fee3 2f3c 4d7c d03d
00000300: 7535 371f cc86 3680 e807 943b ab71 a63a
00000310: 99be 79ba ac6f 1b80 9ea3 64a4 b21f 6fbb
00000320: df1b 9e36 1f1d 37b0 59e5 c127 918c 7ebc
00000330: d9da 1f21 0fd1 39ab f9ec e8bc a27a 0dba
00000340: d366 673b 6919 603c b665 8aad c979 8dbc
00000350: a74a 7fb6 24b8 b338 b83e 2b12 2a28 6eb9
00000360: 8d08 b53b 9120 1299 fad4 c7b9 7f05 0c80
00000370: ae90 7ab8 f851 933c 5369 3f3b 0cb7 13b8
00000380: c9b1 4cbd 7629 6dbc 6df5 81bb 5786 099b
00000390: 44c9 0f32 2ce7 bf3a 746b e8bc 521d 1f3a
000003a0: ac3e eabb a102 2b14 3846 ffbc 50a2 1591
000003b0: 3b67 240e 4e55 383a 2f2f ca3b 2d1e e23b
000003c0: b3d1 d2bc dfa6 2901 4999 313b c728 4838
000003d0: c614 0580 ec44 8b3c 8c1b 503c 8692 a43c
000003e0: 7a1f f43c 2cc5 8e3a c5e7 593d 7f88 2212
000003f0: e227 0538 e065 cd3c 3027 6636 9a11 bb36
0.019977573 0.08311047 -0.0010533484 0.008829734 0.11742654 0.105873875 0.03712728 0.04164986
-1.5291968e-18 -0.029819174 -1.3781227e-16 0.09060963 0.0334897 0.0074761063 0.0107743535 7.8085795e-06
9.418133e-23 0.08634427 -1.1158965e-21 -0.0012515214 -0.005248251 -0.0015933361 0.021020805 0.013673748
-0.0015860212 0.05091618 -5.795451e-12 0.0012912797 -2.012262e-39 -0.12663135 -0.005776453 0.0037249324
1.0444347e-05 0.04033964 1.0949347e-08 0.016031682 -0.029997071 -0.00055932795 0.005703212 0.061514094
-1.968963e-39 0.002390931 0.05861289 0.026674667 0.05262791 -0.00774976 -0.000114078524 0.02469448
-0.0024709138 0.012567356 -0.0027627514 0.00055950007 -6.4357937e-06 -8.055416e-20 0.024490062 -0.0001654195
0.002771466 0.08313698 0.032968707 0.03696043 -0.00087248575 0.0635773 0.0163481 -0.07124943
-6.839041e-15 7.479668e-27 -0.0053236936 0.008285693 0.00059280434 8.6113983e-38 2.88536e-12 0.020393282
-2.0480038e-05 1.1966826e-07 -3.1039722e-14 0.059050612 -5.7671873e-24 1.3887771e-11 0.05977848 0.040097762
0.026793651 0.042187504 2.3097793e-11 0.035493944 4.9591366e-05 -6.489921e-05 -1.4597834e-18 0.0007271005
0.039899953 4.2412861e-16 0.0004174793 4.33381e-40 0.00012563131 -0.016482236 -0.0024668027 2.4065874e-05
0.11647831 0.047755588 0.004129071 2.0988562e-16 6.1043096e-08 -0.0021936938 0.076704286 -0.0011652533
0.017454198 -2.9325645e-26 0.049945243 8.904819e-29 -8.994505e-31 -0.00038418622 0.0021769567 0.040715672
0.070902325 5.4469633e-25 0.0067977146 -8.238082e-05 7.82824e-40 -0.004172318 0.0098919915 0.01518693
0.029893637 -0.001864887 -0.041149598 6.855938e-21 -5.9993672e-05 -0.0050862157 -1.4842691e-05 -8.1544914e-07
0.0026480085 -0.036054615 0.0015705619 0.009381065 -0.057769608 -0.04101428 0.020296829 -0.021638911
9.022894e-21 0.106473416 3.0121303e-23 -0.03697761 -0.0051179654 -0.005677166 -0.0090708705 -1.3524667e-06
6.86953e-31 -0.030081924 -2.528613e-29 0.0013050516 0.023087524 0.002474785 0.005843766 0.0010611217
0.0018380134 -0.020172441 7.642402e-15 -0.0016828678 4.549841e-39 0.15988234 0.04888473 -0.0038193255
-0.00016736797 -0.034228813 -1.880211e-11 0.0053401985 0.074124865 0.0003147417 0.008227729 -0.026493954
-1.396692e-39 -0.0017578504 -0.003448962 0.0060785287 0.032899775 0.018174328 -0.00022450558 0.018602492
0.0017898054 -0.009899791 0.03930544 -0.0001369238 4.701452e-07 4.641585e-39 0.013736729 3.6557038e-05
-0.003672626 -0.040532324 0.01829476 0.006100097 0.0021353576 -0.024874661 0.01073551 0.101799585
3.8795976e-20 -5.007473e-39 0.004517544 0.0012698671 -0.00095269975 -2.519619e-39 -4.9578208e-17 -0.0036487398
4.7120116e-06 -6.6616396e-10 5.381692e-15 -0.015536443 5.416094e-19 -6.601533e-13 -0.02843331 -0.0005396997
0.003530909 0.013677933 -1.5733952e-11 -0.017269986 -3.8041414e-06 8.569684e-05 5.4035393e-28 -0.00022712411
0.005524701 -7.5546e-24 -0.00038114918 -1.103998e-39 -5.973939e-05 0.017983422 0.0029207065 -3.5218007e-05
-0.049974237 -0.014475217 -0.0039660246 -1.1375782e-22 8.369458e-09 0.0014641038 -0.02837155 0.0006069738
-0.0071485844 8.633812e-27 -0.031161413 -1.1804044e-28 2.0264264e-30 0.00070317544 0.0061701755 0.00690057
-0.025734758 3.1160122e-38 0.0027099422 4.7721693e-05 -4.6663e-40 0.017000638 0.01270188 0.0200894
0.029800165 0.0010892502 0.05319955 5.128643e-28 3.1746815e-05 0.025072992 3.429548e-06 5.5750834e-06
