GNN/ArchGNN/trained_models/Apr-19ver5.pt (torch, 394923 bytes, 17 tensors)

weight f4 [16, 3]
-0.3941133 0.48445067 -0.50086254 -0.36642778 0.28288415 -0.3588456 -0.3830803 0.22808751
0.50128794 -0.5197664 0.086143784 0.109795704 -0.34975988 -0.421807 0.45641947 -0.08902288
0.43014878 0.049521234 -0.114001915 -0.5175809 -0.2595014 0.5308697 0.38115 0.32082286
0.24487758 -0.2678747 0.41249326 0.30117032 -0.33888862 0.06494982 0.5413048 -0.422769
0.11270968 0.0704442 0.0140123265 0.016048992 -0.18935917 0.2743456 0.5154378 0.5239639
-0.2244179 -0.47374728 0.55296844 0.10500294 -0.33750683 -0.31359378 0.2018797 0.032589488
00000000: 38c9 c9be eb09 f83e 8738 00bf 6c9c bbbe
00000010: 31d6 903e 9cba b7be 1a23 c4be c68f 693e
00000020: 6854 003f 690f 05bf 276c b03d 92dc e03d
00000030: ba13 b3be 16f7 d7be d0af e93e a151 b6bd
00000040: 763c dc3e c7d6 4a3d d679 e9bd 2f80 04bf
00000050: 5edd 84be 14e7 073f 1826 c33e e542 a43e
00000060: 30c1 7a3e df26 89be 5132 d33e ff32 9a3e
00000070: cf82 adbe 6904 853d f492 0a3f 2e75 d8be
00000080: 55d4 e63d 0c45 903d f593 653c 2d79 833c
00000090: 5fe7 41be 0777 8c3e bbf3 033f 8022 063f
000000a0: cecd 65be 018f f2be 578f 0d3f c80b d73d
000000b0: b2cd acbe 5d8f a0be 8db9 4e3e 8e7c 053d

bias f4 [16]
0.49286085 -0.40224558 0.5610063 -0.17645527 0.17681356 -0.44816145 0.116280146 0.39421475
0.03963171 -0.12240695 0.47006297 0.56350404 -0.18945545 -0.05703272 -0.36827087 0.1721961
00000000: 4258 fc3e 22f3 cdbe 1c9e 0f3f b1b0 34be
00000010: 9d0e 353e 6b75 e5be 4924 ee3d 84d6 c93e
00000020: dc54 223d 7fb0 fabd 18ac f03e cd41 103f
00000030: 9c00 42be 249b 69bd 008e bcbe 2d54 303e

c f4 [8]
-0.039014034 0.056547597 -0.03351115 0.09781325 0.04967184 -0.07278545 -0.0042278664 0.08462794
00000000: 2ecd 1fbd 749e 673d fd42 09bd 5052 c83d
00000010: b374 4b3d 8a10 95bd ea89 8abb 6a51 ad3d

bias f4 [32]
-0.06455887 0.0978663 -0.080351956 0.080266155 0.09336187 0.114279844 0.01806798 0.03667964
0.07915609 0.0021714843 -0.06887672 0.03857988 0.13330956 -0.08868627 0.022232145 0.034654684
0.04790945 -0.0044438723 -0.09197515 -0.0013339744 -0.078853406 0.10893943 0.15644182 -0.110668816
0.13748923 0.084576085 0.02575476 -0.018622123 0.03015196 -0.0064008026 0.11893757 0.014964403
00000000: 7137 84bd 206e c83d 918f a4bd 9562 a43d
00000010: 8234 bf3d 8d0b ea3d 4d03 943c 643d 163d
00000020: 971c a23d 764f 0e3b 3d0f 8dbd f005 1e3d
00000030: 4d82 083e 26a1 b5bd 3020 b63c 12f2 0d3d
00000040: b33c 443d e79d 91bb 785d bcbd c1d8 aeba
00000050: e57d a1bd a31b df3d 4932 203e 55a6 e2bd
00000060: fac9 0c3e 3a36 ad3d a5fb d23c 6c8d 98bc
00000070: 3e01 f73c d3bd d1bb 8a95 f33d 412d 753c

weight f4 [256, 16]
0.22091702 -0.06969815 0.03332025 0.0534901 0.14913394 0.15096131 -0.19269015 -0.23517528
-0.07890416 -0.07454589 -0.10044123 0.16729306 0.046269864 -0.156548 -0.1506715 -0.011405983
0.082529575 0.24439548 0.0017986917 0.008383627 0.17687689 -0.037834156 -0.18145761 0.026532946
-0.18490307 0.10299579 -0.21286075 -0.06842689 0.21029855 0.16422734 0.14093944 -0.03933379
0.22271822 0.19299632 0.22305925 0.20153287 0.18906137 0.042057164 -0.115525536 0.20795083
0.045597628 -0.26250106 0.06403123 0.09705833 0.17629719 -0.117045835 0.22889893 0.035765745
0.20700566 0.048973273 -0.08486713 0.08185067 -0.1977805 0.031319376 -0.111707166 0.22116971
0.088413194 0.11314196 0.18908091 0.26000902 0.09835479 0.16455698 0.1445429 -0.057272445
0.21248595 -0.18281323 -0.03846845 0.098499484 -0.166008 0.17608453 -0.24612835 -0.046965826
-0.15547805 -0.13242681 -0.1949862 0.047605425 -0.18803902 -0.18859003 -0.09051472 -0.18620433
0.11191579 -0.22770703 0.054001547 0.14664175 -0.17599672 0.23105417 0.023642987 0.069664575
-0.074598625 -0.1176284 -0.10743725 0.23998062 -0.054815758 0.14397767 0.19467859 -0.040131394
0.0027450053 -0.21326578 -0.2404599 -0.13339752 0.0036043264 0.06084188 -0.058087822 -0.15165743
-0.19055602 0.08689921 -0.14386462 0.08613183 0.1719915 -0.013188134 -0.21051268 -0.020334259
0.23812379 0.073416136 -0.14618583 -0.15269624 0.11872309 0.23786119 0.22984092 -0.17267536
0.089065224 -0.22725454 0.036532313 -0.19144917 -0.10792166 0.19761299 -0.13738541 0.11090855
-0.13474396 -0.17955229 -0.09797279 -0.22072396 -0.09508007 -0.14452288 -0.25400448 -0.13770933
0.018734783 -0.335259 -0.19604227 -0.05010795 0.029888673 -0.22088508 0.052635938 0.035206612
0.22067532 0.2228557 -0.051749572 -0.12063187 -0.2626684 0.073980756 0.102844596 0.10835906
-0.09929877 -0.100743145 -0.14939214 0.038335834 -0.12185548 -0.26996586 -0.20150682 0.21010934
0.013159934 -0.10877274 0.19839981 0.055852115 0.21292765 -0.20462558 0.12993094 -0.21021828
0.017898725 -0.18080516 -0.018966483 -0.22391592 0.24872082 0.12823789 -0.22227009 0.014154601
0.20274727 -0.14282355 0.011699069 0.07266405 -0.16299461 -0.12750557 -0.19668262 0.056729525
-0.03667194 -0.12840576 -0.16320063 0.13704014 -0.009977468 -0.13563184 0.106890365 -0.069934666
-0.20286107 0.24556923 -0.09109503 -0.020180969 0.2148796 0.035115115 -0.1959392 -0.13362522
0.21644005 0.03030232 0.04342431 0.20015985 0.1410496 0.076640755 0.046390455 -0.12623934
0.08813463 0.2182914 -0.21821372 -0.14228836 -0.2643185 -0.008027581 -0.14307643 0.04669953
0.08606718 0.13455473 -0.20378295 0.08848844 -0.116750166 0.12532349 0.081281304 0.057666726
0.12460025 0.20006669 0.079872385 -0.25537303 -0.09523219 -0.13636519 -0.05212589 -0.15382409
0.21087664 0.052814685 0.073424734 -0.13825174 0.13574715 0.098875575 -0.0536065 0.18571298
-0.11779445 -0.071272075 -0.09230612 0.27917063 -0.054340705 -0.16357811 0.015054737 0.20242405
0.099133074 -0.103191465 0.05398943 -0.20567165 0.06868542 0.034645956 -0.02834352 -0.006941533
00000000: 1238 623e e7bd 8ebd d17a 083d 6f18 5b3d
00000010: 91b6 183e 9a95 1a3e 9150 45be cad1 70be
00000020: 8198 a1bd 84ab 98bd 22b4 cdbd df4e 2b3e
00000030: 7885 3d3d 1e4e 20be a149 1abe 29e0 3abc
00000040: 4405 a93d cf42 7a3e 14c2 eb3a 7b5b 093c
00000050: 371f 353e fdf7 1abd 06d0 39be 9f5b d93c
00000060: 3b57 3dbe 75ef d23d 2bf8 59be 6623 8cbd
00000070: 8158 573e 362b 283e 6e52 103e 781c 21bd
00000080: 3f10 643e d4a0 453e a569 643e a25e 4e3e
00000090: 4e99 413e 2244 2c3d a798 ecbd 10f1 543e
000000a0: 94c4 3a3d 8a66 86be ce22 833d 85c6 c63d
000000b0: 4087 343e bab5 efbd 7b64 6a3e 1a7f 123d
000000c0: 4bf9 533e 3398 483d d1ce adbd 53a1 a73d
000000d0: f986 4abe bf48 003d bac6 e4bd 507a 623e
000000e0: fa11 b53d f9b6 e73d 6d9e 413e e71f 853e
000000f0: 3c6e c93d a081 283e 0e03 143e 8396 6abd
00000100: eb95 593e 6433 3bbe 1891 1dbd 19ba c93d
00000110: 00fe 29be 814f 343e 1209 7cbe 3d5f 40bd
00000120: a335 1fbe e59a 07be 76aa 47be e8fd 423d
00000130: 4d8d 40be bf1d 41be c85f b9bd 59ac 3ebe
00000140: 1b34 e53d 082c 69be ba30 5d3d 4129 163e
00000150: 7c38 34be 7799 6c3e f0ae c13c 4dac 8e3d
00000160: 2ac7 98bd 29e7 f0bd 1008 dcbd 7bbd 753e
00000170: 7d86 60bd e26e 133e d359 473e d160 24bd
00000180: 8ce5 333b 5862 5abe 1f3b 76be 5c99 08be
00000190: 9036 6c3b 5635 793d 7fed 6dbd 164c 1bbe
000001a0: 1e21 43be 37f8 b13d 3f51 13be e365 b03d
000001b0: 8a1e 303e 0b13 58bc a390 57be 0894 a6bc
000001c0: b9d6 733e 335b 963d bdb1 15be 675c 1cbe
000001d0: 1725 f33d e291 733e 6b5b 6b3e cfd1 30be
000001e0: d467 b63d 6ab5 68be e8a2 153d 400b 44be
000001f0: 0806 ddbd 0f5b 4a3e c3ae 0cbe 0624 e33d
00000200: 52fa 09be 8edc 37be f5a5 c8bd 7605 62be
00000210: 57b9 c2bd cefd 13be e00c 82be ad03 0dbe
00000220: b079 993c 11a7 abbe 4ebf 48be fe3d 4dbd
00000230: 17d9 f43c b32f 62be c898 573d cf34 103d
00000240: b6f8 613e 4934 643e 5cf7 53bd d80d f7bd
00000250: 797c 86be 3983 973d 30a0 d23d 5beb dd3d
00000260: 275d cbbd 6c52 cebd 41fa 18be 0906 1d3d
00000270: 5e8f f9bd f738 8abe ce57 4ebe e726 573e
00000280: c49c 573c 3ec4 debd 5229 4b3e 30c5 643d
00000290: b509 5a3e 5e89 51be 9e0c 053e 7643 57be
000002a0: 59a0 923c fd24 39be 995f 9bbc 374a 65be
000002b0: acb0 7e3e cb50 033e c59a 63be b3e8 673c
000002c0: fb9c 4f3e 5640 12be 74ad 3f3c e4d0 943d
000002d0: 0fe8 26be d290 02be 2b67 49be 385d 683d
000002e0: 5135 16bd cd7c 03be 111e 27be 4054 0c3e
000002f0: 8978 23bc 13e3 0abe 56e9 da3d e839 8fbd
00000300: d0ba 4fbe 8076 7b3e 0890 babd 8f52 a5bc
00000310: 6609 5c3e ded4 0f3d 49a4 48be 0dd5 08be
00000320: 76a2 5d3e 923c f83c b0dd 313d b4f6 4c3e
00000330: 4e6f 103e d4f5 9c3d eb03 3e3d e344 01be
00000340: ee7f b43d c887 5f3e 6b73 5fbe 0ab4 11be
00000350: c154 87be 1d86 03bc a182 12be 0248 3f3d
00000360: fd43 b03d b7c8 093e 7aac 50be 6d39 b53d
00000370: b61a efbd cd54 003e d076 a63d f233 6c3d
00000380: 6a2e ff3d 48de 4c3e 2294 a33d 41c0 82be
00000390: 1809 c3bd 51a3 0bbe f581 55bd 1084 1dbe
000003a0: 0cf0 573e 3654 583d b55f 963d dd91 0dbe
000003b0: 4d01 0b3e 477f ca3d 7d92 5bbd 8b2b 3e3e
000003c0: 373e f1bd 18f7 91bd fe0a bdbd 74ef 8e3e
000003d0: 5c94 5ebd 0581 27be 25a8 763c 4048 4f3e
000003e0: 4806 cb3d 0c56 d3bd 0524 5d3d 979b 52be
000003f0: f1aa 8c3d ebe8 0d3d ab30 e8bc cd75 e3bb

weight f4 [8, 16]
0.20027652 0.090159215 -0.1357568 0.106050946 -0.06890512 0.051893927 -0.09676937 -0.2157844
0.056672983 0.033829518 0.1087285 -0.056092277 -0.21459492 -0.1323657 0.23360448 0.2163855
0.17328759 -0.23822095 -0.11750771 0.113350995 -0.20804773 0.06266859 -0.023285873 0.17954911
-0.1768585 -0.2563581 -0.24946713 0.18467717 0.19534464 0.12195401 -0.17167759 0.2550142
-0.06945844 -0.20609042 -0.08699426 0.16431233 -0.19497111 0.18972643 0.12331639 -0.071930766
-0.09861074 0.04665881 0.117751956 0.19583195 -0.15763995 -0.045549974 -0.20441844 0.079010345
0.26319835 0.17321381 -0.07472956 -0.0015695194 -0.14222479 -0.014044471 -0.18551044 -0.16826664
-0.15475082 0.1763442 0.0071673985 -0.13778386 0.042050567 -0.01642082 0.0103097195 -0.058675606
-0.030190201 0.10472453 0.14251937 -0.014189205 -0.056057207 0.20256189 -0.2695028 -0.0020892103
0.024736926 -0.016104436 -0.11486631 -0.23656046 0.13054301 0.046280358 0.020566339 0.040060565
-0.064985216 -0.2419599 0.04459175 -0.09379875 -0.07151087 0.18838343 0.06791102 0.020388417
-0.10729266 0.0053517083 0.026198361 0.063802324 -0.18733945 0.21214984 0.015948037 0.20029283
-0.056351203 0.0024660006 0.014576339 0.10813242 0.0055137523 -0.12339569 -0.23175712 0.1621284
0.23110002 -0.0017541647 0.12890276 0.17269823 0.13968894 -0.060800113 0.06307996 -0.2433317
0.19282968 0.14097524 0.070938274 0.22457917 0.09704511 0.086662255 0.026853625 0.24253938
-0.07801436 0.048301466 -0.26741004 0.057122163 0.17799361 -0.21158281 0.030531254 -0.027018955
00000000: 4a15 4d3e 65a5 b83d d503 0bbe 3d31 d93d
00000010: 211e 8dbd ba8e 543d 052f c6bd 96f6 5cbe
00000020: ee21 683d d290 0a3d 0cad de3d 04c1 65bd
00000030: c5be 5bbe e08a 07be 0336 6f3e 2994 5d3e
00000040: 4d72 313e 31f0 73be e2a7 f0bd 9124 e83d
00000050: 770a 55be 6458 803d 04c2 bebc b9db 373e
00000060: 651a 35be 5e41 83be 5074 7fbe 031c 3d3e
00000070: 6d08 483e 06c3 f93d 40cc 2fbe 3991 823e
00000080: 3a40 8ebd 5e09 53be 0c2a b2bd 7e41 283e
00000090: 82a6 47be a547 423e 4e8d fc3d 7050 93bd
000000a0: 6df4 c9bd 4f1d 3f3d f027 f13d 2c88 483e
000000b0: 5e6c 21be 9c92 3abd 1153 51be 2dd0 a13d
000000c0: efc1 863e f65e 313e d00b 99bd 55b8 cdba
000000d0: 60a3 11be c81a 66bc 73f6 3dbe 174e 2cbe
000000e0: 0077 1ebe 9393 343e 7fdc ea3b 3617 0dbe
000000f0: 373d 2c3d f584 86bc 19ea 283c d555 70bd
00000100: 7151 f7bc d079 d63d 99f0 113e d779 68bc
00000110: 3e9c 65bd 626c 4f3e 45fc 89be 22eb 08bb
00000120: 18a5 ca3c 73ed 83bc 073f ebbd e83c 72be
00000130: 11ad 053e 7990 3d3d bd7a a83c 8c16 243d
00000140: f816 85bd 56c4 77be d7a5 363d 8f19 c0bd
00000150: 4a74 92bd 96e7 403e ef14 8b3d 9c05 a73c
00000160: 41bc dbbd 625d af3b f29d d63c cbaa 823d
00000170: ead5 3fbe cf3d 593e 75a5 823c 9019 4d3e
00000180: 85d0 66bd a09c 213b 99d1 6e3c 8874 dd3d
00000190: b5ac b43b e1b6 fcbd bd51 6dbe fd04 263e
000001a0: 7ca5 6c3e 00ec e5ba 16ff 033e ced7 303e
000001b0: 9e0a 0f3e 8a09 79bd 1130 813d f22b 79be
000001c0: 2575 453e d05b 103e 1648 913d 15f8 653e
000001d0: 96bf c63d fb7b b13d 22fc db3c 3e5c 783e
000001e0: fec5 9fbd c2d7 453d f8e9 88be eef8 693d
000001f0: f543 363e 2aa9 58be ae1c fa3c db56 ddbc

c f4 [8]
-0.093732625 -0.1076447 0.0025155097 0.010179609 -0.02788889 0.14764324 0.030445423 -0.011676313
00000000: e4f6 bfbd d374 dcbd 40db 243b 60c8 263c
00000010: 3e77 e4bc ca2f 173e ae68 f93c 024e 3fbc

bias f4 [64]
-0.07519674 -0.014851811 0.08693038 -0.0028295957 -0.1873602 0.0035527218 0.07880353 0.020298738
-0.1166479 -0.12133217 -0.25322732 0.09082052 0.062887676 0.03645699 0.0803061 0.10994211
-0.02243505 0.20057762 0.15074089 -0.14255755 -0.09359769 0.038966935 0.13556698 -0.11163296
0.0963158 0.0031657193 0.14348921 -0.1799021 -0.14993386 0.11716806 0.091692016 -0.0066989604
-0.022909252 0.044935934 0.01829949 0.009369508 0.055475272 0.1798278 0.053636223 0.0026978485
-0.02881675 0.04136344 0.1655118 -0.07659137 0.11905169 -0.13753183 -0.055483904 -0.12223788
0.12574208 0.015947174 0.02380506 0.0019825457 -0.27178898 -0.038709924 0.05186352 0.17107321
-0.05125099 -0.16326849 0.08195301 0.04155967 0.033462644 0.14696069 0.073612824 0.00090294634
00000000: c000 9abd 0355 73bc 8e08 b23d bd70 39bb
00000010: 5adb 3fbe c8d4 683b bf63 a13d 8a49 a63c
00000020: 18e5 eebd 007d f8bd 03a7 81be 1c00 ba3d
00000030: 41cb 803d ed53 153d 8677 a43d 5429 e13d
00000040: b6c9 b7bc 3864 4d3e d25b 1a3e 9bfa 11be
00000050: 25b0 bfbd cb9b 1f3d 12d2 0a3e d29f e4bd
00000060: 3841 c53d f577 4f3b d6ee 123e 4238 38be
00000070: 4388 19be cff5 ef3d 06c9 bb3d f482 dbbb
00000080: 2fac bbbc be0e 383d d0e8 953c 9182 193c
00000090: 0a3a 633d c724 383e a8b1 5b3d 63ce 303b
000000a0: 1b11 ecbc b66c 293d ed7b 293e f0db 9cbd
000000b0: 5fd1 f33d 25d5 0cbe 1743 63bd db57 fabd
000000c0: 88c2 003e a6a3 823c d402 c33c 99ed 013b
000000d0: ed27 8bbe 4c8e 1ebd d86e 543d d12d 2f3e
000000e0: 8fec 51bd db2f 27be fbd6 a73d 793a 2a3d
000000f0: 2010 093d dd7c 163e 52c2 963d b4b3 6c3a

weight f4 [512, 32]
-0.14492235 0.019990372 0.08805676 0.1328565 -0.08762598 0.010579449 0.13768207 -0.09640859
0.045942906 0.038083676 -0.16882293 0.009082548 -0.13644174 0.06492538 -0.12539761 -0.027965939
0.0051654875 -0.020134943 -0.05569289 0.05263757 -0.09403792 -0.17410196 0.06815111 0.091181256
-0.20335555 -0.032405604 -0.07649374 0.13659395 -0.13833761 0.086733125 -0.025915314 0.052175596
-0.051951855 -0.117692135 0.03707387 0.093734495 0.14012378 0.16470358 -0.0065326747 0.14942391
-0.032199953 0.17507108 -0.11914107 0.14432147 0.08270611 0.13001882 -0.06340877 -0.09685974
-0.15347044 -0.11562562 -0.026085915 0.0062207477 0.08148497 -0.033996448 0.094537765 0.17412175
-0.041155543 -0.13560982 -0.08501902 0.0042883055 -0.018381132 -0.10586938 -0.15844603 -0.12891087
0.05525992 0.14329888 -0.013240551 -0.17392053 -0.17968799 0.10170822 -0.09665565 -0.07960376
0.06898676 0.10819669 0.02760409 0.114671476 0.032985125 -0.11066258 -0.073185354 0.124322735
-0.049447093 0.12659867 -0.07921171 -0.12942176 0.10249811 -0.06889839 0.14902534 0.01491805
0.044538245 0.11338416 0.032934856 0.062891245 -0.065022685 -0.058826152 -0.16166535 -0.0659795
0.024414087 -0.032361325 0.1659788 0.1937369 -0.13017528 0.13537094 0.010088687 -0.030698484
0.07323114 0.15070622 -0.026488971 -0.10134828 -0.0077645704 0.071522646 -0.14241669 -0.012688818
-0.10847168 -0.13021953 0.16404541 0.0031940741 0.15825473 -0.15194897 0.0016284095 0.032282744
0.016529588 0.12100637 -0.15072633 0.06924557 -0.12231115 -0.15348837 0.11404654 -0.031782825
0.08918708 0.15788823 0.13266334 0.1245186 -0.05269715 0.0415069 0.1609364 -0.00168099
0.053110413 -0.09303392 -0.1532237 -0.18244003 -0.06270135 -0.029471735 -0.054572977 -0.18182969
-0.12841593 -0.12135498 -0.18564047 -0.0641653 0.004307194 -0.17605092 0.008684868 -0.03739972
-0.123797044 0.118224084 0.11464853 -0.045260113 -0.04286479 0.17641424 0.050642632 0.047898002
0.11752745 -0.14192803 0.024733813 -0.12220028 -0.11331573 0.079161465 -0.03465376 0.14666599
-0.11236184 0.19001389 0.12997946 -0.12608898 -0.035390478 -0.029582465 0.13823704 -0.16062362
0.15278955 -0.1140211 -0.075349435 0.18441582 0.1277525 -0.035560913 -0.049482875 0.14359303
-0.06514683 -0.012524434 -0.014584191 -0.14289698 0.086657435 -0.008671614 -0.10850191 -0.07722429
0.06707131 0.055552877 0.11106579 0.16711792 0.15153553 0.16156715 -0.16751806 -0.053141396
0.13511018 0.0493812 0.14799194 -0.14926395 0.14721844 -0.03776751 0.004983551 0.0009912673
-0.053346768 0.18999882 -0.048144296 0.16819634 -0.12237856 0.056990042 -0.14150931 0.16929817
0.037693646 -0.01268963 -0.06259862 0.055653144 -0.12316378 -0.113631085 0.024448168 -0.0774108
-0.057341926 -0.0931732 0.01289815 0.08578016 -0.13647497 -0.06896124 -0.032245047 0.19574209
0.030862112 -0.10892636 -0.04982725 0.10130571 0.15010738 -0.12773612 0.19973028 -0.16500805
0.051007923 0.11618404 0.12003436 0.078453444 -0.037453726 -0.13640404 -0.068796664 -0.07567491
0.023442503 -0.10222626 0.048999313 -0.17004648 0.08912105 0.080246806 0.025300479 0.032912705
00000000: 8666 14be d9c2 a33c 1a57 b43d 890b 083e
00000010: 4075 b3bd 6d55 2d3c 87fc 0c3e de71 c5bd
00000020: a12e 3c3d a1fd 1b3d ebdf 2cbe f8ce 143c
00000030: 62b7 0bbe 99f7 843d 3b68 00be d318 e5bc
00000040: 4043 a93b 09f2 a4bc 3a1e 64bd 7e9a 573d
00000050: f496 c0bd c947 32be cf92 8b3d 3dbd ba3d
00000060: 703c 50be bdbb 04bd c0a8 9cbd 49df 0b3e
00000070: 60a8 0dbe 23a1 b13d 5a4c d4bc 14b6 553d
00000080: 78cb 54bd 9308 f1bd c5da 173d dff7 bf3d
00000090: 9c7c 0f3e 0ea8 283e 0c10 d6bb 9502 193e
000000a0: 19e4 03bd d545 333e 3c00 f4bd 02c9 133e
000000b0: d261 a93d a723 053e 75dc 81bd 665e c6bd
000000c0: 5b27 1dbe 20cd ecbd 21b2 d5bc 6ad7 cb3b
000000d0: 98e1 a63d dc3f 0bbd 049d c13d f94c 323e
000000e0: b792 28bd 4ddd 0abe 741e aebd ea84 8c3b
000000f0: 0794 96bc 0cd2 d8bd ad3f 22be 3601 04be
00000100: 3a58 623d f1bc 123e e5ee 58bc 3918 32be
00000110: 2100 38be 664c d03d 66f3 c5bd 4c07 a3bd
00000120: ee48 8d3d 3a96 dd3d f921 e23c e1d8 ea3d
00000130: 691b 073d 10a3 e2bd 34e2 95bd eb9c fe3d
00000140: 0989 4abd 15a3 013e c039 a2bd 2387 04be
00000150: 87ea d13d 991a 8dbd 199a 183e d66a 743c
00000160: bc6d 363d f435 e83d b3e6 063d 20cd 803d
00000170: 9d2a 85bd b1f3 70bd 9a8b 25be 4320 87bd
00000180: 0d00 c83c 4f8d 04bd 59f6 293e f762 463e
00000190: ab4c 05be ae9e 0a3e 054b 253c 637b fbbc
000001a0: 35fa 953d bb52 1a3e 66ff d8bc b08f cfbd
000001b0: f06d febb 777a 923d aed5 11be c3e4 4fbc
000001c0: 6626 debd 4558 05be 85fb 273e ac53 513b
000001d0: 870d 223e 8398 1bbe 5b70 d53a e93a 043d
000001e0: 0f69 873c 30d2 f73d 0158 1abe 9fd0 8d3d
000001f0: 457e fabd 0e2c 1dbe 3b91 e93d b52e 02bd
00000200: b7a7 b63d 74ad 213e e6d8 073e 9c03 ff3d
00000210: f7d8 57bd 2403 2a3d 83cc 243e aa54 dcba
00000220: 4e8a 593d 9188 bebd ace6 1cbe 8fd1 3abe
00000230: 9169 80bd b56e f1bc ea87 5fbd 9031 3abe
00000240: 777f 03be f688 f8bd 8918 3ebe 1969 83bd
00000250: 5d23 8d3b b146 34be fa4a 0e3c 7330 19bd
00000260: 4e89 fdbd 781f f23d d9cc ea3d ab62 39bd
00000270: fd92 2fbd efa5 343e a66e 4f3d b230 443d
00000280: 3bb2 f03d 9555 11be 919e ca3c 2444 fabd
00000290: 1412 e8bd 681f a23d 1af1 0dbd 9c2f 163e
000002a0: f71d e6bd 0093 423e 5619 053e 781d 01be
000002b0: 9bf5 10bd ed56 f2bc 038e 0d3e 857a 24be
000002c0: dd74 1c3e e583 e9bd ce50 9abd 80d7 3c3e
000002d0: 8dd1 023e 52a8 11bd 8eae 4abd 0d0a 133e
000002e0: b46b 85bd 4933 4dbc 88f2 6ebc 9653 12be
000002f0: 7479 b13d 6313 0ebc 4036 debd c527 9ebd
00000300: af5c 893d 6a8b 633d 7676 e33d f620 2b3e
00000310: 212c 1b3e dc71 253e db89 2bbe cbaa 59bd
00000320: 535a 0a3e f143 4a3d 338b 173e a6d8 18be
00000330: 6ec0 163e 1bb2 1abd 0e4d a33b 69ed 813a
00000340: 2482 5abd 0d8f 423e f432 45bd a93b 2c3e
00000350: 9ca1 fabd 646e 693d d1e7 10be 805c 2d3e
00000360: a764 1a3d 2ae8 4fbc b533 80bd 8df4 633d
00000370: 4b3d fcbd 6ab7 e8bd 8647 c83c 8e89 9ebd
00000380: 5edf 6abd 97d1 bebd c352 533c 82ad af3d
00000390: 18c0 0bbe 8d3b 8dbd 6213 04bd 9d70 483e
000003a0: 8ad2 fc3c c914 dfbd a917 4cbd 5e79 cf3d
000003b0: c0b5 193e 42cd 02be 1886 4c3e dff7 28be
000003c0: afed 503d e6f1 ed3d 93d4 f53d 33ac a03d
000003d0: 1469 19bd 80ad 0bbe 44e5 8cbd 72fb 9abd
000003e0: 7e0a c03c 005c d1bd 81b3 483d aa20 2ebe
000003f0: 1985 b63d 7058 a43d f342 cf3c 79cf 063d

weight f4 [8, 32]
-0.13632113 -0.15875106 0.062292203 0.07055492 0.13054581 -0.10310425 -0.01577477 0.030471288
-0.024229532 0.031255044 0.061318863 -0.0069723404 -0.07600632 -0.16574544 0.14079995 0.16536026
-0.11101563 -0.16817245 0.082786106 0.17923112 0.16360343 -0.16949867 0.22264639 -0.14176005
0.09820078 -0.15185107 -0.073661916 -0.16448145 0.011936629 -0.10923744 -0.09305063 -0.06119836
-0.13832587 0.2086908 0.18309864 -0.094746 -0.042659644 -0.09104027 -0.16779694 -0.009727511
-0.1134002 0.05604375 0.019693345 -0.16606325 0.06783206 -0.056457754 -0.1342295 0.1425932
-0.16671576 -0.1615112 0.20458564 0.100428894 -0.12703031 0.18083835 -0.11004282 0.16251606
-0.1367894 0.1636851 -0.0613829 0.03305958 0.02282887 -0.13881062 0.010226521 -0.14631054
0.03570372 -0.12725158 -0.0064058304 0.12778947 -0.029118376 -0.134613 0.032029305 -0.07929698
-0.021920482 -0.11527261 -0.13391738 -0.18514925 -0.14462622 0.13260145 -0.14017873 -0.12252396
-0.0070026494 -0.002487316 0.10831126 -0.0238944 -0.10200317 -0.118340716 0.13283072 -0.11088293
0.0029720855 0.17328638 -0.054269087 -0.10272602 -0.09873077 -0.08735768 -0.16036958 0.12357691
-0.030963207 0.012039385 -0.07305702 0.019548487 -0.15850225 -0.05631761 -0.053620283 -0.02875911
0.012137261 -0.00031071668 0.11078439 -0.20905003 0.12958398 -0.032019004 -0.11489545 -0.047315568
-0.09825389 -0.047464646 0.069961995 0.16255416 -0.11312344 0.042262867 -0.15458663 -0.13151535
-0.015874222 0.17102315 0.09063703 0.15363583 -0.1399239 0.0129334405 0.087111875 -0.14695843
0.009463983 -0.11597244 0.1846199 0.06085364 0.06846765 0.059588175 -0.08816317 -0.14722672
-0.008605817 0.034627285 0.021686258 -0.122407824 -0.05455827 0.07798735 -0.06326179 0.059737373
-0.105120175 -0.052381415 0.07862341 -0.011266268 0.06288539 -0.030389423 -0.25875115 -0.17650412
-0.01977579 0.032623615 0.10720348 0.109720156 0.009849714 0.08269109 0.008696225 0.015952313
0.033272024 -0.14486872 -0.08816078 -0.15271571 0.04544919 0.13281888 0.013246693 0.12535745
0.09390578 -0.088856 0.19110794 0.19502854 0.05719198 0.09942242 0.16309756 -0.10280251
0.13133574 0.106634945 -0.1551363 0.04154491 -0.033463996 0.10675134 -0.23082708 0.012420121
0.03334473 0.08696207 0.09273491 -0.037826296 0.09401916 0.026613852 0.08234754 -0.06934463
0.10589344 0.08106261 -0.06978086 -0.21786347 -0.038720697 -0.020557713 -0.11075799 -0.10528133
0.0041771303 0.14963365 0.04610773 -0.17170751 0.17457098 -0.13499741 0.08585128 -0.098093525
-0.13533771 -0.100775644 -0.08620345 -0.06715434 -0.04255533 -0.058729295 -0.2062739 0.15624817
0.22580095 -0.16137937 -0.11173304 -0.06758117 0.049203392 0.15070273 -0.011590196 0.20170099
0.02889445 0.015797751 -0.014576281 0.06491588 -0.04062215 0.03429076 0.010895484 0.15324418
-0.17958286 0.18416451 -0.14748177 -0.006723108 -0.11711982 0.022868864 -0.07990424 -0.13576397
-0.023748627 -0.03475237 0.10927121 -0.10265753 0.14629985 -0.1284753 0.046423227 -0.13184321
-0.1688913 -0.08720423 0.12128727 0.11580311 0.096206374 0.10400691 0.09909102 0.010137406
00000000: c497 0bbe a38f 22be 1c26 7f3d 197f 903d
00000010: cdad 053e 5228 d3bd 173a 81bc ec9e f93c
00000020: 037d c6bc 4a05 003d 7d29 7b3d 3b78 e4bb
00000030: 34a9 9bbd 2cb9 29be dd2d 103e 3354 293e
00000040: 2a5c e3bd 6635 2cbe c38b a93d 5d88 373e
00000050: a887 273e 0f91 2dbe 6afd 633e 8c29 11be
00000060: 7e1d c93d d97e 1bbe 0fdc 96bd d36d 28be
00000070: da91 433c e1b7 dfbd 5491 bebd 22ab 7abd
00000080: 4ca5 0dbe 0bb3 553e 367e 3b3e 310a c2bd
00000090: e1bb 2ebd 5273 babd f6d2 2bbe 2360 1fbc
000000a0: 5d3e e8bd 228e 653d f053 a13c 7c0c 2abe
000000b0: 89eb 8a3d 3f40 67bd 7573 09be f403 123e
000000c0: 89b7 2abe 3163 25be e67e 513e aaad cd3d
000000d0: 3c14 02be b02d 393e 215e e1bd 9c6a 263e
000000e0: 8512 0cbe 119d 273e a36c 7bbd 7b69 073d
000000f0: 9c03 bb3c 5f24 0ebe 238d 273c 6ed2 15be
00000100: 103e 123d 3d4e 02be 00e8 d1bb 3edb 023e
00000110: a989 eebc fed7 09be 2931 033d 7466 a2bd
00000120: 9592 b3bc 0c14 ecbd a321 09be c497 3dbe
00000130: e518 14be adc8 073e 038b 0fbe d8ed fabd
00000140: 7b76 e5bb 3d02 23bb 4bd2 dd3d 30be c3bc
00000150: 0ae7 d0bd 9e5c f2bd c704 083e 9716 e3bd
00000160: 52c7 423b fc71 313e 4349 5ebd 0562 d2bd
00000170: 5c33 cabd 95e8 b2bd ec37 24be e415 fd3d
00000180: 8da6 fdbc d740 453c eb9e 95bd 2624 a03c
00000190: 6a4e 22be 4bad 66bd f1a0 5bbd 3a98 ebbc
000001a0: 5ddb 463c b0e7 a2b9 ede2 e23d 3611 56be
000001b0: aab1 043e 5c26 03bd 4e4e ebbd f8cd 41bd
000001c0: 5639 c9bd 4a6a 42bd 3c48 8f3d 9974 263e
000001d0: 43ad e7bd d41b 2d3d f54b 1ebe f6ab 06be
000001e0: a80a 82bc b120 2f3e e89f b93d b652 1d3e
000001f0: 3648 0fbe c8e6 533c b667 b23d 457c 16be
00000200: d20e 1b3c f582 edbd 000d 3d3e ab41 793d
00000210: c438 8c3d bb12 743d e48e b4bd 9ac2 16be
00000220: 6aff 0cbc 57d5 0d3d 61a7 b13c f4b0 fabd
00000230: 7e78 5fbd d5b7 9f3d 668f 81bd 2daf 743d
00000240: 3f49 d7bd e58d 56bd 4f05 a13d 2796 38bc
00000250: 0eca 803d 3df3 f8bc 087b 84be 7fbd 34be
00000260: d600 a2bc 57a0 053d 808d db3d f6b4 e03d
00000270: b260 213c f259 a93d 9c7a 0e3c 6dae 823c
00000280: 3f48 083d 7758 14be a48d b4bd 8261 1cbe
00000290: ee28 3a3d ac01 083e a808 593c b45d 003e
000002a0: ac51 c03d 22fa b5bd cdb1 433e 90b5 473e
000002b0: 2342 6a3d fb9d cb3d 0c03 273e 1f8a d2bd
000002c0: e07c 063e 6c63 da3d 0ddc 1ebe ff2a 2a3d
000002d0: 8b11 09bd 72a0 da3d ef5d 6cbe c37d 4b3c
000002e0: 7c94 083d 2b19 b23d cdeb bd3d bfef 1abd
000002f0: 1e8d c03d 4b05 da3c d4a5 a83d 8f04 8ebd
00000300: a9de d83d 2704 a63d 44e9 8ebd 9a17 5fbe
00000310: 9899 1ebd a668 a8bc 16d5 e2bd bd9d d7bd
00000320: 4fe0 883b 9039 193e 76db 3c3d 18d4 2fbe
00000330: bcc2 323e c33c 0abe ccd2 af3d 42e5 c8bd
00000340: f895 0abe 7663 cebd 6f8b b0bd 3788 89bd
00000350: 7f4e 2ebd 218e 70bd 7739 53be 85ff 1f3e
00000360: 5d38 673e a240 25be 4bd4 e4bd ff67 8abd
00000370: 7f89 493d d151 1a3e cee4 3dbc b48a 4e3e
00000380: 0eb4 ec3c 496a 813c 5bd1 6ebc 9ef2 843d
00000390: 6963 26bd 7874 0c3d f982 323c 0bec 1c3e
000003a0: 92e4 37be 9f95 3c3e 7605 17be 844d dcbb
000003b0: 84dc efbd 7c57 bb3c d6a4 a3bd b605 0bbe
000003c0: 7b8c c2bc 8058 0ebd 96c9 df3d 1c3e d2bd
000003d0: a1cf 153e 078f 03be 4826 3e3d e801 07be
000003e0: d7f1 2cbe 2298 b2bd 7665 f83d 2e2a ed3d
000003f0: d907 c53d 9301 d53d 3cf0 ca3d 5d17 263c

c f4 [8]
-0.08587123 -0.18380325 0.040469404 -0.0061830827 0.09722899 -0.022918196 -0.05563468 0.12915906
00000000: 41dd afbd eb36 3cbe 3fc3 253d 759b cabb
00000010: fe1f c73d f1be bbbc 31e1 63bd 4642 043e

bias f4 [128]
0.0749614 -0.08815296 -0.016313104 -0.08131761 0.015760567 -0.14975616 -0.07802172 0.03059866
0.013465839 -0.092472 0.114534035 0.09241436 0.18759769 -0.06920383 -0.011701233 0.0704607
-0.015981209 0.10761846 -0.16250892 -0.08662542 -0.18857346 0.18095432 0.009523191 0.049963586
-0.08739476 0.17020038 0.004076016 -0.079507224 0.056370147 0.10124698 -0.1037282 0.058610477
-0.1027843 0.024909208 -0.2192378 0.110749066 -0.11137401 0.038978055 -0.076620534 -0.10689302
0.19718634 0.19885154 -0.0073993583 -0.05925753 0.101578735 0.087098345 -0.12777832 -0.012303527
-0.033579964 0.20833993 -0.11404719 -0.030099044 0.017111734 0.19155298 0.025015095 0.08731077
0.0047668586 -0.0393658 -0.030468289 -0.00018334702 0.045215227 0.013142448 0.026160201 -0.14876235
-0.081157394 0.0690775 0.0672 -0.03480996 -0.36369744 -0.14263539 -0.00097560306 -0.08952798
0.09100499 -0.023472112 0.15782021 -0.06314862 0.04477252 -0.06929119 -0.13920246 -0.081476375
-0.0019359024 0.12226478 -0.023516528 0.08954224 -0.12784746 0.07894087 -0.08748209 0.03578648
-0.11395195 0.044481255 -0.008932983 -0.044541694 -0.16416052 0.018812062 -0.1996998 0.18459001
0.14920996 -0.0875987 0.060634144 0.10640212 0.010676222 -0.033869345 -0.21136442 -0.07964804
0.05137801 0.08977083 -0.03477208 0.002130933 0.0885596 0.087167814 0.14870287 0.019850738
0.1769207 0.2257349 0.098635316 0.024663316 -0.0773253 0.026613547 0.068017565 -0.041940555
0.01760214 0.010140158 -0.1217877 0.05394396 0.22454508 -0.0795087 0.04308834 -0.10593382
00000000: 5d85 993d 8a89 b4bd 0fa3 85bc d989 a6bd
00000010: 4e1c 813c ae59 19be dac9 9fbd 0baa fa3c
00000020: d39f 5c3c f661 bdbd d290 ea3d bd43 bd3d
00000030: 9c19 403e bdba 8dbd 87b6 3fbc b34d 903d
00000040: 06eb 82bc 1167 dc3d bd68 26be ab68 b1bd
00000050: 6719 41be 174c 393e 2807 1c3c 9ea6 4c3d
00000060: 06fc b2bd 0249 2e3e 1a90 853b afd4 a2bd
00000070: 62e4 663d 945a cf3d 736f d4bd 8a11 703d
00000080: 9380 d2bd 650e cc3c e07f 60be 68d0 e23d
00000090: 0f18 e4bd 74a7 1f3d 3aeb 9cbd baea dabd
000000a0: 37eb 493e bd9f 4b3e 5176 f2bb 06b8 72bd
000000b0: 8308 d03d 9e60 b23d 52d8 02be bc94 49bc
000000c0: 258b 09bd 1057 553e 9391 e9bd 4592 f6bc
000000d0: e82d 8c3c 7726 443e 75ec cc3c fdcf b23d
000000e0: 4f33 9c3b 083e 21bd a298 f9bc d740 40b9
000000f0: 9a33 393d 6c53 573c eb4d d63c 2855 18be
00000100: d935 a6bd 8178 8d3d 27a0 893d e394 0ebd
00000110: 8d36 babe 030f 12be 9dbf 7fba 725a b7bd
00000120: d360 ba3d 9648 c0bc 9f9b 213e 1054 81bd
00000130: 6463 373d 8ae8 8dbd 178b 0ebe 16dd a6bd
00000140: 1bbe fdba f565 fa3d bca5 c0bc ec61 b73d
00000150: 72ea 02be c0ab a13d cf29 b3bd d894 123d
00000160: a45f e9bd fa31 363d a55b 12bc 5a71 36bd
00000170: b219 28be c11b 9a3c 1b7e 4cbe 2a05 3d3e
00000180: 7fca 183e f266 b3bd 825b 783d 5be9 d93d
00000190: 52eb 2e3c 95ba 0abd ea6f 58be 831e a3bd
000001a0: c071 523d c5d9 b73d 2b6d 0ebd 20a7 0b3b
000001b0: bc5e b53d 0a85 b23d 9145 183e 049e a23c
000001c0: b32a 353e 0d27 673e 5001 ca3d b90a ca3c
000001d0: ba5c 9ebd a704 da3c cb4c 8b3d dcc9 2bbd
000001e0: 5d32 903c e822 263c d46b f9bd 58f4 5c3d
000001f0: 25ef 653e 75d5 a2bd 667d 303d d5f3 d8bd

weight f4 [1024, 64]
-0.034077957 -0.063611984 -0.10603527 0.101740845 0.07636141 0.0076162764 0.052670833 0.052336954
-0.04901853 -0.09990956 0.039991826 -0.07555504 -0.09343674 -0.08678591 -0.09406637 -0.013088091
-0.12507504 -0.06300951 0.11696345 -0.010352659 0.054936048 -0.07993582 0.0126033705 -0.052338064
0.106180355 -0.028122371 0.059993528 0.025948029 0.042802557 0.07045222 0.0058591613 -0.049789153
-0.08598554 0.072914556 0.062306527 0.032903384 0.04499744 0.047314223 -0.052535463 -0.092008255
-0.0414934 0.08881547 0.033018544 0.049985196 0.035540406 -0.031033253 -0.018864272 -0.11687658
0.1278273 0.11251619 -0.081824996 -0.075014174 -0.050218318 -0.060517978 0.049604133 0.112402774
0.006368505 0.004978729 -0.1096414 -0.047886845 -0.057901446 -0.11218128 0.12267527 0.10116187
-0.12045954 -0.11908411 0.068857774 -0.106577955 -0.036858838 0.003792217 0.013739707 0.036478475
0.11350262 0.07827527 -0.028650163 0.01642853 0.08020077 -0.07602575 0.09757659 -0.03856013
0.008214003 -0.12459508 0.016981183 0.016283557 0.08715059 -0.014194135 -0.06389567 0.012335786
0.03803887 0.08742304 -0.07825942 0.009385846 -0.09694782 -0.11121154 -0.09441049 -0.033689026
-0.049177706 -0.13441978 -0.010004044 0.13028988 -0.04708064 -0.02486054 0.0101306485 0.08841417
-0.07273638 0.02686287 0.087144695 -0.061006777 -0.0047230427 0.09497534 -0.13162124 -0.091922455
-0.042742938 0.1368482 0.08094038 0.12175861 -0.10124742 -0.019360768 0.1280108 0.042036995
0.00042952696 0.06041003 -0.10611034 0.051295426 0.010928724 0.09977152 0.114676654 -0.06464879
-0.09018556 0.04306599 -0.10478984 -0.03945141 0.06812117 0.07670608 0.061068565 0.09907118
-0.044346444 0.10564109 -0.11918818 0.10852875 -0.08679793 -0.10462582 -0.08811052 0.07835577
0.034261525 0.038350847 0.084549576 -0.08367832 0.09641501 0.042729765 -0.10361979 0.00533968
0.012377708 0.045068312 0.08354781 0.101126924 0.028488245 0.001131924 0.12593481 -0.06893357
-0.012734802 -0.06996596 0.087874964 -0.046773236 -0.060838047 -0.046926916 -0.0475961 0.022536578
-0.01704748 -0.091171466 -0.07929164 -0.11905239 0.06605237 -0.09902746 -0.08786104 -0.10335901
0.022776006 0.093054436 0.10232435 0.092103995 0.07698409 -0.09746928 0.022855181 -0.09973534
-0.08970752 -0.04625734 -0.07602221 0.0034060203 0.019833073 -0.027403448 0.10740964 -0.028109696
0.01526772 0.005700302 -0.08456739 -0.11945675 0.02833335 0.07356402 0.118144825 -0.09298673
0.010764451 0.009965445 -0.10795674 -0.004286308 0.0813857 -0.09193203 0.10133096 -0.045829203
-0.028661834 0.064199165 0.038990032 -0.046693567 0.06693681 -0.111182526 -0.114126615 0.06409209
-0.08479022 -0.0054433304 0.038111392 -0.06873423 0.09661448 -0.121621184 0.10434675 -0.008392394
-0.011081215 0.081752844 0.043529935 -0.09429122 -0.052689534 -0.068163045 -0.047212746 0.07960564
-0.04060438 -0.03803238 0.049676277 0.069182165 0.0753363 -0.036805492 0.08953655 0.049106304
0.012573238 0.033087526 0.08443947 -0.090957694 0.1222889 -0.06419728 0.019643376 -0.08000762
-0.017821345 -0.106485076 -0.14077555 -0.0030270808 -0.0867284 0.055500165 0.050222427 -0.015875388
00000000: 5495 0bbd 0047 82bd 0529 d9bd 815d d03d
00000010: 5f63 9c3d f591 f93b 5fbd 573d 465f 563d
00000020: a7c7 48bd 629d ccbd 78ce 233d 9abc 9abd
00000030: c35b bfbd d0bc b1bd dea5 c0bd 6f6f 56bc
00000040: ac13 00be 210b 81bd 898a ef3d 339e 29bc
00000050: 9f04 613d 64b5 a3bd 5e7e 4e3c 7060 56bd
00000060: 1675 d93d e360 e6bc c6bb 753d f690 d43c
00000070: bc51 2f3d 4149 903d 35fe bf3b b6ef 4bbd
00000080: 3019 b0bd 3a54 953d 2135 7f3d b3c5 063d
00000090: 3c4f 383d 8fcc 413d 6d2f 57bd d36e bcbd
000000a0: fcf4 29bd e3e4 b53d 743e 073d 47bd 4c3d
000000b0: d192 113d 7339 febc 3f89 9abc fd5c efbd
000000c0: 29e5 023e e36e e63d dd93 a7bd 08a1 99bd
000000d0: b9b1 4dbd b3e1 77bd b42d 4b3d 6d33 e63d
000000e0: e4ae d03b 9b24 a33b ac8b e0bd ff24 44bd
000000f0: 112a 6dbd 4dbf e5bd 2c3d fb3d f42d cf3d
00000100: 7eb3 f6bd 5fe2 f3bd 4e05 8d3d 8b45 dabd
00000110: 4bf9 16bd d886 783b 821c 613c 746a 153d
00000120: 1074 e83d c94e a03d bfb3 eabc 2095 863c
00000130: 4d40 a43d 63b3 9bbd 3cd6 c73d 3af1 1dbd
00000140: 0794 063c b52b ffbd 1f1c 8b3c 1865 853c
00000150: 027c b23d 848e 68bc bcdb 82bd 091c 4a3c
00000160: a5ce 1b3d da0a b33d 7a46 a0bd 17c7 193c
00000170: 948c c6bd e0c2 e3bd 495a c1bd 81fd 09bd
00000180: 906e 49bd 57a5 09be 00e8 23bc b66a 053e
00000190: a1d7 40bd 55a8 cbbc 05fb 253c 7d12 b53d
000001a0: d0f6 94bd 860f dc3c eb78 b23d 3ee2 79bd
000001b0: c1c3 9abb 6e82 c23d b8c7 06be d741 bcbd
000001c0: 3813 2fbd ef21 0c3e 12c4 a53d 945c f93d
000001d0: cf5a cfbd 799a 9ebc 4315 033e fc2e 2c3d
000001e0: 2232 e139 8270 773d 6150 d9bd 271b 523d
000001f0: 640e 333c 0355 cc3d 98db ea3d 9666 84bd
00000200: 35b3 b8bd f765 303d 0e9c d6bd cd97 21bd
00000210: 1d83 8b3d 1418 9d3d 0823 7a3d d5e5 ca3d
00000220: 9ea4 35bd 5b5a d83d ef18 f4bd 5244 de3d
00000230: 1dc3 b1bd 1046 d6bd 4a73 b4bd fd78 a03d
00000240: d055 0c3d c715 1d3d 5428 ad3d 8a5f abbd
00000250: 3c75 c53d 6805 2f3d 9d36 d4bd 7bf8 ae3b
00000260: dfcb 4a3c 8d99 383d 1d1b ab3d a21b cf3d
00000270: 2e60 e93c 115d 943a 0ef5 003e 0b2d 8dbd
00000280: a2a5 50bc 504a 8fbd caf7 b33d 4b95 3fbd
00000290: 5131 79bd 7036 40bd 21f4 42bd a19e b83c
000002a0: 28a7 8bbc 1bb8 babd a863 a2bd bdd1 f3bd
000002b0: 7746 873d e9ce cabd 7df0 b3bd e3ad d3bd
000002c0: bf94 ba3c 5393 be3d 6e8f d13d 05a1 bc3d
000002d0: d6a9 9d3d f99d c7bd ca3a bb3c 0b42 ccbd
000002e0: 94b8 b7bd 5678 3dbd 88b1 9bbd 8a37 5f3b
000002f0: f878 a23c 327d e0bc 96f9 db3d 4e46 e6bc
00000300: 7625 7a3c 99c9 ba3b ab31 adbd bea5 f4bd
00000310: 571b e83c bca8 963d eaf5 f13d d46f bebd
00000320: 615d 303c 1b46 233c 6c18 ddbd 2874 8cbb
00000330: 8cad a63d dc46 bcbd 9b86 cf3d 67b7 3bbd
00000340: 39cc eabc da7a 833d 03b4 1f3d c141 3fbd
00000350: 2b16 893d aab3 e3bd 37bb e9bd b742 833d
00000360: 7fa6 adbd f75d b2bb b11a 1c3d 88c4 8cbd
00000370: d0dd c53d 8714 f9bd c0b3 d53d 4080 09bc
00000380: fc8d 35bc 096e a73d 724c 323d c11b c1bd
00000390: fbd0 57bd 1199 8bbd 2762 41bd 4808 a33d
000003a0: c750 26bd d7c7 1bbd 5a79 4b3d 61af 8d3d
000003b0: eb49 9a3d 5bc1 16bd f05e b73d b123 493d
000003c0: fcff 4d3c c986 073d 9aee ac3d 0748 babd
000003d0: 9a72 fa3d dd79 83bd 25eb a03c 09db a3bd
000003e0: 12fe 91bc d914 dabd 7727 10be fd61 46bb
000003f0: a99e b1bd 2454 633d 08b6 4d3d 1a0d 82bc

weight f4 [8, 64]
-0.020744363 -0.0980024 -0.050308023 -0.0473372 0.042730525 -0.07739158 0.0031836727 0.08634016
-0.048712067 -0.13553193 -0.06946475 0.09149748 0.1213816 -0.0064627477 -0.10198948 0.1654578
-0.12839015 -0.075437605 0.013643797 -0.12527885 -0.0829513 0.18739723 -0.06567199 -0.12701584
0.0043933666 -0.07187256 0.08243057 -0.010314203 -0.022727607 -0.04005109 -0.12422826 -0.13427518
-0.002327959 0.1297933 -0.085194334 -0.04646659 0.19575453 -0.11530604 -0.018939363 -0.021244103
-0.031557415 0.090120375 -0.052964292 -0.045787826 0.06105743 0.074484706 -0.118081406 -0.02172876
0.0023347866 0.05121335 -0.12286216 0.042183615 -0.13098602 0.03640179 -0.11358105 -0.03407996
0.048418738 0.074983 -0.1099975 0.06385364 0.05839934 -0.060646337 0.09523888 -0.06635779
-0.022615422 -0.035843465 -0.016618062 0.10015446 -0.12229727 -0.043104704 0.13625972 -0.04138447
0.010393699 -0.07277166 -0.042241115 0.09462622 -0.009972627 -0.07546221 0.1362773 0.0034423405
-0.12816599 0.029233754 0.04871105 0.110376984 0.08393729 -0.009669344 0.10387337 -0.036099568
0.0304212 -0.057539955 -0.025895849 -0.014571698 -0.07666723 0.10256079 -0.023661377 -0.047527205
0.006140523 -0.038650494 0.034176137 -0.046327695 0.025466168 0.073105134 -0.021029182 0.062406592
0.06089943 -0.10034435 0.05558709 0.008906546 -0.050610427 -0.02327171 -0.0320385 0.017292254
0.12173527 0.0036521943 -0.046716403 -0.05975281 -0.01254576 -0.108903855 0.013776976 -0.05004317
-0.12348959 0.011710994 -0.06913837 0.017274773 -0.067276604 -0.08833845 -0.09685231 0.051406696
-0.10225825 0.06007992 -0.0263155 0.037722886 -0.012431188 0.08221853 -0.07889633 0.054677166
-0.09710862 0.04892799 -0.10102187 0.053443246 0.04826918 -0.110291906 0.105301805 -0.15938517
0.1317934 -0.043857884 -0.09592622 -0.06106291 -0.0008370332 0.021686582 -0.087614805 0.018798005
-0.12329459 0.11713104 -0.07847467 -0.087610036 0.011538247 0.07080003 0.0042931247 0.038140938
0.065254234 -0.033501923 0.04386274 -0.0859832 0.08374548 -0.071570486 -0.10703316 -0.12599309
0.022567907 -0.060161166 -0.100280575 -0.010535118 0.118773736 -0.071169555 -0.04090403 -0.10410949
-0.12799901 -0.08551017 -0.12287599 -0.048590258 0.025985856 -0.08136184 0.021652749 -0.051875133
0.025390198 -0.0032207503 -0.05562241 0.014609733 0.04218861 0.057895463 -0.0053998115 0.06979775
0.04106601 -0.015650932 -0.11358785 0.07040087 -0.036993906 0.07190569 0.09776505 0.14260407
-0.10937985 -0.030653792 -0.03295749 0.10149592 0.0476034 -0.010411606 -0.14358059 0.13290377
0.12260185 -0.045792077 0.060400564 0.09835355 -0.044287648 -0.030646026 0.092931174 0.12081897
-0.114284 0.097827554 -0.12449511 0.04718296 -0.12103379 0.05563421 -0.12124186 0.081250034
-0.022371078 0.022756742 0.09588853 -0.07350711 0.03183262 0.032690614 -0.13228972 0.12948014
-0.010946299 -0.027222281 0.051796958 -0.12060412 -0.14111444 0.119088195 -0.059853826 0.012432969
-0.13388447 -0.05986539 0.01670906 0.10017845 0.004644297 -0.13430811 -0.03416937 0.09390115
0.1081063 -0.14664204 -0.02857223 -0.11148638 0.014148042 -0.108386494 -0.0800245 0.09450971
00000000: 15f0 a9bc 7bb5 c8bd c90f 4ebd a7e4 41bd
00000010: 3406 2f3d 7a7f 9ebd 2aa5 503b 1cd3 b03d
00000020: 4e86 47bd e2c8 0abe 8943 8ebd 0863 bb3d
00000030: eb96 f83d 75c5 d3bb dcdf d0bd c56d 293e
00000040: b578 03be 087f 9abd 3b8a 5f3c 1949 00be
00000050: 5fe2 a9bd 0fe5 3f3e 097f 86bd 7110 02be
00000060: 3bf6 8f3b ec31 93bd 5cd1 a83d e7fc 28bc
00000070: 3f2f babc 9d0c 24bd 636b febd 6f7f 09be
00000080: ac90 18bb 89e8 043e 5e7a aebd c053 3ebd
00000090: e073 483e 9325 ecbd b926 9bbc 1d08 aebc
000000a0: 5942 01bd 0891 b83d 16f1 58bd 048c 3bbd
000000b0: 5b17 7a3d 708b 983d aad4 f1bd 8300 b2bc
000000c0: 3803 193b 17c5 513d 289f fbbd bac8 2c3d
000000d0: 3321 06be 0b1a 153d 2e9d e8bd 6e97 0bbd
000000e0: ba52 463d b090 993d 5f46 e1bd b2c5 823d
000000f0: 2534 6f3d 4b68 78bd 9a0c c33d 98e6 87bd
00000100: fa43 b9bc 99d0 12bd 9a22 88bc c81d cd3d
00000110: fe76 fabd 8f8e 30bd ab87 0b3e c382 29bd
00000120: 554a 2a3c 4f09 95bd 0505 2dbd 64cb c13d
00000130: 3b64 23bc ee8b 9abd 478c 0b3e e498 613b
00000140: f23d 03be a07b ef3c 3d85 473d 540d e23d
00000150: 50e7 ab3d 2b6c 1ebc 90bb d43d 24dd 13bd
00000160: e135 f93c 04af 6bbd 8823 d4bc 22be 6ebc
00000170: b503 9dbd 640b d23d 81d5 c1bc e3ab 42bd
00000180: 7136 c93b fb4f 1ebd 47fc 0b3d 1cc2 3dbd
00000190: 6d9e d03c 25b8 953d 6445 acbc 0e9e 7f3d
000001a0: ae71 793d 5781 cdbd 4aaf 633d c3ec 113c
000001b0: e14c 4fbd 50a4 bebc cd3a 03bd 7ca8 8d3c
000001c0: 5750 f93d a759 6f3b b359 3fbd 5dbf 74bd
000001d0: bb8c 4dbc fc08 dfbd d3b8 613c 11fa 4cbd
000001e0: 1ce8 fcbd 78df 3f3c 6b98 8dbd d383 8d3c
000001f0: 51c8 89bd caea b4bd 815a c6bd d48f 523d
00000200: c66c d1bd 5d16 763d 9a93 d7bc 5083 1a3d
00000210: 2eac 4bbc 3062 a83d 6694 a1bd 2af5 5f3d
00000220: e2e0 c6bd b768 483d 8ee4 cebd 4ee7 5a3d
00000230: e7b5 453d b9e0 e1bd 79a8 d73d de35 23be
00000240: d9f4 063e 53a4 33bd f774 c4bd 1a1d 7abd
00000250: 596c 5bba 0fa8 b13c 646f b3bd 46fe 993c
00000260: e081 fcbd 66e2 ef3d 54b7 a0bd e46c b3bd
00000270: ea0a 3d3c 9bff 903d 57ad 8c3b ac39 1c3d
00000280: 03a4 853d 5039 09bd 6ba9 333d f617 b0bd
00000290: c082 ab3d 8c93 92bd 3434 dbbd 5504 01be
000002a0: 55e0 b83c 8e6b 76bd e75f cdbd 7d9b 2cbc
000002b0: a53f f33d 58c1 91bd fc8a 27bd 5b37 d5bd
000002c0: 2c12 03be f51f afbd 68a6 fbbd 9406 47bd
000002d0: 4ae0 d43c 09a1 a6bd 1b61 b13c 057b 54bd
000002e0: 1bff cf3c 3913 53bb 53d4 63bd a95d 6f3c
000002f0: f7cd 2c3d cb23 6d3d e7f0 b0bb 1ff2 8e3d
00000300: d534 283d 6236 80bc bfa0 e8bd 552e 903d
00000310: ec86 17bd 4a43 933d 0b39 c83d cd06 123e
00000320: 8b02 e0bd a91d fbbc 6ffe 06bd 18dd cf3d
00000330: c8fb 423d 7195 2abc ca06 13be ed17 083e
00000340: ae16 fb3d 7990 3bbd 9566 773d 966d c93d
00000350: f766 35bd 600d fbbc b352 be3d f06f f73d
00000360: bb0d eabd d059 c83d 4bf7 febd eb42 413d
00000370: 90e0 f7bd b3e0 633d a74d f8bd 6b66 a63d
00000380: 8d43 b7bc 596c ba3c 3561 c43d e58a 96bd
00000390: ec62 023d 98e6 053d f576 07be 7196 043e
000003a0: 1b58 33bc 4301 dfbc 0c29 543d 4bff f6bd
000003b0: 4e80 10be 83e4 f33d 4929 75bd a7b3 4b3c
000003c0: 0319 09be 6935 75bd 70e1 883c 5c2a cd3d
000003d0: 302f 983b 1188 09be 2ef5 0bbd 3f4f c03d
000003e0: d666 dd3d 5529 16be 4f10 eabc f952 e4bd
000003f0: 30cd 673c bdf9 ddbd e3e3 a3bd 4f8e c13d

weight f4 [64, 128]
0.054127373 0.0026661025 -0.054841723 -0.09239636 0.044804387 0.031628348 0.014999361 0.042059965
-0.047014028 -0.10596945 -0.061350495 -0.015235265 0.02725613 0.025527937 -0.04840167 -0.026985673
-0.0155105945 -0.10012546 0.05897294 -0.03142456 -0.08110029 -0.018782519 0.09053776 -0.08265817
0.0024837558 0.030513741 0.03534721 0.02884318 0.0062790867 -0.068538554 -0.0039003924 -0.0158923
0.085643426 0.08240595 0.03551486 -0.0128536485 -0.055492066 -0.037231665 -0.030378241 0.021251189
0.054279253 0.05418637 0.018487638 0.07640112 -0.020767346 0.030885313 0.060170855 0.06947881
0.039592765 0.02002396 0.016774029 0.098812185 0.0869352 -0.06166734 0.08411037 0.0067521697
0.0058662333 -0.04330831 0.09644807 -0.032087583 0.09753797 0.089824885 0.04812542 -0.047411557
-0.05466494 0.109241344 0.039260577 -0.05523276 -0.0810613 0.034557275 -0.06337872 0.049778488
-0.032920998 0.071270935 0.058426052 0.035425194 0.052764706 -0.039754923 -0.045507267 -0.04772944
0.0021494399 0.006269225 -0.032216884 -0.07740281 0.096557446 0.0469774 0.0256526 -0.008916601
0.06577304 0.06602313 0.048991714 -0.04132918 0.0007126066 -0.062369276 -0.08896915 -0.000886129
0.00950215 0.0607825 -0.10078335 -0.062265035 -0.06419566 -0.055443905 0.105401054 -0.013859276
0.012204126 0.027347513 0.035916943 -0.0002764037 0.008639274 -0.10221401 -0.0019838517 -0.09816455
0.09061649 0.081572376 0.03217254 -0.06713379 -0.033363882 0.027806029 -0.0137100285 0.05442476
0.057116017 0.06426996 -0.06307016 -0.024085945 -0.07857132 0.017633187 0.039652295 0.08865824
0.08075349 -0.057467014 -0.0023235912 -0.061845504 0.0008071752 0.018896317 0.06760891 -0.033120617
0.03826377 0.047162633 -0.0030741643 -0.021517798 -0.086951226 -0.10401988 -0.09401966 0.0034388423
-0.007719482 0.028269399 -0.07741094 -0.08910209 -0.0962739 -0.020437203 -0.04804216 0.010767704
0.03554217 -0.010246504 0.00013204807 -0.0660342 0.029775457 0.031206775 -0.064990185 0.103730224
-0.022459047 0.043452464 0.05054084 0.018434312 -0.075428054 -0.0052668056 0.095181435 -0.114615045
0.086002976 0.008502776 -0.021712884 -0.054814152 0.040772565 0.00034805384 -0.009813486 -0.09482233
0.0009616601 -0.07005285 0.039777957 0.010904157 0.05836501 -0.0729279 -0.07847982 0.11399976
-0.035875224 -0.011740693 -0.036270086 -0.10550033 -0.03440084 -0.027998785 -0.034422006 -0.071815535
0.06483183 -0.060895935 0.043782894 0.01517718 -0.011992923 0.013142574 -0.03626478 0.019816298
0.02555768 -0.019002218 -0.04385737 -0.043738067 0.044384755 0.07701789 0.06921981 0.06494359
-0.016933462 0.01864196 0.09281949 0.08320976 -0.06327883 -0.017674226 0.057876233 -0.013683906
-0.0048713693 0.061720844 0.06709667 -0.030916149 -0.071187064 0.05985768 -0.0028549894 0.11310165
-0.044887163 -0.08360722 0.011976737 0.10821548 -0.0017667565 0.11311204 -0.10450235 -0.003247829
-0.03272294 0.085556485 -0.009973283 -0.08552082 -0.024169413 0.05361536 -0.007569479 0.07388017
0.060429495 0.017013675 -0.035566367 0.053749457 0.052978616 -0.05325338 -0.012166497 0.002949855
-0.031156946 0.011276953 -0.07695712 -0.07312723 0.034960426 -0.049374595 -0.031897932 -0.017769761
00000000: aab4 5d3d c7b9 2e3b b7a1 60bd 4e3a bdbd
00000010: ce84 373d ba8c 013d e1bf 753c 1247 2c3d
00000020: c891 40bd 8306 d9bd a84a 7bbd 559d 79bc
00000030: 3f48 df3c f71f d13c d440 46bd 0f11 ddbc
00000040: 2620 7ebc 940e cdbd 9c8d 713d 0ab7 00bd
00000050: e917 a6bd ccdd 99bc dc6b b93d b048 a9bd
00000060: 82c6 223b f4f7 f93c 3cc8 103d 8848 ec3c
00000070: ccc0 cd3b f15d 8cbd ba9d 7fbb 9230 82bc
00000080: d265 af3d 73c4 a83d 0878 113d 1c98 52bc
00000090: a64b 63bd 3b80 18bd cadb f8bc f916 ae3c
000000a0: ec53 5e3d 87f2 5d3d 6373 973c 3178 9c3d
000000b0: 4820 aabc 3203 fd3c b775 763d e84a 8e3d
000000c0: 062c 223d 4a09 a43c b069 893c 0b5e ca3d
000000d0: 150b b23d e596 7cbd 0f42 ac3d 4e41 dd3b
000000e0: 8839 c03b 0e64 31bd 9186 c53d 456e 03bd
000000f0: fdc1 c73d 1cf6 b73d 291f 453d 9f32 42bd
00000100: 58e8 5fbd edb9 df3d b3cf 203d bf3b 62bd
00000110: 7803 a6bd ee8b 0d3d b4cc 81bd 87e4 4b3d
00000120: 2bd8 06bd 7ff6 913d 2850 6f3d 021a 113d
00000130: ce1f 583d 0fd6 22bd d465 3abd f27f 43bd
00000140: 9edd 0c3b 126e cd3b daf5 03bd 5d85 9ebd
00000150: e9bf c53d 606b 403d 6725 d23c ef16 12bc
00000160: 04b4 863d 2337 873d 89ab 483d c948 29bd
00000170: 38ce 3a3a ed76 7fbd 7535 b6bd 1c4b 68ba
00000180: e8ae 1b3c 12f7 783d 8067 cebd 9f09 7fbd
00000190: 0479 83bd 2619 63bd 82dc d73d 0412 63bc
000001a0: d1f3 473c e407 e03c a51d 133d 47ea 90b9
000001b0: be8b 0d3c 9455 d1bd 8203 02bb 7f0a c9bd
000001c0: 2395 b93d 6b0f a73d 5ac7 033d 717d 89bd
000001d0: 91a8 08bd 78c9 e33c 07a0 60bc 7fec 5e3d
000001e0: 7cf2 693d f89f 833d ee2a 81bd e34f c5bc
000001f0: 00ea a0bd 7973 903c 726a 223d 7492 b53d
00000200: 1662 a53d 8862 6bbd 6447 18bb b651 7dbd
00000210: 9c98 533a 73cc 9a3c 8a76 8a3d 7ca9 07bd
00000220: 79ba 1c3d 9b2d 413d eb77 49bb 1846 b0bc
00000230: 7c13 b2bd 6008 d5bd 618d c0bd 335e 613b
00000240: b5f3 fcbb 3a95 e73c a089 9ebd 287b b6bd
00000250: 402b c5bd ec6b a7bc dbc7 44bd 066b 303c
00000260: ab94 113d f4e0 27bc 6276 0a39 f03c 87bd
00000270: a9eb f33c 5aa5 ff3c 9319 85bd 8370 d43d
00000280: 09fc b7bc 36fb 313d e903 4f3d 8e03 973c
00000290: 067a 9abd 2b95 acbb 7cee c23d 4bbb eabd
000002a0: 5422 b03d 3a4f 0b3c 38df b1bc ce84 60bd
000002b0: 2201 273d ff7a b639 bec8 20bc 3632 c2bd
000002c0: eb17 7c3a de77 8fbd 36ee 223d 59a7 323c
000002d0: 2610 6f3d 395b 95bd 07ba a0bd b578 e93d
000002e0: e6f1 12bd 095c 40bc f18f 14bd 8f10 d8bd
000002f0: e5e7 0cbd b55d e5bc 17fe 0cbd 0614 93bd
00000300: 8dc6 843d 046e 79bd b155 333d b5a9 783c
00000310: f77d 44bc f353 573c 618a 14bd ca55 a23c
00000320: 575e d13c 8aaa 9bbc c9a3 33bd b026 33bd
00000330: cacc 353d 8ebb 9d3d 1ec3 8d3d 2501 853d
00000340: 0bb8 8abc 06b7 983c 2518 be3d e169 aa3d
00000350: 5598 81bd 8ac9 90bc a10f 6d3d 7632 60bc
00000360: 02a0 9fbb ffce 7c3d fb69 893d dd43 fdbc
00000370: 86ca 91bd 542d 753d c61a 3bbb d6a1 e73d
00000380: 9adb 37bd 433a abbd 133a 443c 14a0 dd3d
00000390: 8392 e7ba 49a7 e73d 5405 d6bd 87d9 54bb
000003a0: 7d08 06bd 3d38 af3d fb66 23bc 8a25 afbd
000003b0: effe c5bc c89b 5b3d 6409 f8bb 7d4e 973d
000003c0: eb84 773d 4360 8b3c 0aae 11bd 6428 5c3d
000003d0: 1b00 593d 3720 5abd fd55 47bc 5b52 413b
000003e0: da3c ffbc f8c2 383c b29b 9dbd bbc3 95bd
000003f0: aa32 0f3d 043d 4abd 68a7 02bd e491 91bc

bias f4 [64]
0.08575518 0.07719975 -0.02232601 -0.01221991 -0.042140573 -0.045966346 0.010653251 0.055418104
0.06345174 0.07520563 -0.0081096105 -0.054691624 0.026560495 -0.024157437 0.08820953 -0.052747935
-0.052636664 -0.050318696 0.015765324 0.0064080255 -0.022438416 0.012818419 0.08929119 -0.026939387
0.0674793 0.016642716 -0.0025445411 0.07169804 -0.020602873 0.014304367 0.08369558 -0.029237924
0.020881526 0.04496475 -0.037493933 -0.048475374 0.079556465 -0.08818944 -0.01947545 0.049283177
-0.002105645 0.024458101 -0.030247154 0.08456958 0.033525012 0.013792507 0.03434449 -0.0663756
-0.05100781 0.03901307 0.047409322 -0.0013226056 -0.051220402 -0.016116887 -0.013572345 -0.04199455
0.051077142 0.019312687 0.06219286 0.026119726 -0.03917293 0.014275922 -0.03762747 -0.08347808
00000000: 69a0 af3d e71a 9e3d 09e5 b6bc 0436 48bc
00000010: 989b 2cbd 3547 3cbd f98a 2e3c 18fe 623d
00000020: fcf2 813d 6905 9a3d 2cde 04bc 5304 60bd
00000030: 6595 d93c d1e5 c5bc 33a7 b43d 380e 58bd
00000040: 8b99 57bd fa1a 4ebd 4826 813c 6afa d13b
00000050: c5d0 b7bc 5904 523c 4dde b63d fdaf dcbc
00000060: 9632 8a3d 4e56 883c 51c2 26bb 6cd6 923d
00000070: 5bc7 a8bc dd5c 6a3c 9768 ab3d 5f84 efbc
00000080: bc0f ab3c f52c 383d 3d93 19bd 1d8e 46bd
00000090: 80ee a23d aa9c b4bd fb8a 9fbc 28dd 493d
000000a0: dcfe 09bb 5b5c c83c e1c8 f7bc d132 ad3d
000000b0: 8651 093d f8f9 613c cfac 0c3d eeef 87bd
000000c0: 91ed 50bd 2bcc 1f3d 4730 423d 485b adba
000000d0: 7ccc 51bd 9007 84bc 8a5e 5ebc 7a02 2cbd
000000e0: 4436 513d a435 9e3c f1bd 7e3d 09f9 d53c
000000f0: cb73 20bd 8fe5 693c 431f 1abd 8ef6 aabd
