GNN/ArchGNN/trained_models/Apr-20ver2.pt (torch, 394923 bytes, 17 tensors)

weight f4 [16, 3]
0	0x3d26be88	0.04070905
1	0xbdeb81bd	-0.11499355
2	0xbe3eadf8	-0.18621051
3	0x3df44eac	0.11929068
4	0x3c115da3	0.008872422
5	0xbee4cfb7	-0.44689724
6	0x3d2ddfca	0.04244975
7	0x3ea22cb6	0.31674737
8	0x3e853570	0.26017332
9	0xbe39989b	-0.1812462
10	0x3ebf26fc	0.3733443
11	0xbef04bc7	-0.46932814
12	0x3d535bef	0.051601347
13	0xbd9c1212	-0.07620634
14	0x3e513820	0.20431566
15	0xbdbf0adb	-0.093282424
16	0x3e8a0fd9	0.26965216
17	0x3eb0179c	0.34393013
18	0xbe1cce5c	-0.15313095
19	0x3f09aa94	0.53775907
20	0xbebbc499	-0.3667343
21	0x3c0ec73d	0.008714494
22	0xbdd31e9a	-0.10308571
23	0x3ebb6969	0.3660386
24	0x3ced9b92	0.029004846
25	0xbd90de62	-0.07073666
26	0xbe37eab4	-0.17960626
27	0x3ebf7b90	0.37398958
28	0x3f0ec3d4	0.5576756
29	0x3d77e9d5	0.060525734
30	0x3cb8897f	0.0225265
31	0xbc304ecf	-0.010760977
32	0xbe66fe85	-0.22558029
33	0xbe185da5	-0.14879473
34	0x3be3d59c	0.0069529545
35	0x3ec661b3	0.38746414
36	0xbd8eb768	-0.06968576
37	0x3b4051aa	0.002934555
38	0x3ecc9cd3	0.39963397
39	0x3d3dca97	0.046335783
40	0xbb0425e9	-0.0020164198
41	0x3de29e45	0.11065344
42	0x3e6eaf1e	0.2330899
43	0x3e717ad2	0.23582008
44	0x3eed8014	0.46386778
45	0xbd346b4a	-0.04404763
46	0xbe66a2c3	-0.22523026
47	0x3e2484aa	0.16066232

bias f4 [16]
0	0x3e9fedc2	0.31236082
1	0xbc190ac9	-0.00934095
2	0xbce7f6df	-0.02831596
3	0xbd2c9fbd	-0.042144526
4	0x3d819310	0.06326878
5	0xbca5a8c4	-0.020222075
6	0x3d626897	0.055275526
7	0x3c3a5bd0	0.011374429
8	0x3e52386d	0.20529337
9	0x3c1ea942	0.009683909
10	0x3bcf7ccb	0.006332015
11	0x3d84a032	0.06475867
12	0xbc81813f	-0.0158087
13	0x3d5d631e	0.054049604
14	0xbcca1209	-0.024666803
15	0x3db4f686	0.08836083

c f4 [8]
0	0xbd8fea6f	-0.070271365
1	0xbdc62c4e	-0.09676419
2	0xbd144eed	-0.036208082
3	0x3e7e82d2	0.24854591
4	0x3da421f9	0.08014292
5	0xbd2a8470	-0.04163021
6	0x3d76774b	0.06017236
7	0xbe77b17d	-0.241888

bias f4 [32]
0	0x3e0bd9d7	0.13657318
1	0xbbfb6ae5	-0.007672655
2	0x3daca781	0.08430386
3	0xbb4dfab4	-0.0031429948
4	0x3d2139e9	0.039361868
5	0x3c3d6516	0.011559745
6	0x3dfae1f0	0.122501254
7	0x3d71c7f9	0.0590286
8	0x3dd05eb8	0.10174316
9	0x3d466e00	0.048444748
10	0xbe2f5dcd	-0.17125626
11	0x3e236ce6	0.1595951
12	0xbc34d216	-0.0110364165
13	0x3e446327	0.19178449
14	0xbd15b360	-0.03654802
15	0x3e783758	0.24239862
16	0xbd2b722c	-0.04185693
17	0x3d37a389	0.044833694
18	0xbd67cda3	-0.056592595
19	0x3defcccb	0.11708983
20	0x3d0a5c4e	0.033779435
21	0x3c28a029	0.010292091
22	0x3c3ee71d	0.011651781
23	0xbc87fc5b	-0.016599825
24	0x3db16063	0.086609624
25	0x3dc759e0	0.09733939
26	0xbd422985	-0.047402877
27	0x3e6ee5b4	0.23329812
28	0x3d00402b	0.031311195
29	0xbc5ad642	-0.013356747
30	0x3bcfae0a	0.0063378857
31	0xbd0248cf	-0.031807717

weight f4 [256, 16]
0	0xbaf8b13e	-0.0018973721
1	0x3bc67982	0.0060569653
2	0xbd307ddb	-0.043088775
3	0x3e135cb7	0.14390837
4	0xbc13b0eb	-0.0090143485
5	0xbd6cb2e0	-0.057787776
6	0x3e354d9f	0.17705391
7	0xbcf8daaa	-0.030377705
8	0x3b1a7167	0.0023566128
9	0xbc0fdbc8	-0.008780427
10	0x3b87395a	0.00412671
11	0xbd2f66bb	-0.04282258
12	0xbce6f1a3	-0.028191393
13	0xbc630893	-0.013857025
14	0x3d8e03e0	0.06934333
15	0x3ccd71ad	0.025078619
16	0xbc822695	-0.015887538
17	0xbbdb11c9	-0.0066854698
18	0x3d82e2c7	0.063909106
19	0x3c5d98b4	0.013525177
20	0xbca3cf2b	-0.019996246
21	0x3d24e49d	0.040257085
22	0x3d241605	0.040060062
23	0xbce7ea83	-0.028310066
24	0xbc6943bc	-0.014237341
25	0x3d0ea46a	0.034824766
26	0xbc49d0a1	-0.012317807
27	0xbcb91c2f	-0.022596447
28	0xbcc4451d	-0.023958737
29	0xbc292b4d	-0.010325265
30	0x3d0bec6c	0.034161016
31	0x377f3953	1.5212531e-05
32	0x3d89ea62	0.06734158
33	0x3dd276c6	0.102765605
34	0x3d320686	0.043463252
35	0x3db53124	0.088472635
36	0x3d44cdb0	0.04804772
37	0x3d935b21	0.07195116
38	0x3d984f30	0.07436979
39	0x3dc03c59	0.093865104
40	0x3d874726	0.06605367
41	0x3bb0c46c	0.005394509
42	0x3d9e4ca0	0.07729459
43	0x3dc7dd2d	0.09758983
44	0x3ddff5f2	0.10935582
45	0x3d18f37e	0.037341587
46	0x3da56def	0.08077609
47	0xbc87fd2c	-0.016600214
48	0x3c16505b	0.009174432
49	0x3d060e8c	0.032728717
50	0xbc016cdd	-0.00789949
51	0x3ccd150b	0.025034448
52	0xbca81a3f	-0.020520328
53	0xbb541b0d	-0.0032364756
54	0x3caecbf8	0.021337494
55	0xbc3f8ea3	-0.011691722
56	0x3c2aad3f	0.010417282
57	0xbc75e7de	-0.015008895
58	0x3ca0b404	0.019617088
59	0xbb3f9acb	-0.002923655
60	0xbb3b20da	-0.0028553517
61	0xbc74e80e	-0.014947904
62	0xb994d79c	-0.000283894
63	0xbc3309dc	-0.010927644
64	0xbca97d4e	-0.020689633
65	0xbd1e9eac	-0.03872554
66	0xbcdac695	-0.02670602
67	0x3d07e78d	0.03317981
68	0xbbd5dc6c	-0.0065265205
69	0x3da1e89a	0.07905693
70	0x3d921163	0.071322225
71	0xbc99b793	-0.018764293
72	0xbcbe6216	-0.02324013
73	0x3e10e70d	0.14150639
74	0xbcace708	-0.021106258
75	0xbd12e7e3	-0.035865676
76	0xbd2ffc6b	-0.042965334
77	0xbc365ca6	-0.011130488
78	0x3dcfb4ca	0.10141905
79	0x3d286035	0.041107375
80	0x3c766108	0.0150377825
81	0x3d219031	0.039444152
82	0x3b1e2380	0.0024130046
83	0x3d067e57	0.03283533
84	0x3d23cb87	0.03998902
85	0x3c1cc039	0.009567314
86	0x3ba5f637	0.0050647515
87	0x3d407c9c	0.046993837
88	0x3c890405	0.01672555
89	0xbcabf666	-0.020991515
90	0x3ca72f83	0.020408398
91	0x3d519b86	0.05117371
92	0x3d496d79	0.049176667
93	0x3d2f6788	0.042823344
94	0x3ccb1b68	0.024793342
95	0xbbf5d615	-0.007502327
96	0x3c87d4be	0.016580936
97	0xbd8bb11c	-0.0682089
98	0x3df66405	0.12030796
99	0x3e608c6b	0.21928565
100	0x3c5629ee	0.01307152
101	0x3d158838	0.03650686
102	0x3eaaba51	0.33345273
103	0xbca85cfa	-0.020552147
104	0x3b18eff9	0.0023336394
105	0x3e889413	0.26675472
106	0xbd4c96ec	-0.049948618
107	0xbd3cae1f	-0.046064492
108	0xbd464ace	-0.048411183
109	0xbba4a6a4	-0.005024748
110	0x3bc4b2d8	0.006002765
111	0x3ccec80a	0.02524187
112	0x3d375d85	0.04476692
113	0x3d9d40c1	0.076783665
114	0x3c7cff84	0.015441779
115	0x3d718e9e	0.0589739
116	0x3c9fa930	0.019489855
117	0x3cf256e0	0.02958244
118	0x3d349435	0.044086654
119	0x3d2560c4	0.040375486
120	0x3d35cad2	0.044382878
121	0xbc066177	-0.008201948
122	0x3d63fc0e	0.0556603
123	0x3d513aff	0.051081654
124	0x3d55779a	0.052116014
125	0x3c937feb	0.018005332
126	0x3d136db8	0.035993308
127	0xbccb446e	-0.024812903
128	0xbc9046fb	-0.017611971
129	0xbb34a627	-0.0027564855
130	0x3e1f9de0	0.15587568
131	0x3e838fee	0.25695747
132	0xbd809120	-0.062776804
133	0x3da2ceaa	0.07949574
134	0x3eb8807d	0.3603553
135	0xbdc98cec	-0.09841332
136	0xbca87b81	-0.020566704
137	0x3e9a589a	0.30145723
138	0xbc36fa88	-0.01116813
139	0xbd9ede70	-0.0775727
140	0xbd9fc13f	-0.07800531
141	0xbcebe1bc	-0.028794162
142	0x3d66d545	0.056355733
143	0x38e90b6a	0.00011112432
144	0xbbdf4d4f	-0.006814636
145	0x3c9d4d1e	0.019201811
146	0x3ddd25de	0.10798238
147	0x3ddae9cb	0.10689124
148	0xbd033ff1	-0.0320434
149	0x3d844cf1	0.06459988
150	0x3e28769a	0.16451493
151	0xbd301249	-0.042986188
152	0xbb5befa4	-0.0033559585
153	0x3e01e1ec	0.12683839
154	0x3bcb11e1	0.0061971997
155	0xbcf57396	-0.029962342
156	0xbd020b8e	-0.0317493
157	0xbc6031c6	-0.013683742
158	0x3d4c7185	0.04991295
159	0x39ee92bc	0.00045504223
160	0xbca768c9	-0.020435708
161	0xbc5844da	-0.013200009
162	0xbd82b902	-0.06382944
163	0x3dd62d4c	0.104578584
164	0xbb567379	-0.0032722636
165	0x3c61da3c	0.013784941
166	0x3d6992d3	0.057024788
167	0xbae06cb4	-0.001712224
168	0xbcb83a73	-0.022488808
169	0x3d7303e1	0.05932987
170	0xbae57533	-0.0017506242
171	0xbba892ed	-0.005144468
172	0xbc3fcad8	-0.011706077
173	0xbba61a83	-0.0050690784
174	0x3dbcbb29	0.092153855
175	0x3d39e738	0.045386523
176	0xbcc300b5	-0.023804048
177	0xbd801695	-0.06254307
178	0x3dcc0bc1	0.099631794
179	0x3b9435dd	0.0045230226
180	0xbbbc2b94	-0.0057424996
181	0xbd8b9897	-0.068162136
182	0x3ddcb819	0.10777301
183	0xbc258ef6	-0.010104885
184	0xbcd8ce57	-0.026465578
185	0x3e42a1e8	0.19007075
186	0xbc49d326	-0.012318408
187	0xbc43c57e	-0.011948941
188	0xbd187577	-0.0372214
189	0xbc617b01	-0.013762237
190	0xbbfacc98	-0.007653784
191	0x3d2c3911	0.04204661
192	0xba858ffc	-0.0010190005
193	0x3ceeb59f	0.029139338
194	0x3c290cea	0.01031802
195	0x3e0a9309	0.13532652
196	0xbc40b490	-0.011761799
197	0xbca88549	-0.020571368
198	0x3e41cf4d	0.18926735
199	0xbc72535b	-0.014790381
200	0x3b22fbb5	0.0024869267
201	0x3c4009ed	0.0117211165
202	0x3c545315	0.012959261
203	0xbc88bae0	-0.016690671
204	0xbc7d347c	-0.015454408
205	0xbc8208cc	-0.015873335
206	0xbd17cb64	-0.037059203
207	0x3cc012cf	0.023446469
208	0x391759e7	0.00014433973
209	0x3c55a163	0.013038966
210	0xbd069c37	-0.03286382
211	0x3d92b3fa	0.07163234
212	0x3b9d66cd	0.0048035146
213	0xbd08bfa7	-0.0333859
214	0x3dc0e904	0.09419444
215	0xb9d5cc2a	-0.0004077864
216	0x3b08bf4a	0.002086597
217	0xbd3703b7	-0.044681277
218	0x3bb22afa	0.005437252
219	0xbc9de7da	-0.019275595
220	0xbcf0eab0	-0.029408783
221	0x38b367d5	8.554725e-05
222	0xbd728cf9	-0.059216473
223	0x3ce1c275	0.027558545
224	0xbb98480c	-0.0046472605
225	0xbbfcd8ac	-0.007716259
226	0xbd6000bd	-0.054688204
227	0xbc31301c	-0.010814693
228	0x3a595147	0.00082900043
229	0xbd2ecc1e	-0.04267513
230	0xbc3dbb65	-0.011580323
231	0xbc08a929	-0.008341112
232	0xba9d0865	-0.0011980651
233	0xbc71f0b7	-0.014766864
234	0xbb54fc3b	-0.0032498974
235	0xbc975d16	-0.018477004
236	0xbc834edf	-0.01602882
237	0xbb7cd4b9	-0.003857894
238	0xbd4fb8cb	-0.05071334
239	0xb9967ea6	-0.0002870459
240	0x3d1108f6	0.035408936
241	0x3d1b99f1	0.037988607
242	0xbb861863	-0.0040922626
243	0x3d18b551	0.03728229
244	0x3bc66db3	0.0060555576
245	0xbd2cc6ab	-0.042181652
246	0x3d0a603a	0.033783175
247	0x3c398838	0.011323981
248	0x3c8f2ad3	0.017476475
249	0xbd1dfbe8	-0.038570315
250	0x3ca5c965	0.020237634
251	0x3c79bbad	0.015242499
252	0x3c58f7c3	0.013242665
253	0x3b47a930	0.0030465834
254	0xbd01d08f	-0.031693038
255	0x3b132f99	0.002245879

weight f4 [8, 16]
0	0xbd5e08a4	-0.05420746
1	0xbca363bf	-0.019945024
2	0x3e6cb46f	0.23115705
3	0x3dd23f3a	0.10265966
4	0x3bdff525	0.0068346434
5	0x3e0ee600	0.13954926
6	0x3bf1091b	0.007355822
7	0x3cfa0c4e	0.030523445
8	0xbd4e6bf4	-0.05039592
9	0x3dc6219b	0.096743785
10	0xbd4632df	-0.04838836
11	0x3d47e52c	0.04880254
12	0x3d56a0ee	0.05239957
13	0xbbff52d0	-0.0077918544
14	0x3e32ecee	0.17473194
15	0xbe0111ce	-0.12604448
16	0x3ce398f8	0.027782902
17	0x3d8f29a6	0.06990366
18	0xbd92092b	-0.07130655
19	0xbe0c4b40	-0.1370058
20	0xbc113d7e	-0.008864759
21	0xbdb36e79	-0.08761305
22	0x3e759be1	0.23985244
23	0xbd12f000	-0.035873413
24	0xbd332d48	-0.043744355
25	0xbd6bcfbd	-0.05757116
26	0x3d1f206c	0.03884928
27	0xbc47bbcd	-0.012190771
28	0xbd19cd6d	-0.037549425
29	0xbcd337cc	-0.025783442
30	0xbc557b9a	-0.013029957
31	0x3d3cf7ea	0.046134867
32	0x3ca07886	0.01958872
33	0x3caff208	0.021477714
34	0x3d48e62f	0.049047645
35	0x3d93850b	0.0720311
36	0xbc88e6fa	-0.0167117
37	0xbc2a6363	-0.010399672
38	0xbcf6030d	-0.030030752
39	0xbca0881b	-0.01959615
40	0x3bcea5e4	0.006306397
41	0xbe1c05e0	-0.15236616
42	0x3cafd1b3	0.021462297
43	0xbc9a0a0e	-0.018803623
44	0xbca3d903	-0.02000094
45	0xbc81dec9	-0.015853303
46	0xbbd308df	-0.0064402665
47	0x3d2d3825	0.04228987
48	0x3d235457	0.039875355
49	0x3e71be47	0.23607741
50	0xbc8c1c50	-0.017103344
51	0x3e8c7b79	0.27437952
52	0xbcb288de	-0.021793779
53	0xbda1b706	-0.07896237
54	0xbe0b4fdc	-0.13604683
55	0xbdb1886b	-0.08668598
56	0x3d90e9e9	0.07075865
57	0xbccc6c4f	-0.02495399
58	0x3e490c19	0.19633521
59	0xbbcacaac	-0.006188711
60	0x3dc916cf	0.098188035
61	0x3b569240	0.003274098
62	0xbe76616e	-0.24060604
63	0xbd0bacde	-0.034100406
64	0x3d1c057f	0.03809118
65	0x3dd5d6e3	0.10441377
66	0xbdb024a0	-0.08600736
67	0x3d011f84	0.031524196
68	0x3e6e272b	0.23257129
69	0x3cb42e36	0.021994691
70	0xbe3b4e34	-0.18291551
71	0x3e38227b	0.17981903
72	0x3d4ee47f	0.05051088
73	0xbe8e7d63	-0.27830037
74	0x3dbbdf1a	0.091734126
75	0x3e3eb430	0.18623424
76	0x3e48373c	0.1955232
77	0x3d87c803	0.06629946
78	0x3b87b798	0.004141759
79	0xbd15b7f3	-0.03655238
80	0x3b3c1cdd	0.0028703727
81	0xbe497cda	-0.19676533
82	0x3e882353	0.2658945
83	0xbe44ee74	-0.19231588
84	0x3b8fd0d1	0.0043889065
85	0x3e6c191b	0.23056452
86	0xbe8862f1	-0.26637986
87	0x3cbef16c	0.023308478
88	0xbc1b4bcd	-0.0094785215
89	0xbe41c86c	-0.18924111
90	0xbc68dbe8	-0.014212586
91	0x3da3906d	0.079865314
92	0x3daade60	0.08343196
93	0x3d2884fb	0.041142445
94	0x3d93d838	0.07218975
95	0xbdca5d16	-0.09881036
96	0x3d569c86	0.052395366
97	0xbda47fe6	-0.08032207
98	0xbc8cc643	-0.017184382
99	0xbdd204b6	-0.10254805
100	0x3954377c	0.00020238565
101	0x3e3dd0a7	0.18536626
102	0xbb4cce34	-0.0031250836
103	0xbccd2984	-0.02504421
104	0x3cfc8ab2	0.030827854
105	0x3df44260	0.119267225
106	0x3970c709	0.0002296233
107	0x3e32562c	0.17415684
108	0x3e44250c	0.19154757
109	0x3c17bccb	0.00926132
110	0x3e6681c4	0.22510439
111	0x3e19e1b0	0.15027499
112	0xbbfe84b3	-0.007767284
113	0xbca716e7	-0.020396663
114	0xbe0fdc2b	-0.14048831
115	0x3e41886f	0.18899702
116	0xbb1b3944	-0.0023685256
117	0xbcdb0440	-0.026735425
118	0xbd353aa5	-0.04424538
119	0xbc302559	-0.010751092
120	0x3a6903ec	0.0008888829
121	0x3da29b42	0.07939769
122	0x3b930a22	0.004487292
123	0xbd0f52c7	-0.034991052
124	0xbd470d3e	-0.048596613
125	0xbcb96a0e	-0.022633579
126	0xbd3f5717	-0.046713915
127	0x3d34c1b3	0.04413004

c f4 [8]
0	0xbe0a12c2	-0.13483718
1	0xbdcce1ae	-0.100039825
2	0x3c5310ae	0.012882395
3	0x3d7b73b7	0.06138965
4	0xbe1a6ee1	-0.1508136
5	0x3c1940d5	0.009353836
6	0xbd0b526c	-0.03401415
7	0xbd9f550d	-0.07779894

bias f4 [64]
0	0x3bbf57ff	0.0058393474
1	0x3de3cc7b	0.11122986
2	0x3cc7398d	0.024319435
3	0x3d1c8c90	0.03821999
4	0x3a6b2ee7	0.00089715276
5	0x3d384f8e	0.044997744
6	0x3dde6461	0.108589895
7	0xbbeb7c4b	-0.0071864477
8	0x3d65b59a	0.056081392
9	0x3acfa987	0.001584337
10	0xbbde17a6	-0.0067777215
11	0x3dd33d7b	0.10314461
12	0x3e4e157a	0.2012538
13	0x3e85631e	0.26052183
14	0x3c5ed34d	0.013600183
15	0x3c8e1e16	0.01734833
16	0x3acc1351	0.0015569722
17	0x3b9f14ed	0.0048547895
18	0x3dbe838d	0.09302435
19	0x3db51f6f	0.08843886
20	0x3d309dc0	0.043119192
21	0x3e2bced5	0.16778119
22	0x3c91b00d	0.017784143
23	0x3da18f9a	0.07888718
24	0x3cff5f31	0.03117332
25	0x3e464d0b	0.19365327
26	0x3c408a7c	0.011751767
27	0x3edb7ed2	0.42870194
28	0x3d1a565f	0.037680026
29	0x3c8d4f12	0.017249618
30	0x3dae45a3	0.08509376
31	0x3d1b452d	0.037907768
32	0x3db4c79c	0.08827135
33	0x3ce055d3	0.027384674
34	0x3d7debfd	0.061992634
35	0x39e0f290	0.00042905333
36	0x3d8f3982	0.069933906
37	0x3b02d13f	0.0019961146
38	0xbbbb2979	-0.005711731
39	0x3ca5895d	0.020207101
40	0x3c122df6	0.008922091
41	0x3cdefdee	0.027220692
42	0x3e6a1ca8	0.22862494
43	0x3cfda8f8	0.03096436
44	0x3d359fc5	0.04434182
45	0x3e82a7b9	0.25518587
46	0x3bf3286f	0.0074205915
47	0x3d06a3dd	0.032871116
48	0x3cca3148	0.024681702
49	0x3e1539cd	0.1457283
50	0x3d86c663	0.06580808
51	0x3d11b1ba	0.035569884
52	0x3d837651	0.064190514
53	0x3d8b3222	0.067966715
54	0x3e6cbcbb	0.2311887
55	0x3d437651	0.047720257
56	0x3d1ffb3c	0.039057955
57	0x3e3b3a1b	0.18283884
58	0x3cc52bfa	0.024068821
59	0x3c10633c	0.008812722
60	0x3ccdc0ce	0.02511635
61	0x3d5ab5d7	0.053396072
62	0x3d282020	0.04104626
63	0x3d8aae29	0.067715

weight f4 [512, 32]
0	0xbb1b11c2	-0.0023661708
1	0x3921a809	0.00015416754
2	0x3c701a39	0.0146546895
3	0x3c2b9ffd	0.010475156
4	0x3c765777	0.015035502
5	0x3bd27e24	0.0064237285
6	0xbc795472	-0.015217887
7	0x3cde2d4d	0.02712121
8	0x3c279550	0.01022847
9	0x3b8edb7d	0.004359661
10	0x3ca648bb	0.020298352
11	0x3c956664	0.0182373
12	0xbb4647e3	-0.003025525
13	0xbb8e0514	-0.0043341015
14	0x3ab467ba	0.0013763823
15	0xbc025a7e	-0.007956145
16	0xbaaf8c42	-0.001339324
17	0x3b805e73	0.003917509
18	0x3bb3ccae	0.005487046
19	0x3c7ee980	0.0155586
20	0xbba34ed8	-0.004983764
21	0xbb9a2e35	-0.0047052153
22	0x3cb1a1e1	0.021683635
23	0x37c95551	2.4000796e-05
24	0x3d23c329	0.03998104
25	0x3c2b6825	0.010461842
26	0x3a073b14	0.00051586446
27	0x3b6d078a	0.0036167824
28	0x3d0fd78a	0.035117663
29	0x38d85a09	0.00010316453
30	0xbb9940ee	-0.0046769297
31	0xb5ac7991	-1.2850379e-06
32	0x3d9ce1a5	0.07660226
33	0x3c9a99d8	0.018872187
34	0xbd5f2c97	-0.054485884
35	0xbbadc5d8	-0.005303126
36	0x3e28721d	0.16449781
37	0x3ae3fa5a	0.0017393336
38	0x3b62c2b0	0.0034600906
39	0xbd40ee95	-0.04710253
40	0x3d5565c1	0.052098993
41	0x3cfb4ab0	0.030675262
42	0x3e61168a	0.21981254
43	0x3e28791d	0.16452451
44	0x3d52d3db	0.051471572
45	0x3cdc12f3	0.026864504
46	0x3c987203	0.018609053
47	0xbbdc2aa5	-0.006718951
48	0x3d0d0314	0.034426764
49	0x3d211c0b	0.039333384
50	0x3d22b30e	0.03972154
51	0x3d6aba03	0.0573063
52	0x3c11acba	0.008891279
53	0x3b878f3a	0.004136947
54	0xb9f8dd20	-0.00047466997
55	0x3d0c40eb	0.034241598
56	0xbd819458	-0.063271224
57	0x3da25b11	0.07927526
58	0x3d29e655	0.041479427
59	0x3d88a8bb	0.06672808
60	0xbc632c9e	-0.013865618
61	0x3c66671b	0.014062668
62	0xb9ee29cc	-0.0004542604
63	0x3c0868f8	0.008325808
64	0xb8b2330a	-8.497208e-05
65	0x3bb6b0e4	0.005575286
66	0x3a8252ad	0.0009942852
67	0x3cc88528	0.024477556
68	0x3ce93549	0.028467791
69	0x3c880b12	0.016606841
70	0xbc948dee	-0.018134084
71	0x3d73cca1	0.05952132
72	0x3c5067c4	0.012720052
73	0x3c19c5c4	0.00938553
74	0x3d1066ae	0.035254173
75	0x3d08f9fe	0.033441536
76	0x3bcad8ed	0.0061904103
77	0xbaa47810	-0.0012547988
78	0x3b0c482d	0.0021405325
79	0xbbf6d0be	-0.007532208
80	0x3b87064b	0.004120623
81	0x3c2eae8a	0.010661731
82	0x3c8890fb	0.016670695
83	0x3cf553cb	0.029947182
84	0xbbb96394	-0.0056576226
85	0xbb15c9ba	-0.0022855834
86	0x3c5ac109	0.013351687
87	0x3c17341a	0.009228731
88	0x3d0adc02	0.033901222
89	0x3cc96975	0.024586419
90	0x3b310ada	0.0027014525
91	0x3c602a5d	0.013681975
92	0x3d458521	0.048222665
93	0x3aa4c7fa	0.0012571805
94	0xbb824922	-0.0039760033
95	0x3af799a1	0.001889039
96	0x3c2747c7	0.010209984
97	0xb9cf8fcf	-0.00039589262
98	0x3cde9016	0.027168315
99	0x3cdddc62	0.027082626
100	0x3ce50a5c	0.027959041
101	0x3d4081ba	0.046998717
102	0x3c3a87bc	0.011384901
103	0x3cfcd473	0.030863022
104	0xbd1149af	-0.03547066
105	0xbcd99249	-0.026559012
106	0x3d3564ea	0.044285692
107	0x3d2df3fd	0.042469013
108	0xbca4ceea	-0.020118196
109	0xbcc8f49b	-0.0245307
110	0xbc96043d	-0.018312568
111	0x3daea653	0.085278176
112	0xbc59da80	-0.013296723
113	0xbd06bfb4	-0.032897666
114	0x3d1a177d	0.037620056
115	0x3d18ef3e	0.037337534
116	0x3d9a4e87	0.07534509
117	0x3d0704e9	0.032963667
118	0x3d2a9143	0.04164244
119	0xb9fd02ae	-0.00048257917
120	0x3cd35aad	0.025800074
121	0x3cb290e8	0.021797612
122	0x3bc24d17	0.0059296
123	0x3d1fd86e	0.039024763
124	0x3c946f4d	0.018119479
125	0xbb349456	-0.0027554235
126	0x3b2a7c55	0.002601405
127	0x3b7c31d1	0.0038481841
128	0x3a896d50	0.0010484848
129	0xbc285fec	-0.010276776
130	0xbba4f5d1	-0.0050341864
131	0x3af5b095	0.0018744642
132	0xba625f56	-0.0008635422
133	0x3c919d58	0.017775223
134	0x3c2cbdf5	0.010543336
135	0xbb594e27	-0.0033158155
136	0xbbd199e4	-0.006396519
137	0xbc68004a	-0.014160225
138	0x3b385cfc	0.0028131595
139	0xba3d1ef8	-0.00072143925
140	0xbc11cfa6	-0.008899605
141	0xbc119e13	-0.0088877855
142	0x3b3cb681	0.0028795304
143	0x3ce5ada0	0.028036892
144	0xbbf97582	-0.007612885
145	0xbc7a9916	-0.015295288
146	0x3ba324bf	0.0049787457
147	0x3bc654dc	0.0060525965
148	0x3c94727c	0.018120997
149	0xbba22aa9	-0.004948933
150	0x3b3d2f78	0.0028867405
151	0xbb9c6157	-0.004772346
152	0xbbaf35ab	-0.005346974
153	0xbb1e6242	-0.0024167453
154	0xbb691e80	-0.0035571158
155	0x3c7b6d9e	0.015345959
156	0xbbde59ff	-0.0067856307
157	0xbb91fd93	-0.004455277
158	0xbba904a2	-0.005158023
159	0xbb721fb2	-0.0036945161
160	0x3a81c4c2	0.0009900557
161	0x3bf51f79	0.0074805585
162	0xbc265982	-0.010153176
163	0x3d4e6258	0.050386757
164	0x3d23cdf4	0.039991334
165	0x3cf91f10	0.03041032
166	0xbc9b237a	-0.018937815
167	0x3d76709a	0.06016598
168	0x3c6b60ad	0.014366311
169	0x3c3f38a2	0.011671217
170	0x3d69127b	0.05690239
171	0x3cf2b7ba	0.029628623
172	0x3c21ba33	0.0098710535
173	0x3a6f6a0b	0.0009132928
174	0x3b3baacd	0.002863574
175	0xbbeb1d2c	-0.0071751084
176	0x3bc82a3d	0.006108551
177	0x3c58db2f	0.013235851
178	0x3ccf3770	0.02529499
179	0x3d5c46d0	0.05377847
180	0xbbb49f80	-0.005512178
181	0xbac5b9dd	-0.0015085299
182	0x3be01d9c	0.006839467
183	0x3cde3746	0.027125966
184	0x3c84f07f	0.016227959
185	0x3cfbe04e	0.030746605
186	0x3b8e8728	0.004349608
187	0x3cd5e9cf	0.026112465
188	0x3d20c852	0.03925354
189	0x3b26a575	0.002542821
190	0xbb4ffa14	-0.0031734752
191	0x3b9210cb	0.0044575683
192	0x3d0b6e0c	0.034040496
193	0x3c116542	0.008874239
194	0xbd11a06f	-0.035553392
195	0xb986b053	-0.00025689843
196	0x3e0dd4be	0.13850686
197	0x3b9a7e6b	0.004714777
198	0xbc938b90	-0.018010885
199	0xbcd7af7b	-0.026328793
200	0x3c9e8081	0.019348385
201	0x3c5ae90d	0.013361228
202	0x3e3a6cbc	0.18205541
203	0x3e06e183	0.13171963
204	0x3c8a67f0	0.016895264
205	0x3b91cd09	0.004449491
206	0x3bb14490	0.0054097846
207	0xbb43a392	-0.0029852134
208	0x3c381496	0.011235377
209	0x3c829639	0.015940772
210	0x3d052d45	0.032513876
211	0x3e19d365	0.15022047
212	0x3b73af1b	0.0037183228
213	0x3aad5518	0.0013224212
214	0x3a3e5ef4	0.0007262074
215	0x3c67ae55	0.014140685
216	0xbd13d736	-0.036093913
217	0x3d84a72b	0.06477197
218	0x3cb8fc80	0.022581339
219	0x3d26bcc9	0.040707383
220	0xbba88d41	-0.005143792
221	0x3ba09d35	0.004901553
222	0xbb32a147	-0.0027256773
223	0x3b8c7d51	0.0042874
224	0xbb925700	-0.0044659376
225	0x38ae8b0b	8.322865e-05
226	0x3c0fd01b	0.008777644
227	0xbad8a120	-0.0016527511
228	0xbb349e4a	-0.0027560168
229	0xbb433364	-0.002978527
230	0xbc2d6af8	-0.010584585
231	0x3c82450c	0.015902065
232	0x3a5a61f3	0.00083306356
233	0x395045fd	0.00019862498
234	0x3b70cdc4	0.003674374
235	0x3b04eba6	0.002028206
236	0xbb038ecc	-0.0020074127
237	0xba8eb587	-0.001088784
238	0xb74b5c78	-1.2121272e-05
239	0xbbf0d485	-0.007349553
240	0xba1810cc	-0.0005800843
241	0x39a1dda3	0.00030873445
242	0xb8161569	-3.5782727e-05
243	0xbba19edd	-0.004932268
244	0xbb9640d9	-0.004585367
245	0xbc04350b	-0.008069287
246	0x3b53b3b8	0.0032303166
247	0xbb418b2b	-0.0029532413
248	0x3c7cdbd9	0.015433275
249	0xbb93d6d7	-0.004511695
250	0xbaf1dcb9	-0.0018452621
251	0xbc008574	-0.007844318
252	0x3c034d90	0.008014098
253	0x36194833	2.2840802e-06
254	0xbbecc193	-0.0072252243
255	0x35fb59fa	1.8727144e-06

weight f4 [8, 32]
0	0xbcb34b5c	-0.02188652
1	0xbc914f91	-0.017738136
2	0x3ca97de6	0.020689916
3	0x3c63c6b4	0.013902355
4	0x3c3ecc84	0.01164544
5	0x3cd95fa4	0.026534863
6	0xbe122c7b	-0.1427478
7	0x3d2572d5	0.040392715
8	0xbddaefef	-0.10690295
9	0xbcdfe290	-0.027329713
10	0xbafd9a7c	-0.0019348408
11	0x3cb6db85	0.022321472
12	0xbb609a76	-0.0034271753
13	0x3c99c95e	0.018772777
14	0x39773096	0.00023573855
15	0x3cd933b5	0.026513914
16	0xbbded96e	-0.006800822
17	0xbd159f89	-0.036529098
18	0x3c8b616e	0.017014232
19	0xba8d4558	-0.0010778112
20	0x3cdcc65c	0.026950054
21	0x3c5d74e8	0.013516642
22	0x3d03700f	0.03208929
23	0x3c928bf7	0.017889006
24	0x3d26d28c	0.040728137
25	0x3c1e30c3	0.00965518
26	0x3b84dc8f	0.004054613
27	0xbd3b3616	-0.045705877
28	0x3d09780a	0.033561744
29	0x3b862985	0.004094305
30	0x3c72104a	0.014774391
31	0x3c3af9f9	0.011412137
32	0xbcaf4d39	-0.021399127
33	0xbc94cf08	-0.018165126
34	0xbb527ba1	-0.0032117146
35	0x3c781d83	0.015143755
36	0x3caa27c1	0.02077091
37	0x3d02abf4	0.03190227
38	0xbe16661e	-0.14687392
39	0x3c6eb0c0	0.014568508
40	0xbdecbae4	-0.11559084
41	0xbce18a38	-0.027531728
42	0x3c4057fd	0.011739728
43	0x3c8e07fa	0.017337788
44	0xbb52f56f	-0.0032189747
45	0x3c8bf356	0.017083805
46	0x39be62c7	0.0003631322
47	0x3cb979e0	0.022641122
48	0xbbbecba9	-0.005822618
49	0xbd196f15	-0.03745945
50	0x3d01f28d	0.031725455
51	0xbc5c75db	-0.013455833
52	0x3cba54e8	0.022745565
53	0x3c269d04	0.010169271
54	0x3be4edf7	0.0069863754
55	0x3cd7ef83	0.026359325
56	0x3bd68649	0.0065467698
57	0x3cedba13	0.029019391
58	0x3b8bc7b9	0.004265752
59	0xbcbaf480	-0.022821665
60	0x3c8a6018	0.016891524
61	0x3a52943a	0.0008032952
62	0x3c84ee62	0.016226951
63	0x3c3e17b9	0.011602336
64	0xbca11cdf	-0.019667087
65	0xbc7f577a	-0.015584821
66	0xbc91acd5	-0.017782608
67	0xbb593c85	-0.0033147645
68	0x3c5e1bad	0.013556403
69	0x3c739880	0.014867902
70	0xbe2c2a81	-0.16813089
71	0xbc8ca2d9	-0.017167496
72	0xbdecc242	-0.11560489
73	0xbca053e7	-0.019571258
74	0x3b151576	0.0022748387
75	0x3ccf7423	0.025323933
76	0x3785e7cc	1.5962774e-05
77	0x3c2a9d08	0.010413416
78	0xbb26074e	-0.0025333944
79	0x3c37b89a	0.011213446
80	0xbc0511bd	-0.008121905
81	0xbce9f576	-0.028559428
82	0xbc39c36f	-0.011338099
83	0xbaed3590	-0.0018097628
84	0x3c14ea49	0.009089061
85	0xbc3435eb	-0.010999183
86	0xbcad1272	-0.02112696
87	0x3c706afe	0.014673946
88	0xbce2f899	-0.027706431
89	0x3b926858	0.004468005
90	0xbb171431	-0.0023052807
91	0xbd903542	-0.07041408
92	0xbd48f595	-0.04906233
93	0xbc017ed8	-0.007903777
94	0x3ab8386b	0.00140549
95	0xb9495944	-0.00019202108
96	0x3d179309	0.037005458
97	0x3db5f04a	0.08883722
98	0xbcf150c5	-0.02945746
99	0x3b093860	0.0020938143
100	0xbcb52098	-0.022110268
101	0x3c6589a1	0.014009864
102	0x3d835ada	0.06413813
103	0xbc6e616c	-0.014549594
104	0x3e9ad3da	0.30239755
105	0x3e1812bc	0.14850897
106	0xbd756e42	-0.059919603
107	0xbde51d29	-0.111872025
108	0x3e1ab47f	0.15107916
109	0x3d6a05ed	0.057134558
110	0xbdf39557	-0.11893719
111	0x3dd97b3e	0.1061921
112	0x3df8e1a7	0.12152415
113	0x3e464087	0.19360553
114	0x3cd9ea1a	0.026600886
115	0xbe1a4b6d	-0.15067835
116	0x3d1e0d9e	0.038587205
117	0x3b24c809	0.0025143644
118	0xbc83235f	-0.016008077
119	0x3dd4cffe	0.10391234
120	0xbcd0af04	-0.025474079
121	0x3d9d5b76	0.076834604
122	0x3da730bd	0.08163593
123	0xbe0774da	-0.13228169
124	0x3b7ef2d4	0.003890206
125	0x3d00c706	0.031439804
126	0xbc67d3c5	-0.014149611
127	0x3afa6f43	0.0019106645
128	0xbcbbee7a	-0.022940863
129	0xbc9ba88e	-0.019001272
130	0x3cab32b1	0.020898195
131	0xbc687615	-0.014188309
132	0x3ade1773	0.0016944244
133	0xbcbd14dd	-0.023081237
134	0xbdac1310	-0.084020734
135	0x3c2046e3	0.009782526
136	0xbe3a2a01	-0.18180086
137	0xbd53d77f	-0.051719185
138	0x3de6b372	0.11264695
139	0x3d107028	0.03526321
140	0xbd233e3e	-0.03985428
141	0x3ca88c71	0.02057478
142	0x3d22f048	0.03977993
143	0x3c88b5be	0.016688224
144	0xbd16ddb3	-0.036832523
145	0xbd9037e3	-0.070419095
146	0xbcd073ee	-0.025445905
147	0xbe1ae7fd	-0.15127559
148	0x3c721faa	0.014778057
149	0xbc509e0d	-0.012732995
150	0xba9a0902	-0.0011751952
151	0xbd6450bc	-0.055741057
152	0x3c97bd6b	0.018522939
153	0xbd4c30bc	-0.049851164
154	0xbc4b55ff	-0.01241064
155	0xbe01eebf	-0.1268873
156	0xbb6c2ff3	-0.0036039322
157	0x3b2b5b58	0.0026146974
158	0x3bf7af65	0.0075587505
159	0xbc964f93	-0.01834849
160	0x3dc4d0ff	0.09610175
161	0xbcbf2b25	-0.023336003
162	0x3c349f23	0.011024269
163	0xbd7ca678	-0.061682194
164	0xbe0c258d	-0.136862
165	0xbd8c5b81	-0.068533905
166	0x3eef6410	0.4675603
167	0xbd09f24a	-0.03367833
168	0x3e673116	0.22577319
169	0xbd7ea99c	-0.06217347
170	0xbe8e8547	-0.27836058
171	0xbc5272f4	-0.01284479
172	0xbe30aa4b	-0.17252462
173	0xbda868cc	-0.082231134
174	0x3da11610	0.07865536
175	0xbed94429	-0.42434815
176	0xbde6aeb2	-0.11263789
177	0xbd518110	-0.051148474
178	0x3dea300a	0.11434944
179	0x3e2d6f12	0.16936901
180	0xbe379fb7	-0.1793202
181	0xbb9d4a26	-0.004800099
182	0x3bbb1e8d	0.005710429
183	0xbe5846b7	-0.21120726
184	0xbbeb6ae4	-0.007184373
185	0xbdd0786c	-0.10179219
186	0xbdc5c8bd	-0.096574284
187	0x3ec0eef4	0.37682307
188	0xbc98ff02	-0.018676285
189	0xbd348074	-0.044067815
190	0x3b9226eb	0.004460206
191	0xbb6e221e	-0.0036336253
192	0xbc5189b2	-0.012789177
193	0xbc8445cf	-0.016146569
194	0xbcd81443	-0.026376849
195	0xbc8245b7	-0.015902383
196	0x3aae40e9	0.0013294491
197	0xbaa6b9f8	-0.0012720218
198	0xbe19209d	-0.14953847
199	0xbcd8c318	-0.026460215
200	0xbdcebd8a	-0.100947455
201	0xbc8132f3	-0.015771365
202	0x3d4948e3	0.049141776
203	0x3d11e06d	0.03561442
204	0x3c19fc16	0.009398481
205	0x3c5f4986	0.013628369
206	0xbaff3164	-0.0019469676
207	0x3c11498a	0.008867631
208	0x38b6be92	8.713933e-05
209	0xbcb9d14e	-0.022682812
210	0x3c2a6d02	0.010401966
211	0xbc6c8b35	-0.014437486
212	0x3c4c47b0	0.0124682635
213	0xbc89e664	-0.016833492
214	0xbcf55b42	-0.029950742
215	0x3c95d385	0.018289337
216	0xbcf190dc	-0.02948802
217	0x3aecc92b	0.0018065324
218	0x3b817953	0.0039512306
219	0xbd90507b	-0.070466004
220	0xbc8f9b9b	-0.017530253
221	0xbb840e42	-0.00403002
222	0x3bdd5d1f	0.0067554857
223	0x396129aa	0.00021473193
224	0xbcbec352	-0.023286495
225	0xbc67b9e6	-0.014143443
226	0x3c84b79b	0.016200831
227	0x3b0f72d0	0.0021888502
228	0xbb58731b	-0.0033027593
229	0x3c6dcb0a	0.01451374
230	0xbe2777b8	-0.16354263
231	0x3c847747	0.016170157
232	0xbdbe3a6f	-0.09288489
233	0xbc921ff7	-0.017837508
234	0x3cfe82ef	0.031068293
235	0xbc8f3f24	-0.017486162
236	0xb9afeac3	-0.00033553512
237	0x3c35f156	0.011104902
238	0xbc097bed	-0.008391363
239	0x3c584cf9	0.013201945
240	0xbbb742b9	-0.0055926708
241	0xbcc91d6d	-0.024550164
242	0xbc7f0854	-0.01556595
243	0xbdaca47b	-0.0842981
244	0x3c04b5b3	0.008099961
245	0xbbc767e6	-0.0060853837
246	0x3a4f5d1a	0.00079102966
247	0x3bd80ec8	0.006593559
248	0x3ccc6155	0.024948755
249	0x3b89cfdb	0.0042056865
250	0xbbe09f2f	-0.0068549137
251	0xbdbea014	-0.09307876
252	0x3bcfe788	0.0063447393
253	0xbbdf7b90	-0.0068201497
254	0xbbb1c956	-0.0054256124
255	0x3c1b4085	0.009475832

c f4 [8]
0	0x3c5d7503	0.013516667
1	0x3c23056e	0.009950025
2	0xb88ee56e	-6.813822e-05
3	0xb91d11eb	-0.00014979362
4	0x3c18bafc	0.009321924
5	0x3c8e3c0c	0.017362617
6	0x3cf048cf	0.029331593
7	0x3c106f33	0.008815574

bias f4 [128]
0	0x3d75d7e6	0.06002035
1	0x3e0e2d57	0.13884483
2	0x3de39027	0.11111479
3	0x3d194714	0.0374213
4	0x3bd9f1ca	0.006651138
5	0x3b41ee65	0.0029591557
6	0x3ddc9e62	0.107723966
7	0x3c92a7d1	0.017902287
8	0x3d5c499b	0.053781133
9	0x3da8de1d	0.0824549
10	0x3d5fca5a	0.054636337
11	0x3d66bd01	0.056332592
12	0x3c9ba4d3	0.018999493
13	0x3df37710	0.11887944
14	0x3d87adb2	0.066249266
15	0x3de9619f	0.11395573
16	0x3ddc0100	0.10742378
17	0x3dd826c3	0.10554268
18	0x3c3c6842	0.011499466
19	0x3d286963	0.04111613
20	0x3e015bba	0.12632647
21	0x3d390a66	0.045175932
22	0x3dd025e7	0.10163479
23	0x3d00b182	0.031419285
24	0x3c83750a	0.01604702
25	0x3e2f97b8	0.1714772
26	0x399f88aa	0.00030428666
27	0x3d2139fa	0.03936193
28	0x3de15b14	0.110037
29	0x3d235c90	0.039883196
30	0x3d8241f3	0.06360235
31	0x3d78ce83	0.06074382
32	0x3e0b92fe	0.13630292
33	0x3dc058c8	0.09391934
34	0x3dc87691	0.0978824
35	0x3e492cae	0.1964595
36	0x3d80c4c3	0.06287529
37	0x3dd36e84	0.103238136
38	0x3d96ac01	0.07357026
39	0x3d0c1ec9	0.034209047
40	0x3db8edeb	0.09029754
41	0x3d9d83dd	0.076911665
42	0x3e495cd4	0.19664317
43	0x3da9ec6e	0.082970485
44	0x3d53d032	0.051712222
45	0x3b963975	0.004584486
46	0x3df1904b	0.117951
47	0x3d2dc11b	0.042420488
48	0x3e19c14b	0.15015142
49	0x3dae0760	0.084975004
50	0x3d45cf6d	0.04829352
51	0x3a8a6acc	0.0010560392
52	0x3e0e9ce2	0.13927034
53	0x3c689847	0.014196462
54	0x3d49481e	0.049141042
55	0x3dae1e92	0.085019246
56	0x3dd64d68	0.10463983
57	0x3db549b2	0.08851947
58	0x3d53bb75	0.051692445
59	0x3d26e6ef	0.04074758
60	0x3dd8a62d	0.105785705
61	0x3e0b3672	0.13594988
62	0x3e1a7dc9	0.15087046
63	0x3e09b372	0.13447359
64	0x3e06b592	0.13155201
65	0x3e063859	0.13107432
66	0x3a88e2a9	0.0010443527
67	0x3c908a5f	0.017644105
68	0x3daa53be	0.08316754
69	0x3da91de8	0.08257657
70	0x3dfedd21	0.12444521
71	0x3c1f39b9	0.009718352
72	0x3daf9f58	0.08575314
73	0x3a8b87ac	0.0010645292
74	0x3d5b89ad	0.053598095
75	0x3e2a2504	0.16615683
76	0x3e0e1047	0.13873397
77	0x3e925e8e	0.28587765
78	0x3e8fbdc0	0.28074455
79	0x3e8a4139	0.27002886
80	0x3d3c8114	0.046021536
81	0x3e0c2ac2	0.13688186
82	0x3ddaf69c	0.10691568
83	0xbb143cf3	-0.0022619336
84	0x3e3ff873	0.1874712
85	0x3e2f3a33	0.17112045
86	0x3e0d1445	0.13777263
87	0x3d0d1755	0.03444608
88	0x3d95ec51	0.073204644
89	0x3e064f54	0.13116199
90	0x3e1022fc	0.14075845
91	0x3de00176	0.10937779
92	0x8027e67f	-3.664271e-39
93	0x3dd7f995	0.10545651
94	0x3c80c4f0	0.015718907
95	0x3d554f18	0.052077383
96	0x3e18d7f4	0.1492613
97	0x3dc40911	0.09572042
98	0x3e078054	0.13232547
99	0x3ce53ff4	0.027984597
100	0x3c8a4920	0.016880572
101	0x3d7c2893	0.061562132
102	0x3c50b1b0	0.0127376765
103	0x3c0138de	0.007887093
104	0x3bcbdce7	0.006221402
105	0x3e08b6e2	0.13351014
106	0x3e01e543	0.12685113
107	0x3e50bcaf	0.20384477
108	0xbb494bbb	-0.0030715305
109	0x3cf4494e	0.02982011
110	0x3e0f05cb	0.13967054
111	0x3a78a6ef	0.0009485324
112	0x3e387949	0.18015017
113	0x3c67c49e	0.014145998
114	0x3d107801	0.035270695
115	0xadb985ce	-2.1091486e-11
116	0x3e051067	0.12994538
117	0x3d10f12b	0.035386246
118	0x3dcd7970	0.10032928
119	0x3e09d8ac	0.1346156
120	0x3a166b5b	0.0005738043
121	0x3db9bd0d	0.09069262
122	0x3d0296f1	0.03188223
123	0x3d81ec71	0.06343926
124	0x3e477e73	0.1948183
125	0x3bdcce81	0.0067384844
126	0x3dce14a0	0.10062528
127	0x3da769af	0.081744544

weight f4 [1024, 64]
0	0x3ca4279e	0.020038422
1	0x3d0886df	0.033331748
2	0x3cc5d385	0.024148712
3	0xbc0b5954	-0.008505184
4	0x3b7cd8ab	0.0038581293
5	0x3d220e4a	0.03956441
6	0x3cb425b8	0.021990642
7	0x3c126677	0.008935562
8	0x3c8c00ab	0.017090162
9	0x3c5c281e	0.013437299
10	0x3c73b1e2	0.014873954
11	0x3cbe45a3	0.023226565
12	0x3caa80c5	0.020813355
13	0x3d013000	0.031539917
14	0x3ae9d63c	0.0017840336
15	0x3ca57379	0.020196663
16	0x3735d3c2	1.0837744e-05
17	0x3c3f04c6	0.011658853
18	0x3ce019c9	0.027356045
19	0x3ce9ad63	0.02852506
20	0x3cbe8ced	0.023260558
21	0x3c9aa8de	0.01887935
22	0x3aeef869	0.0018231991
23	0x3c4317ed	0.01190756
24	0x3cc67b93	0.024228847
25	0x3c9fa580	0.019488096
26	0x3cb3d543	0.021952277
27	0x3ccc913d	0.024971599
28	0x3b212f1e	0.0024594734
29	0x3cd703c4	0.026246913
30	0x3d08ff8c	0.033446833
31	0x3c7ffa91	0.0156237045
32	0x3d03a905	0.03214361
33	0x3c75ba54	0.014998037
34	0x3cea80bf	0.028625844
35	0x3b977ddc	0.004623158
36	0x3c0400ec	0.00805686
37	0x3726d1d5	9.943226e-06
38	0x3c0ff9cc	0.008787584
39	0x3ccf3ed6	0.025298517
40	0x3b5f26fb	0.0034050334
41	0x3c18a2cc	0.009316158
42	0x3ca7c1e8	0.020478204
43	0x3cacd20f	0.021096257
44	0x3ccdd806	0.025127422
45	0x3cbb5363	0.02286691
46	0x3ccf7f10	0.025329143
47	0x3d5002fe	0.050784104
48	0x3c6ba10f	0.014381661
49	0x3d17719b	0.036973577
50	0x3c8281ee	0.015931096
51	0x3be02690	0.0068405345
52	0x3ce1bd85	0.02755619
53	0x3c7a48a5	0.015276109
54	0x3d186d38	0.037213534
55	0x3c92eecb	0.017936131
56	0xbca9bc65	-0.020719716
57	0x3c80c954	0.015721
58	0xbb8de6fb	-0.0043305135
59	0x3be9d669	0.0071361554
60	0x3ab24bb0	0.0013602879
61	0x3c834d21	0.016027989
62	0x3cddc6ef	0.027072398
63	0xbcca80d7	-0.024719639
64	0x3cd3537c	0.025796644
65	0x3e3b8709	0.1831323
66	0x3d0ce837	0.034401145
67	0xbcef4328	-0.029206827
68	0x3a4ac4dd	0.00077350234
69	0x3cc3733c	0.023858659
70	0x3dacaac2	0.08431007
71	0x3c7e6c38	0.015528731
72	0x3d0f31e1	0.034959678
73	0x3ccc4120	0.024933398
74	0x3cb8ecdc	0.02257388
75	0x3d90415f	0.070437185
76	0x3d953ea8	0.07287341
77	0x3e12cd26	0.1433607
78	0x3c27d51c	0.01024368
79	0x3cf441ed	0.029816592
80	0x3b2b0adf	0.002609901
81	0x3a9ff629	0.0012204099
82	0x3d03bb1f	0.032160874
83	0x3cfccb9a	0.030858804
84	0x3d176b19	0.03696737
85	0x3d9e1d46	0.07720427
86	0x3c24cfa6	0.010059273
87	0xbc95d015	-0.018287698
88	0x3b3c2de1	0.002871387
89	0x3d59af30	0.053145587
90	0x3c2b1642	0.010442318
91	0x3dc959f2	0.09831609
92	0x3c649e9b	0.01395383
93	0x3d072c51	0.033001248
94	0x3d02db4c	0.03194742
95	0x3d0673a1	0.032825116
96	0x3d065a98	0.03280124
97	0x3b95c331	0.004570388
98	0x3cd9fda0	0.026610196
99	0x3bee17e5	0.007266032
100	0xbca99ccf	-0.020704655
101	0x3b2242c4	0.0024759034
102	0x3c1ab782	0.009443166
103	0x3d08dac0	0.03341174
104	0x3baea7ab	0.005330046
105	0x3b69d9cf	0.0035682803
106	0x3da2d54a	0.07950838
107	0x3cdf229a	0.027238179
108	0x3d1f45af	0.038884815
109	0x3da7fea3	0.08202865
110	0x3cd66310	0.026170284
111	0x3ce9c86a	0.028537948
112	0x3cfbda75	0.030743817
113	0x3e541234	0.20710069
114	0x3d038f7c	0.03211926
115	0x3ca4db63	0.020124143
116	0x3d0a7cad	0.033810306
117	0x3cfd6d93	0.030936038
118	0x3e1ba972	0.15201357
119	0x3d088a58	0.03333506
120	0xbcfa47e2	-0.030551855
121	0x3d86b4b8	0.06577438
122	0xbc25aaf2	-0.010111557
123	0x3cc1692c	0.02360972
124	0x3c1bda88	0.009512551
125	0x3cdaa39f	0.026689349
126	0x3d1452aa	0.036211647
127	0xbd5b75e0	-0.05357921
128	0x3cba029a	0.022706319
129	0x3ddd4f35	0.10806123
130	0x3cedaf92	0.029014383
131	0xbc9a4f37	-0.0188366
132	0x3b16d127	0.0023012848
133	0x3cccf604	0.025019653
134	0x3d4614c3	0.048359644
135	0x3c3f01ea	0.011658171
136	0x3cd059c5	0.02543343
137	0x3c990c27	0.018682553
138	0x3c978f43	0.01850093
139	0x3d2309a7	0.039804127
140	0x3d350752	0.044196434
141	0x3dc08734	0.09400788
142	0x3b8766ef	0.0041321437
143	0x3ccc2ed1	0.024924668
144	0x39839913	0.00025100316
145	0x3c023b0f	0.007948651
146	0x3ced2e76	0.028952818
147	0x3cecbb9e	0.028898057
148	0x3cf537ae	0.029933777
149	0x3d238347	0.039920118
150	0x3b87af11	0.0041407426
151	0xbc00a1c3	-0.007851067
152	0x3c1a1d8d	0.0094064595
153	0x3d128431	0.0357706
154	0x3c68527e	0.014179824
155	0x3d654cab	0.05598132
156	0x3bc9b002	0.006155015
157	0x3ceebac0	0.029141784
158	0x3cf78853	0.030216372
159	0x3cc14308	0.023591533
160	0x3cf7253c	0.030169122
161	0x3c13a15e	0.009010641
162	0x3cd5f6b9	0.026118623
163	0x3bba1c2a	0.005679627
164	0xbc2f337e	-0.010693429
165	0x397a81e4	0.00023890246
166	0x3c0ab914	0.008466978
167	0x3ced6c65	0.02898235
168	0x3b91688a	0.004437511
169	0x3bc184ff	0.005905747
170	0x3d45577d	0.04817914
171	0x3cc1a02b	0.023635944
172	0x3d021966	0.031762503
173	0x3d706810	0.05869299
174	0x3cc949c4	0.024571307
175	0x3ce37403	0.02776528
176	0x3cb1b58a	0.02169301
177	0x3e04f7b7	0.1298512
178	0x3cbf6f27	0.023368431
179	0x3c3f79c4	0.011686746
180	0x3cf4bb33	0.02987442
181	0x3cb9a3ff	0.022661207
182	0x3dcf4a34	0.10121575
183	0x3ccf0bea	0.025274236
184	0xbcd45bab	-0.025922617
185	0x3cf344a0	0.029695809
186	0xbbf01073	-0.0073261796
187	0x3c613231	0.013744877
188	0x3b662ba8	0.0035121236
189	0x3cab3356	0.020898502
190	0x3d00e44d	0.031467725
191	0xbd1f004d	-0.038818646
192	0xbc379358	-0.011204563
193	0x3baeb3d4	0.005331496
194	0xbc04ea40	-0.00811249
195	0x3ca153fb	0.019693365
196	0xbb2c6421	-0.0026304799
197	0xbb524a68	-0.0032087807
198	0xb9f586b0	-0.00046830392
199	0xbb4dd238	-0.0031405818
200	0xbc040a29	-0.008059063
201	0xbc3a8cf6	-0.011386147
202	0xbc4d5767	-0.012533045
203	0xbb31e117	-0.002714222
204	0xb9e06346	-0.00042798574
205	0x3bb56327	0.0055355015
206	0xbb21d67e	-0.0024694498
207	0xbc2b7251	-0.010464267
208	0xb8887129	-6.506063e-05
209	0x3c172381	0.009224773
210	0xbbaaaff0	-0.0052089617
211	0xbb9a5d78	-0.0047108494
212	0xbc089d73	-0.00833832
213	0xbb13852e	-0.0022509801
214	0xbb2a2fd0	-0.002596844
215	0x3ccc057f	0.024904964
216	0x3c45633b	0.012047584
217	0xbb35e342	-0.0027753864
218	0x3b9b6f9b	0.004743529
219	0xba7975ce	-0.00095161505
220	0xbb161fe8	-0.0022907201
221	0xbbe76bd3	-0.007062414
222	0xbb773fc2	-0.0037727212
223	0xbc186047	-0.009300298
224	0xba91c570	-0.0011121463
225	0x3c1a1b17	0.009405873
226	0xbb7b6a3b	-0.003836288
227	0xbbaefe36	-0.005340363
228	0x3ccf9d10	0.025343448
229	0xb87912e8	-5.9383834e-05
230	0x34fa5bd3	4.663294e-07
231	0xbbf2ae2d	-0.0074060173
232	0xba2c7ca4	-0.0006579852
233	0x3bc1ad11	0.0059105237
234	0xbad0226a	-0.0015879397
235	0xbbf4f869	-0.007475902
236	0xbbdaef38	-0.006681349
237	0xb9c2aac1	-0.00037129785
238	0xbc0411bd	-0.00806087
239	0x3b300ff0	0.0026864968
240	0xbc211747	-0.00983221
241	0x3c0632d5	0.00819083
242	0xbc23e3ed	-0.010003072
243	0xbbbafdb3	-0.005706513
244	0xbbc0a622	-0.0058791796
245	0xbc1c455b	-0.00953802
246	0x3bd3246e	0.0064435517
247	0xbc2ac979	-0.010424011
248	0x3ceb5143	0.028725272
249	0xbb6adb85	-0.003583641
250	0x3bba3bf8	0.0056834184
251	0xbbaf087a	-0.0053415867
252	0xbb01d5d1	-0.0019811282
253	0xbc052ed2	-0.008128839
254	0xbbcc520c	-0.0062353667
255	0x3d31b26d	0.04338305

weight f4 [8, 64]
0	0x39c20020	0.00037002657
1	0xb98bde85	-0.00026677936
2	0x3a09d61f	0.0005258042
3	0x3b5ebcd5	0.0033987064
4	0x3d0ffdea	0.03515426
5	0xbb2c2a62	-0.002627038
6	0x3a9c276d	0.0011913605
7	0xbb1cee89	-0.002394589
8	0xbaa426fd	-0.0012523826
9	0xbb0cd95e	-0.0021491866
10	0xba515076	-0.0007984707
11	0x3a3131c6	0.0006759431
12	0xbc147611	-0.009061352
13	0xbc087835	-0.008329441
14	0xba6fe71e	-0.00091515656
15	0x3a8eb649	0.0010888065
16	0xb72c389a	-1.02651775e-05
17	0x3c21fa04	0.0098862685
18	0x397f7e2e	0.000243657
19	0x3a9df924	0.0012052399
20	0xba678aaf	-0.0008832616
21	0xbaa1df72	-0.0012349917
22	0x381d15b5	3.7451933e-05
23	0x3c4c6b4f	0.012476756
24	0x3c354ddd	0.011065927
25	0xbb1ef96f	-0.002425756
26	0x3c27f80c	0.01025201
27	0xbc5d9a84	-0.013525609
28	0xb9e10708	-0.00042920583
29	0x3a5999ad	0.00083007925
30	0xbaee989b	-0.0018203439
31	0xb98082f1	-0.0002451162
32	0x37b151fc	2.1138221e-05
33	0x3c24534a	0.010029623
34	0x3b0f3e2c	0.0021857126
35	0x3b9338f6	0.0044928743
36	0x3c4514b9	0.012028866
37	0xb94166a2	-0.00018444148
38	0x3ba3418a	0.004982178
39	0x3a40a76c	0.00073491666
40	0x3c0b12fa	0.008488411
41	0x3b9f0a58	0.004853528
42	0xbba63fae	-0.005073509
43	0xbabd326e	-0.0014434585
44	0xba967e3b	-0.0011481711
45	0xbb9cb2da	-0.004782063
46	0x3ac7a497	0.0015231547
47	0x3adc3df7	0.0016803135
48	0x39fd8008	0.0004835131
49	0x3c9a26e3	0.01881737
50	0x3a0b89b9	0.00053229515
51	0x3b8f0b01	0.0043653254
52	0xbb1d4847	-0.002399938
53	0xb937f5a4	-0.00017543748
54	0xbcac6aba	-0.021046985
55	0xb86e8798	-5.6869903e-05
56	0x3cabb338	0.020959482
57	0xbb3e0fe3	-0.0029001168
58	0x3d281a53	0.04104073
59	0xbc15c774	-0.009141792
60	0xba4f8b19	-0.00079171505
61	0xba160460	-0.0005722698
62	0xba6b21db	-0.00089695834
63	0x3a20c947	0.0006133508
64	0x39ded3bc	0.00042500894
65	0x3c0d6e96	0.008632323
66	0x3a898580	0.0010492057
67	0x3ce5ebad	0.02806648
68	0x3ce4f167	0.02794714
69	0x3a035f8e	0.0005011492
70	0x3ab1ec01	0.0013574363
71	0x39a13f36	0.0003075541
72	0xbb1300ce	-0.00224309
73	0xbb4fe130	-0.0031719916
74	0xbb125a4f	-0.002233166
75	0x3b518156	0.003196796
76	0x3b2f9671	0.002679255
77	0xb94382df	-0.00018645402
78	0xb9ea5e47	-0.000447022
79	0x3a785e4e	0.0009474502
80	0xb7073a76	-8.0602385e-06
81	0x3cd3218d	0.025772834
82	0x3ab294e1	0.0013624692
83	0x3b10bf7c	0.002208679
84	0xba4d0281	-0.00078205025
85	0x3b0159fa	0.0019737468
86	0xb9978acd	-0.0002890438
87	0x3cd3285e	0.025776085
88	0x3cbd0b6f	0.023076741
89	0xb9a7d3a8	-0.00032010418
90	0x3c9e1f42	0.019302014
91	0xbb390279	-0.0028230234
92	0xba97e6f4	-0.0011589215
93	0x3abdbc25	0.0014475627
94	0xb97ef9f9	-0.0002431645
95	0xba6d3982	-0.0009049402
96	0x3b3886b3	0.002815646
97	0x3cbcd22f	0.023049442
98	0x3b48485b	0.0030560705
99	0x3c5fe70e	0.013665928
100	0x3cd776a6	0.026301693
101	0xb85f5c0a	-5.325306e-05
102	0x3c3ee4eb	0.011651258
103	0x3aaf25ac	0.0013362668
104	0x3c39083d	0.011293468
105	0x3c671b0a	0.014105568
106	0x3b0f7ec6	0.0021895631
107	0xba2a8148	-0.000650425
108	0xba0c13aa	-0.00053435063
109	0xbb87df16	-0.004146467
110	0x3aeb37b4	0.0017945678
111	0x3b6398b0	0.003472846
112	0xb99bbd81	-0.00029705095
113	0x3af0910b	0.0018353773
114	0x3901e909	0.00012389211
115	0x3b28e4dd	0.0025771179
116	0xbb26ab54	-0.002543171
117	0xba53de87	-0.00080821704
118	0x398f128d	0.00027288907
119	0xb9dad4e2	-0.0004173881
120	0x3cf724a2	0.030168835
121	0xbb96105a	-0.004579586
122	0x3cbd3754	0.023097672
123	0xbb5fcf0d	-0.0034150511
124	0xba54b05d	-0.00081134384
125	0x3a49af19	0.0007693633
126	0xb97f966b	-0.0002437473
127	0x3d00fdaa	0.031491913
128	0x3a69d22d	0.0008919563
129	0x3a86acc2	0.0010274875
130	0x3a92d995	0.001120376
131	0x3cb8af6b	0.022544583
132	0x3d12bc57	0.035824146
133	0x3990e866	0.0002763897
134	0x3a853b62	0.0010164792
135	0xba300e02	-0.00067159545
136	0xbaa74ed2	-0.0012764579
137	0xbb141fcc	-0.002260196
138	0xbac9db9a	-0.0015400529
139	0x3b3e0751	0.002899606
140	0xb926f369	-0.00015921671
141	0xbb5e7181	-0.0033942165
142	0xba0892f1	-0.0005209884
143	0x3a9e6287	0.0012083807
144	0xb6ea9d12	-6.992029e-06
145	0x3cc665be	0.024218436
146	0x3aa8a939	0.0012867815
147	0x3b0d66a6	0.0021576076
148	0xb9c6c1b1	-0.00037909814
149	0x3af3a0cb	0.0018587349
150	0xb90b1f1b	-0.0001326766
151	0x3caba34f	0.020951895
152	0x3cb1301c	0.021629386
153	0xb9aa21f4	-0.00032450224
154	0x3c64ae7a	0.013957614
155	0xbbb4cce8	-0.005517591
156	0xba4d7c07	-0.0007838611
157	0x3ab49cf8	0.001377969
158	0xb9f60b7a	-0.00046929327
159	0xb8e15a96	-0.00010745709
160	0x3b2a98a3	0.002603092
161	0x3cb205ea	0.021731336
162	0x3b4156b3	0.002950114
163	0x3c3b2291	0.0114218155
164	0x3cafc6ed	0.02145716
165	0xb836672c	-4.3488268e-05
166	0x3c19ebc8	0.009394594
167	0x3aa8d3db	0.0012880521
168	0x3c217f1a	0.0098569635
169	0x3c5ae414	0.013360042
170	0x3a0d98fa	0.00054015184
171	0xb9288056	-0.00016069537
172	0xb9669537	-0.00021990096
173	0xbb86ff80	-0.0041198134
174	0x3aee26b9	0.0018169499
175	0x3b4e732b	0.003150175
176	0x3a002c5f	0.00048894243
177	0xba603a45	-0.0008553605
178	0x3a39d821	0.00070893957
179	0x3b6ea779	0.003641574
180	0xbb0c74e8	-0.0021431986
181	0xb7c629c4	-2.3622888e-05
182	0xba6ff484	-0.0009153562
183	0x38ce90e1	9.849831e-05
184	0x3c92b3ab	0.017907938
185	0xbb8abc49	-0.004233871
186	0x3ce82078	0.028335795
187	0xbbb80098	-0.005615305
188	0xba354e1c	-0.0006916241
189	0x3a7a3b7c	0.0009545607
190	0xb7413202	-1.151534e-05
191	0x3cb218b5	0.021740297
192	0x3c28bf40	0.010299504
193	0xb9a1b155	-0.00030840436
194	0x3c4d48dd	0.012529579
195	0xbcc15714	-0.023601092
196	0xbd65d18a	-0.056108035
197	0x3cb39c72	0.021925185
198	0x3c87e76f	0.016589848
199	0x3c17ae2e	0.009257836
200	0x3c5d6321	0.013512404
201	0x3c44f96d	0.012022358
202	0x3c37d934	0.011221219
203	0x3c96a6c6	0.01839007
204	0x3d10063f	0.035162207
205	0x3d2faf17	0.042891588
206	0x3bcf55c0	0.006327361
207	0x3c281e3a	0.010261113
208	0x3b3fe4e4	0.0029280717
209	0xbcd5be67	-0.026091767
210	0x3c6034f2	0.013684498
211	0x3c54244b	0.012948106
212	0x3c6e5e3d	0.014548835
213	0x3caea44f	0.021318583
214	0x3baf3ebe	0.0053480556
215	0xbca1faa2	-0.019772831
216	0xbc7bfcf7	-0.015380136
217	0x3c7cc26b	0.015427212
218	0xbc57921f	-0.013157397
219	0x3ce7967e	0.028270002
220	0x3c1550a9	0.009113469
221	0x3c4ee06c	0.0126267485
222	0x3ca38b35	0.01996384
223	0x3c3f8e48	0.011691637
224	0x3c8102fd	0.015748495
225	0xbce65510	-0.028116733
226	0x3c3ddd6a	0.011588434
227	0xbc5974fa	-0.013272518
228	0xbcaad4e8	-0.020853475
229	0x3bcea477	0.006306227
230	0xbc2e08b0	-0.010622188
231	0x3c4cc70b	0.012498627
232	0xbc39f60c	-0.011350166
233	0xbb2a8c10	-0.0026023425
234	0x3c91de84	0.017806299
235	0x3c687c48	0.014189787
236	0x3c785e41	0.015159191
237	0x3ccc948a	0.024973173
238	0x3c2b6c76	0.010462871
239	0x3ca9b7ef	0.02071759
240	0x3c28fbe7	0.010313964
241	0xbb5f9c20	-0.0034120157
242	0x3c2912f3	0.010319459
243	0x3b7a9d58	0.0038240757
244	0x3c947fe4	0.01812739
245	0x3c38f977	0.011289946
246	0x3d561e9a	0.052275278
247	0x3c407fa9	0.011749187
248	0xbd1783ce	-0.036990933
249	0x3c6d2b53	0.014475661
250	0xbd38162b	-0.044943016
251	0x3c99180c	0.018688224
252	0x3bef1e7f	0.0072973366
253	0x3c47374c	0.01215918
254	0x3c7e32c0	0.015515029
255	0xbd03009b	-0.031983
